onpolicy/trained_models/informarl_3agents_target/files/actor.pt (torch, 194501 bytes, 58 tensors)

gnn_base.gnn.embed_layer.layer_norm.weight f4 [16]
00000000: a4f0 853f 1963 463f 27e7 0c3f 122f 963f
00000010: 453d 6a3f 3b7d 783f c6df 793f 0082 7f3f
00000020: 649c 6c3f bbde 6f3f 6ddb 813f 1de8 863f
00000030: baaf 5b3f 0afe ff3e 4f38 1b3f 853c 6d3f
1.0464063 0.7749496 0.5504021 1.1733115 0.9149974 0.97066087 0.97607076 0.9980774
0.92426133 0.93699235 1.0145088 1.0539585 0.8581501 0.49998504 0.60632795 0.9267047

gnn_base.gnn.embed_layer.layer_norm.bias f4 [16]
00000000: 95ee 083e 849e e23d fe45 9a3d 43a9 253e
00000010: d966 18bc 2500 633e 7b6d ac3e fe51 42be
00000020: 1dad ce3d 7d03 5c3d 436a b0bd 55f5 f23b
00000030: 68a0 12be 02ca 843e 510b 1a3d d379 d23d
0.13372262 0.11065391 0.07532881 0.1617785 -0.009301865 0.22168024 0.33677277 -0.1897659
0.100916125 0.053714264 -0.08614018 0.0074144998 -0.14319003 0.2593537 0.03760845 0.102771424

gnn_base.gnn.embed_layer.entity_embed.weight f4 [3, 2]
00000000: 2291 d23f d632 71be 2f98 ffbf e116 4d3f
00000010: 8b82 69bf 31a4 a8bf
1.6450541 -0.23554549 -1.9968318 0.80113035 -0.9121482 -1.3175107

gnn_base.gnn.embed_layer.lin1.weight f4 [16, 9]
00000000: 4f88 013e 5674 013f b7c6 f93d 0e48 233f
00000010: 0bb9 95be 9a09 e0be b6e0 583f 195b 9ebe
00000020: 5494 df3b 358d 95bf 8fa5 853e a11a 6abe
00000030: 0f04 22be 98f3 bd3e 39d6 ca3e 4e59 433f
00000040: 2459 9d3e fa91 4bbd 1485 673d 4c42 f53e
00000050: c000 363e 560e 33bf fd1d 9dbe 3842 cb3e
00000060: 189a b53e 5b21 3b3e 6335 1abf 6871 dd3d
00000070: 1e5f 6bbf 8583 453e 70c6 13bf f57d acbe
00000080: db28 ae3e 96eb 173f d74b ff3d d3fb 4bbd
00000090: fb27 d3be ff63 273d b3c5 c1be 886d 59bf
000000a0: 6a10 a3bd f5b1 ecbe a0b7 2f3e 3b07 52bf
000000b0: 45f2 91be 5127 093f 4fe6 e03e a927 49bf
000000c0: d04e 1d3f 2b32 6dbe 0b98 b73c 35b7 8d3e
000000d0: ef1b e83e cfbe 2bbf feaa 07bf 5e80 f4be
000000e0: cd7e 8e3e 4166 1b3d 5f0c 1bbf 0644 28bf
000000f0: f6b4 d6be d4ba 4b3f a852 64bd 6ee3 88bf
00000100: 398c 65be b79a dcbe 2f8e 933e d2e1 a33c
00000110: d3b7 76be 013f 51bd 01be 0fbd 4074 773f
00000120: 616e 833e 4ff1 80be 66fe 24bf 67af 963e
00000130: be62 0bbf f88f 213f 80b2 c5be 2c0f 153f
00000140: e3cc b9be 8adb 3f3e 8b51 7c3f b36a e2be
00000150: 98af 0dbf 74d8 88bd 1e23 4fbf 89fe 6b3e
00000160: ccd6 ed3e 0ba1 dcbe 6347 4a3f 724d 49be
00000170: 2104 1f3f 86d4 103e 3389 823f 3356 34bf
00000180: fd34 28be 0ded 1b3f d502 773e 5ae2 3f3e
00000190: 450c 593f 52d7 1f3f 6b0f 18bf 3e9c e9be
000001a0: dd2c 03bf 59d7 18be 0d61 503e 873b 613e
000001b0: 309c 123e c31e 4f3f 80cd af3d ea09 863e
000001c0: dfd7 e93e fb90 953e 4605 dcbe 386c c7be
000001d0: bd91 3a3d fe4a 213d 1d72 003e 0d0c 133f
000001e0: 3827 003f 679b 8f3e 0d90 913e 5546 2dba
000001f0: c7af 7e3c 544c 8fbd e6d2 7ebe 5c71 06bf
00000200: c1f2 07bf 4db0 073e a222 d33d 721a 9dbe
00000210: fb61 19bf dc9d 05bb c759 4bbf ef0e ecbe
00000220: 9101 c63e e2e4 c03e 4a3c 313c fb24 14be
00000230: 7ca9 12bf 8039 a1bd badb 90be 43f0 7cbf
0.12649654 0.5056814 0.12196105 0.6378182 -0.2924274 -0.43757325 0.8471788 -0.30928877
0.006823102 -1.1683718 0.26102874 -0.2286172 -0.1582186 0.3709991 0.39616564 0.76308143
0.3073207 -0.04969976 0.056523398 0.47902143 0.17773724 -0.6994375 -0.30686942 0.39698958
0.35469127 0.18274443 -0.6023771 0.10812646 -0.9194201 0.19288452 -0.57724667 -0.33689848
0.34015545 0.5934385 0.12465637 -0.049800705 -0.4124144 0.040866848 -0.37846145 -0.84932756
-0.07962115 -0.4622952 0.17159891 -0.8204228 -0.2850515 0.5357562 0.43925712 -0.7857614
0.61448383 -0.23163669 0.022411367 0.27678838 0.45333812 -0.67088026 -0.5299529 -0.47754186
0.27831116 0.037939314 -0.6056575 -0.65728796 -0.41934937 0.7958195 -0.05574289 -1.0694406
-0.22416772 -0.43086788 0.28819415 0.02000514 -0.24093561 -0.051085476 -0.03509331 0.9666176
0.2567015 -0.25184104 -0.6445068 0.29430696 -0.54447544 0.63110304 -0.38612747 0.58226275
-0.3628913 0.18736091 0.98561925 -0.4422203 -0.5534606 -0.0668191 -0.8091296 0.23046316
0.4645294 -0.43091616 0.7901518 -0.1965845 0.62115675 0.14143571 1.019812 -0.7044403
-0.16426463 0.60908586 0.24122174 0.1873869 0.84784347 0.6243793 -0.59398526 -0.45627016
-0.5124033 -0.14925899 0.20349522 0.21995364 0.14317393 0.80906314 0.08584118 0.2617944
0.4567251 0.29212174 -0.42972773 -0.38949752 0.045549143 0.03937816 0.12543531 0.57440263
0.50059843 0.2804825 0.28430215 -0.00066099066 0.015544838 -0.0699698 -0.24885139 -0.5251672
-0.5310479 0.13250847 0.1030934 -0.3068424 -0.5991513 -0.002038828 -0.79433864 -0.46105143
0.3867307 0.37674624 0.010817597 -0.14467232 -0.5728986 -0.078722954 -0.28292638 -0.9880411

gnn_base.gnn.embed_layer.lin1.bias f4 [16]
00000000: 0a77 89bd 6d4c 353e 0ee9 c33b 5ebe 95bc
00000010: 2588 ba3d f330 16be 6fea da3d 3912 fcbc
00000020: 20ad 67bc 6a62 7dbe 613c 8d3c 2ef8 cfbd
00000030: 9714 03be 790c 3abe 1503 063e 3b82 8dbd
-0.06712158 0.17704935 0.00597871 -0.01827925 0.09107999 -0.1466711 0.10689246 -0.030770408
-0.014140397 -0.24744573 0.017240705 -0.101547584 -0.12800823 -0.1816882 0.13087113 -0.06909605

gnn_base.gnn.embed_layer.layers.0.weight f4 [16, 16]
00000000: bb02 573f cd0e 103f 9ad4 ef3e 0bef 2f3e
00000010: 0f64 6e3e 43d9 62bd ca7b 94bd 5a14 fc3e
00000020: f383 a43d 3b5e 663e b555 d63d a3b9 edbe
00000030: 030c f1be ed1b 1b3f 6d8b 3e3e 5473 063c
00000040: 24ad dd3d 14c9 623c 08a9 28be 91ba 3b3f
00000050: 8416 8abe b871 b3be 8d54 853e 554d cbbe
00000060: dd6b 30bd 08b3 0d3f 4df4 44bf 9399 913e
00000070: ab78 eabe 45f8 903d df07 653e 31af f9bd
00000080: 5221 db3e 4a7b 62bf 1615 3a3d b8a9 12be
00000090: baaf 3bbf 0e2e 2e3f cd40 87be 3863 26bf
000000a0: 9649 9b3d 0889 813d 8db7 913e 7276 5cbf
000000b0: 77ed 723e 5180 363f 770c 52bd 8120 403d
000000c0: 35d5 ee3e da0c 413e 3964 293e bc2b 713f
000000d0: a45f 91bd 7c00 1bbe 2caf 8fbe decc cebe
000000e0: 3da9 0f3f ef1f e43e 7ea1 213e d8bc 0a3f
000000f0: f8b4 6cbd 8d10 37be d7cf 8dbf 7d0d b33d
00000100: c65b 3ebf 544b 5f3e 2bde d23e 5c7e 413e
00000110: ed5a d8be 7036 133f 8052 42bf 2754 a6bd
00000120: aa7d f73e e36f 84be 9c75 edbe e43e 473d
00000130: f74b 093f 6742 d63e b34b a8be 9470 19be
00000140: f491 12bf 226f 19bf db80 7e3b e551 95be
00000150: 557a 693f 09fe 793d 4654 15bf ad0b 93be
00000160: e45b 59bd c83e 46be fce1 a1be 36d4 1c3e
00000170: 196c dfbc 833b 853e 1cb8 043f e188 5b3f
00000180: 89e1 b23e 9099 393f 7f9b c7be 73d7 8f3e
00000190: 7cfc a13e a1ac 753e 95ad 85bf 079b 01bf
000001a0: e68d 20bf 1fbb ebbe 99a9 833e 3449 6bbe
000001b0: b91a 85bc 9791 4c3e 7203 07be 0fa4 91be
000001c0: 6b8a 97bd 4467 483d 3185 84be 2119 aebe
000001d0: fa28 c83e d0ee a33e 5970 313f 97ff 94bf
000001e0: 0229 433f e128 26bf 5320 b43d 688d d8be
000001f0: f1e3 153e 8d4f d03d d571 053f ef43 3cbe
00000200: b49f 953e 1f23 22be 98cd 2b3f 754b 8d3f
00000210: c4e4 023e 30cb aa3d cb82 2bbe 924c 3cbd
00000220: ee64 d33c 7502 e5be 1e84 f53e 5408 b1bd
00000230: 1f9c 3abf 8736 83be a4cb 053f af62 18bf
00000240: 8e30 be3e 950b f8be fb39 eb3b f442 45bf
00000250: 30cc d5bd d101 753f 644e f13e bdbc 2d3d
00000260: 4e8f 67be 206d a83e e4fb 4a3e 03a0 573e
00000270: 9e40 3ebf 0404 2fbe a5e8 d9be d903 b9bd
00000280: 7ceb 56be d955 07be eb93 1ebe a411 7a3e
00000290: 3db0 7bbf 21d2 413e 1ae4 9f3e 04b7 cbbc
000002a0: d1c1 eb3e 823c 38bf 1cce a33e 930c 0f3f
000002b0: 16bd f3bc 2b35 c63d 9807 013f b7fa 1f3f
000002c0: cc1a 6f3d 12ac 82be 53f3 8e3d 9c50 d53e
000002d0: 7082 893e bf3d f5bc 5530 b33e 1190 a839
000002e0: 41d1 8bbf e874 e0bd d474 c3bc 77d5 233f
000002f0: 88a9 353f 3982 883e 58a8 ffbe 1622 1f3d
00000300: 2fc7 0ebf 8768 19bf b4b3 15bf 3917 b8bc
00000310: ab92 933d aae4 a2be 598c d13e 6177 5e3f
00000320: 9627 d63e 6769 78bf 4e25 d1bd 0a99 e9bd
00000330: 2fe0 c4bd 10eb 8c3e f5ec 3a3e 7cf4 a1bd
00000340: 5802 65be 4def b53e f554 8a3f 94f6 2bbe
00000350: 1cc3 dabe 2c49 ddbc f2b2 6cbe 1b0e 82bf
00000360: 72dc 9fbe 9a4a ecbe 0325 dbbe af67 8ebe
00000370: 7c00 fdbe 5478 f13e 7f0e cebe 1825 833d
00000380: ea8a 083f 9110 0abf 4334 d1bd c2ff c6be
00000390: e99d 01bf ab8c dd3d 3412 0fbf 050e 24bf
000003a0: 2758 783e 189b 923d ca44 1fbf e792 163f
000003b0: 4afb 0f3f b3f0 c33c be02 313e b33e 75bc
000003c0: 0cc7 48bf c383 50be f6af cabe 4c08 cfbe
000003d0: 6a30 39bf 5c2b afbe 4f67 6c3e b7b6 d0bd
000003e0: c47d aebe 7926 d13e 4770 993f f4c0 383f
000003f0: 7336 943d 225e 063f dd19 7e3e 5bc8 40bf
0.8398854 0.56272584 0.4684189 0.17181031 0.23280357 -0.05538298 -0.072501734 0.49234277
0.0803298 0.22496884 0.10465566 -0.46430692 -0.47079477 0.60589486 0.18607874 0.008206207
0.108240396 0.013841886 -0.1647073 0.7333155 -0.26970303 -0.35047698 0.2604107 -0.39707437
-0.043071616 0.55351305 -0.76935273 0.2843748 -0.45795187 0.07078604 0.22366284 -0.12191618
0.4279886 -0.88469374 0.045430265 -0.14322555 -0.7331501 0.68039024 -0.26416627 -0.64995146
0.07582395 0.06324965 0.2846035 -0.86118233 0.23723398 0.71289545 -0.05128142 0.046906
0.4664704 0.18852559 0.16542138 0.9420736 -0.0709832 -0.15136904 -0.28063333 -0.40390676
0.5611761 0.44555613 0.1578426 0.541944 -0.057789773 -0.17877407 -1.1079053 0.08742807
-0.74358785 0.21806079 0.41185126 0.18895859 -0.4225687 0.5750494 -0.75907135 -0.081215195
0.48338062 -0.25866613 -0.4637879 0.04864396 0.5363154 0.41847536 -0.32870254 -0.14984351
-0.57253957 -0.599352 0.0038834128 -0.29164043 0.9120229 0.061033282 -0.58331716 -0.28719845
-0.05306615 -0.19359887 -0.31617725 0.15315327 -0.027273225 0.26021966 0.5184343 0.85755736
0.34937695 0.7249994 -0.38985822 0.28094062 0.31637943 0.23991634 -1.0443598 -0.5062718
-0.6271652 -0.460412 0.2571533 -0.22977144 -0.016248094 0.19977413 -0.13184908 -0.2844548
-0.07399448 0.048926607 -0.25882867 -0.34003547 0.39093763 0.32018137 0.69312054 -1.16405
0.7623445 -0.64906126 0.08795228 -0.42295384 0.14637734 0.10171423 0.5212682 -0.1838529
0.29223406 -0.1583371 0.67110586 1.1038653 0.1278258 0.08339536 -0.16749112 -0.04597146
0.025804963 -0.44728437 0.4795236 -0.086441666 -0.7289447 -0.2562754 0.52263856 -0.5952558
0.3714642 -0.48446336 0.0071785427 -0.7705529 -0.10439336 0.95705897 0.4713012 0.042416323
-0.2261326 0.32895756 0.19822651 0.21057133 -0.7431735 -0.17091376 -0.42560306 -0.09033937
-0.20988268 -0.13216342 -0.15486114 0.24420792 -0.98315793 0.18927814 0.31228715 -0.024867542
0.46046308 -0.7196733 0.31993186 0.5587856 -0.02975325 0.0967811 0.5040221 0.62491935
0.058375165 -0.25521904 0.06980004 0.41663063 0.26857328 -0.02993667 0.34997812 0.00032150795
-1.0923234 -0.10959798 -0.023859419 0.63997597 0.7096181 0.26661852 -0.49933124 0.038850866
-0.5577268 -0.5992512 -0.5847733 -0.02247201 0.07205709 -0.31815082 0.4092739 0.8690091
0.41827077 -0.9703583 -0.102121934 -0.11406143 -0.09613072 0.27523088 0.18254454 -0.0790796
-0.22364175 0.35534135 1.0807177 -0.16793281 -0.42726982 -0.02701243 -0.23115137 -1.0160555
-0.31222874 -0.46150666 -0.42801675 -0.2781348 -0.49414432 0.47162116 -0.40245435 0.064035594
0.53336966 -0.5393153 -0.10215046 -0.38867003 -0.50631577 0.10817846 -0.5588715 -0.6408389
0.24252377 0.07158488 -0.6221434 0.58817905 0.5624281 0.023918485 0.17286202 -0.014968562
-0.7842872 -0.20362763 -0.39587373 -0.40436018 -0.723395 -0.34212768 0.23086284 -0.101911
-0.34080327 0.40849665 1.1987389 0.72169423 0.07236948 0.52487385 0.24814554 -0.7530572

gnn_base.gnn.embed_layer.layers.0.bias f4 [16]
00000000: 3767 87ba 48d8 f9bd d483 e039 3784 e2bd
00000010: d188 27bd 6da9 9abc 045b 643e e26c 473d
00000020: a4fa a03c 6305 cfbd a7af e23d d1d6 ff3c
00000030: f2de 843c f1b0 81bd d528 d5bd 5623 c23d
-0.0010330443 -0.121994555 0.0004282283 -0.11060374 -0.040901963 -0.018879617 0.22300345 0.048687823
0.019650765 -0.10108449 0.11068659 0.031230362 0.01621959 -0.06332577 -0.10408179 0.09479396

gnn_base.gnn.embed_layer.layers.2.weight f4 [16]
00000000: a4f0 853f 1963 463f 27e7 0c3f 122f 963f
00000010: 453d 6a3f 3b7d 783f c6df 793f 0082 7f3f
00000020: 649c 6c3f bbde 6f3f 6ddb 813f 1de8 863f
00000030: baaf 5b3f 0afe ff3e 4f38 1b3f 853c 6d3f
1.0464063 0.7749496 0.5504021 1.1733115 0.9149974 0.97066087 0.97607076 0.9980774
0.92426133 0.93699235 1.0145088 1.0539585 0.8581501 0.49998504 0.60632795 0.9267047

gnn_base.gnn.embed_layer.layers.2.bias f4 [16]
00000000: 95ee 083e 849e e23d fe45 9a3d 43a9 253e
00000010: d966 18bc 2500 633e 7b6d ac3e fe51 42be
00000020: 1dad ce3d 7d03 5c3d 436a b0bd 55f5 f23b
00000030: 68a0 12be 02ca 843e 510b 1a3d d379 d23d
0.13372262 0.11065391 0.07532881 0.1617785 -0.009301865 0.22168024 0.33677277 -0.1897659
0.100916125 0.053714264 -0.08614018 0.0074144998 -0.14319003 0.2593537 0.03760845 0.102771424

gnn_base.gnn.gnn1.lin_key.weight f4 [48, 16]
00000000: c3df c23c d310 2cbe fbad c83d 0681 7dbe
00000010: 0cea 17be abfd 793e 478b dc3c eb41 4a3d
00000020: 4e03 42be f8de c03e 0dc2 a7bd 62e3 00bf
00000030: a5fb f13e 9db2 47be 2638 7bbe b365 3cbe
00000040: a0ee edbd 3dfc 19be a0ef 0e3e 1477 9bbe
00000050: 3ae6 16be 6e8c 2d3e 6fb6 91bd c2a4 a0be
00000060: 5b19 f4bd 9d40 8a3d 982d 47bd 46d6 debe
00000070: ea3b 8b3e 27e3 6a3e aef4 b3be c0ce 903d
00000080: 35b3 9dbd dfb8 11bf 86f8 4d3e d9a3 05bf
00000090: 0495 813e 2336 173e 3e22 47bc 37a3 c5be
000000a0: fba0 193d 1b5e 8c3e 23b6 b1bd ca03 babd
000000b0: 1985 3e3f 597f 0fbf 4534 373e 4d92 803e
000000c0: c550 98bd 5850 413d 164c b0be f4bd 363e
000000d0: 3744 a6bc bb48 763e 7782 bc3d ed99 0f3e
000000e0: 707d debe 4bfc a83e d469 cfbd 2f3e 3abe
000000f0: f84a ff3d 7a40 023e 2327 81be c00b 8dbe
00000100: cb53 89bd b3a2 093d 9e4f d8bd f41e d5bc
00000110: 7a18 003e 38f5 f3bd 5025 2dbd 1af9 8abe
00000120: 2dad e9bd 5e3d 69be 080a 1d3e 8c6f 2a3f
00000130: 089e 8c3e 4bc7 5bbe 8d3b 42bc 9618 693e
00000140: d0c0 0fbe 17fb e6be 44aa 56be 3dd4 013f
00000150: f7a0 da3d f126 1dbe 9ba8 80be ee88 e9be
00000160: 7584 5c3e 04e2 a2be d3ea 5bbe 5009 09bd
00000170: 5668 0a3e 7b0d 1bbe 8bdd f23d 072e 1b3f
00000180: 0488 a8bd f835 803e a135 a3bd 363a 593e
00000190: de73 203e a088 7ebe c906 d53e e3b8 d43d
000001a0: 1d54 b2be ac44 103e 756a d5be d517 58be
000001b0: 4699 2bbc 6772 eb3e dbed cc3e c9c8 4fbe
000001c0: 7c3f 99bd a0cb 23be 2216 13be 5906 173f
000001d0: f23d 863d a04d 48be 7d96 773e c612 8a3e
000001e0: eba7 08be 4437 5ebe 7d6e dd3a fb8f 223e
000001f0: 3437 f7be 01e0 9f3e 2c23 cc3e bb2e 6c3e
00000200: c8aa 973e acda 7b3e 35cd 72bb 5d89 963e
00000210: 7af0 28bd ff2d 87be c09e 5c3e bcc4 37be
00000220: def0 3b3d 279e 10bf 7b8e 303d 8af3 063f
00000230: 525d aebe abf0 4b3e a336 993e 08e5 6a3e
00000240: 8775 46be 094d 2dbf 4a5b 3c3e 796f 82bc
00000250: 6c23 ee3d dfdb fe3d db8b 05be acd6 03be
00000260: f7bf 583e 2e73 9abc 470a fdbc cb9f cc3d
00000270: ba6e 463f 3db8 3abf 32f1 96be 8b22 843e
00000280: e9bf c7be b4bd aebe 17b0 53bc 4710 a43d
00000290: e0dc 21be d7de 38bc 607a 22be ad6d 68be
000002a0: 8c0c 64bd 4097 ae3e 5b37 32be 4312 cc3e
000002b0: f26f ab3e 0306 56bf de81 b7be b032 eebc
000002c0: 5041 cbbd 64f0 c0bd e0e7 bfbe 765b bd3e
000002d0: be43 ce3e 6ba5 713e e8fe 4bbe 1288 eabe
000002e0: 03ff 8c3d b275 313e 427b 9dbe 1102 523f
000002f0: b6a8 ce3e 7d69 ce3d 2185 f2be 8f53 febc
00000300: 952c 523e fb0d 273f 86b0 88be fa93 ce3d
00000310: 67df 973d bfb3 423d 44e4 ba3e a140 01bd
00000320: 772c c4be bd92 693c a85b babc 4cd6 7abd
00000330: 9beb 0bbf 69d6 4bbe eed9 9e3e 94ea f9be
00000340: a3c4 cc3d f151 0a3f 051b fabe f21b 453d
00000350: 1e3f c0bd bfa6 8a3d 6d78 0cbe 86df 99be
00000360: 2475 a7be 9ff4 d73e 3a05 41be 78ae bb3e
00000370: 54fb 823d acf8 dc3e 7cbc 0bbf b9c3 08bf
00000380: 950b 963e 988e a43e 3742 cebe f4e9 2f3e
00000390: 7ea2 9abd 7f4c 98be d6c4 a53d 62d6 bb3e
000003a0: 6e23 203d 7c55 5bbe 83c9 3abe 3b09 8f3e
000003b0: f84d c4be 2845 883e 1125 9b3e bd94 36bd
000003c0: cd67 883e 1bb8 553e e40b ac3e 0105 ebbe
000003d0: a4bd 3f3c a6f7 d03a 5329 413e 3267 093f
000003e0: 927e f8bd 31f5 603e 9278 c8bc 17f0 01bf
000003f0: 95a9 05be d291 ad3e eae4 823e 7462 98bb
0.023788339 -0.16803293 0.09798809 -0.2475625 -0.14835376 0.24413173 0.026921881 0.04937927
-0.18946573 0.37670112 -0.08191309 -0.5034696 0.47262302 -0.1950173 -0.24533138 -0.1839817
-0.1161778 -0.15037628 0.13958597 -0.30364287 -0.14736262 0.16948101 -0.071148746 -0.313757
-0.11918899 0.06750605 -0.048627466 -0.43522853 0.27194148 0.22938214 -0.35147613 0.070706844
-0.07700197 -0.56922716 0.20114335 -0.52203137 0.25309002 0.14766745 -0.01215416 -0.38601086
0.03750704 0.27415547 -0.08677318 -0.09082754 0.7442184 -0.5605369 0.17891033 0.2511162
-0.074372806 0.047195762 -0.3443305 0.17845899 -0.0202962 0.24051182 0.09204572 0.14023562
-0.43455076 0.33004984 -0.10127607 -0.18187784 0.12465471 0.12719908 -0.2522517 -0.27548027
-0.06705435 0.033602428 -0.10562061 -0.026015736 0.12509337 -0.11912006 -0.042271912 -0.27143174
-0.11409984 -0.22777316 0.15335858 0.6657646 0.27464318 -0.21462743 -0.011855018 0.22763285
-0.14038396 -0.4511344 -0.20963389 0.50714475 0.10675233 -0.15346886 -0.25128636 -0.45612282
0.21534903 -0.3181306 -0.21476297 -0.033456147 0.13516364 -0.15141861 0.11858662 0.6061711
-0.08229068 0.25041175 -0.07969213 0.21213612 0.156692 -0.24856806 0.4160674 0.10386827
-0.34829798 0.14088696 -0.41682783 -0.21102841 -0.010473555 0.4598572 0.4002522 -0.20291437
-0.07482812 -0.15995646 -0.14363912 0.5899406 0.06554784 -0.19560862 0.241785 0.26967448
-0.13345306 -0.2170077 0.001689389 0.15875237 -0.48284304 0.3122559 0.39870584 0.23064701
0.29622483 0.24595135 -0.0037048582 0.29401675 -0.04124496 -0.2640228 0.21544933 -0.17946142
0.045884006 -0.5649132 0.04310463 0.5271536 -0.34055573 0.19916026 0.29924497 0.22938931
-0.1938077 -0.6769567 0.18394199 -0.015922295 0.1162785 0.12444281 -0.13041632 -0.1287486
0.21166979 -0.01885375 -0.03088869 0.099914156 0.77512705 -0.72937375 -0.29480892 0.25807604
-0.39013603 -0.34129107 -0.012920401 0.08010917 -0.15806913 -0.011283598 -0.15866995 -0.22698088
-0.055676028 0.3409977 -0.17403929 0.39857683 0.33483845 -0.83602923 -0.35841268 -0.029076904
-0.09924567 -0.09420851 -0.37481594 0.36983842 0.40286058 0.23598258 -0.19921458 -0.45806938
0.06884577 0.17330053 -0.307581 0.82034403 0.4036309 0.10078714 -0.47367194 -0.031045703
0.20524819 0.6525571 -0.26697177 0.10086818 0.074156575 0.0475347 0.36502278 -0.031555776
-0.38315174 0.014256177 -0.022748783 -0.061239526 -0.5465638 -0.1990601 0.31025642 -0.4881178
0.09998443 0.5403128 -0.4884874 0.048122354 -0.09387039 0.067700855 -0.13717814 -0.30053347
-0.3270656 0.4217882 -0.1884965 0.36656547 0.06395593 0.43158472 -0.5458448 -0.5342365
0.2930571 0.3214004 -0.40284893 0.1717909 -0.07550524 -0.29745862 0.08094184 0.36687
0.03909629 -0.21419328 -0.18240933 0.2793673 -0.38340735 0.26615262 0.30301717 -0.04457544
0.26641694 0.20871012 0.33602822 -0.45902255 0.011702929 0.0015942946 0.1886342 0.5367309
-0.12133516 0.21968533 -0.024471555 -0.50756973 -0.13052972 0.33900315 0.25565273 -0.0046504084

gnn_base.gnn.gnn1.lin_key.bias f4 [48]
00000000: 2110 af3d 32aa ba3d 223d d73d a1c5 55be
00000010: eac0 863d a3f6 85be fa65 2cbe dfbf 0dbe
00000020: 7da1 853b ffbe 94be f0b0 f43c 34aa 403d
00000030: 352e d6bd f16d 953d 0ec6 303e 58f7 90bd
00000040: 61d6 c6bd 3e56 3ebe 785b 26be 685b 06be
00000050: b7ec 2abe d8ef ddbd 01c3 363e 968d 043d
00000060: 0434 733e 0faa 663e 44b5 69bd d7ef 9cbd
00000070: 6774 9e3c 21fa 62be a821 f33d 21b0 8abc
00000080: 8b02 51be d126 56be 731b 33be 38af 7e3d
00000090: b4f0 413e 5e55 613e d1e5 19bd d2a0 d4bd
000000a0: a39a e7bd a955 6dbe 1305 72bd 6c94 83be
000000b0: f68e fd3d 475b 5abe 9a79 14be fbaa 103e
0.08547998 0.091144934 0.10509707 -0.2087617 0.06579764 -0.2616473 -0.16835776 -0.13842724
0.004078089 -0.29051968 0.029869527 0.04703732 -0.10458032 0.0729636 0.17263052 -0.07078427
-0.09708858 -0.18587586 -0.1624583 -0.13120806 -0.16691862 -0.10836762 0.17847826 0.03236159
0.23750311 0.2252581 -0.057057634 -0.07662933 0.019342614 -0.22165729 0.11871654 -0.016929688
-0.20411126 -0.20913245 -0.1749094 0.06217882 0.18939477 0.22005221 -0.037572686 -0.103822365
-0.113087915 -0.23177208 -0.05908687 -0.25699174 0.12380783 -0.21323882 -0.14499512 0.14127724

gnn_base.gnn.gnn1.lin_query.weight f4 [48, 16]
00000000: e9db 773d 930e 153f 7639 e7be 28c5 013e
00000010: ba0d e8bd fb9a 5fbe 4ed9 943e d0c6 2d3d
00000020: aa3a aa3e 58a9 7c3e 8021 463d fb46 3cbe
00000030: 6fc9 a93e 43a9 b8bd f42d 2fbe 2de3 52be
00000040: a860 083d 2b20 1a3f f428 9dbe f333 303e
00000050: 1dde 05be b6ef 9abe 98a4 cf3e 1423 d03c
00000060: 4dad ce3e c203 4ebe bfd0 4ebd 11b1 69bd
00000070: 3932 153d 0f39 143c 7d48 25be bd82 a2bd
00000080: 66d5 8e3e 3a12 473b 7598 c53b 183e 833b
00000090: 8809 cabe 96c1 e33e 5dc2 543f aa03 7b3e
000000a0: feaa 713e a91d 17bd 07c9 afbd bc99 f1be
000000b0: fa0a c73d 9f29 bebe b9ae 993d 2a15 efbc
000000c0: 8ae6 e73d 8f79 a23e 0546 b8be 020e 50bc
000000d0: b599 443d b2aa 38be 8803 90be de13 e63d
000000e0: ce08 773e 42b0 12bc b7e9 36be 6396 0fbe
000000f0: c84d a93e 1af9 b6be c5bd 553e ebaa eebd
00000100: c43d 51bc bdfa 2ebe 8817 ed3e 7ee9 cb3d
00000110: 9869 113e 0c6b 9f3e 4492 5b3e 4568 ee3e
00000120: 8801 6cbc 8b0d cebe 520d 343d 7e87 c1bd
00000130: 9151 71be 38b7 fa3d 196f ae3e 4eea 343d
00000140: 46fa 8ebe 41c8 c5bc 6c52 293f b378 0a3f
00000150: 6aa6 193c c87f aa3d 6cc6 113f 2ace 11bd
00000160: 0814 6cbe 5761 70be e422 e1be b58f 5b3e
00000170: 065f 85be 7d27 b23d ff0b c33e aed9 513e
00000180: 77b4 c23e 8f81 513d 6068 a33e e708 42be
00000190: aaf0 5f3e a539 bebd 6e92 bdbe e71f a7be
000001a0: 3a30 1ebf 4744 343e df2f 483d 3a47 3c3d
000001b0: c7ec 643e 8d83 70bd 01ba 053e 2969 babe
000001c0: e170 a63b 4017 c9be d6f1 8c3e 7de9 5b3e
000001d0: a814 783d 1b6a ab3d 565a cdbe a84c 77be
000001e0: b2a1 e9be 7365 263e ee4e 3abe 559d ba3e
000001f0: d37c 3cbe 6ecf 74be 7da0 e43e 6b00 84bb
00000200: b820 54be b3e5 98be 7e1f 0f3f 913d 91be
00000210: 827c c73e 0225 00bc 9973 dfbd f4b8 dabd
00000220: ce83 19bf 46eb 40be 57bc be3d 139a d83e
00000230: da41 b2be 970d 913e e70c 1b3e 8c67 2dbe
00000240: 356b 7bbd 2281 333d 2426 5ebe e214 5c3e
00000250: f5ae eebe 5981 733e e7e3 373f 324a 793e
00000260: decb e43e 92f8 6ebe c753 39bf 9bb9 e0be
00000270: dff3 0dbe 01ab 87be ee7e 80be c6b3 a73e
00000280: f4e9 7cbe 81ad 69be 02a7 fdbc 6e2d 3a3d
00000290: b716 aabe 2406 b23e 35c4 8a3e 2435 d93e
000002a0: 288e 04bd 16e2 80be 5e6a 97be 6791 a2be
000002b0: b9f9 57bc 05ea 97be e761 e93c 4da8 f03d
000002c0: 6a36 19be d526 df3d 9748 cdbd 1144 e53d
000002d0: e8eb 183f 7875 e73e b8e7 7f3e 96a6 0e3f
000002e0: 7dc2 9e3d f930 25bf ca2b 19bf 83fd 10be
000002f0: 9552 613c bc91 acbd ffad ce3e 618e c23d
00000300: 37fb 4f3e e0de 3dbe bd99 063d 322e 5cbd
00000310: 864a d73e f11f 8c3d c6e0 11bf 90f0 413e
00000320: c1cf 23bf 6c1e b03e 8069 9a3e e389 b73e
00000330: 4a19 bc3e e043 3b3e 4beb 053e 4be2 e6be
00000340: 9d28 4bbe 900e d93d fe1c e63d f7a4 5cbe
00000350: 0552 373f 7138 e5bd c051 bc3c c58c 253e
00000360: 4192 f33d f776 cfbe 05d4 203e 1f94 28be
00000370: f6d2 e73e 535f 073f 533c 7c3e 402f d6be
00000380: 31d4 95bd 435b ebbe eb38 9e3e e88a aabe
00000390: d8ea 2e3e 3d56 9abe 3789 0cbf 6963 43be
000003a0: 1a81 a8be 192c 273e fb13 dbbc cc1e 3c3e
000003b0: 3bc2 adbd 667b ba3e 8c94 033e 7f68 71be
000003c0: 70c0 173f b8be d13d 52cf 8cbe 683f cabd
000003d0: 07c8 85be 7110 a3be 42cc 7ebe 979e 50be
000003e0: 9421 42bc 188b 023f dec0 d03e 6f35 0f3e
000003f0: 4ba4 f23d c300 90be 915e e0be 1b4a 62be
0.060512457 0.58225363 -0.45161027 0.12672865 -0.11330743 -0.21836464 0.2907204 0.04242593
0.33247882 0.24673975 0.04837179 -0.18386452 0.33161494 -0.09016659 -0.17107373 -0.20594473
0.033295304 0.60205334 -0.30695307 0.17207317 -0.1307301 -0.3026101 0.40555263 0.025407352
0.40366593 -0.20118621 -0.050492045 -0.05705363 0.03642485 0.009046807 -0.16140933 -0.079350926
0.27897185 0.0030375854 0.006030137 0.004005205 -0.39460397 0.44483632 0.83109075 0.24513116
0.23600385 -0.03689352 -0.08583265 -0.47187603 0.097188905 -0.3714113 0.07504029 -0.029184896
0.11323269 0.31733367 -0.3599092 -0.012698652 0.04799815 -0.18033865 -0.28127694 0.11234258
0.24124452 -0.008953156 -0.17862593 -0.14022212 0.33067155 -0.35736924 0.20873173 -0.11653694
-0.012771074 -0.17087837 0.46307015 0.099566445 0.14200437 0.31136358 0.21442515 0.46563926
-0.014404662 -0.40244707 0.043958016 -0.09449671 -0.23566271 0.122419775 0.34069136 0.044168763
-0.27925318 -0.02414334 0.6614139 0.5409042 0.009378055 0.083251536 0.5694339 -0.035597004
-0.23054516 -0.23474632 -0.43971932 0.21441539 -0.2604906 0.08698938 0.3809509 0.20493194
0.3802831 0.051148947 0.3191557 -0.18948708 0.2186915 -0.092883386 -0.3702578 -0.32641527
-0.6179234 0.1760417 0.04887378 0.045966364 0.22355948 -0.058719207 0.13059236 -0.36408356
0.005079374 -0.3927555 0.27528256 0.21475787 0.060566574 0.083698474 -0.40107983 -0.24150336
-0.45631176 0.16249637 -0.18194172 0.3644816 -0.18406992 -0.23907253 0.44653693 -0.00402837
-0.20715606 -0.29862747 0.5590743 -0.28367284 0.3896218 -0.007821323 -0.109107204 -0.10679808
-0.59966743 -0.1883975 0.09313267 0.4230505 -0.34815866 0.2833068 0.1514164 -0.16934031
-0.061381537 0.043824323 -0.21694237 0.21492341 -0.46617857 0.23779811 0.71832126 0.2434471
0.44686788 -0.2333701 -0.7239346 -0.43891606 -0.1386256 -0.26497653 -0.2509684 0.32754344
-0.24698621 -0.22820093 -0.030963425 0.04545348 -0.33220455 0.3477031 0.2710282 0.42423356
-0.032362133 -0.2517249 -0.2957334 -0.31751558 -0.013182097 -0.2967073 0.028489066 0.11750851
-0.14962164 0.108960785 -0.10023611 0.11194623 0.59734964 0.4520681 0.24990737 0.5572294
0.077519394 -0.6452785 -0.5983244 -0.14159207 0.013752599 -0.08426234 0.40367123 0.09499813
0.20310675 -0.18542051 0.03286146 -0.053754993 0.42049044 0.0684203 -0.569836 0.18939424
-0.6398888 0.3439821 0.30158615 0.35847387 0.36738044 0.18287611 0.13078038 -0.45094523
-0.19839711 0.10598481 0.112359986 -0.21547304 0.71609527 -0.11192406 0.0229882 0.1616698
0.1189313 -0.4052045 0.15705879 -0.16462754 0.45278138 0.5287983 0.24632387 -0.41832924
-0.07315863 -0.45968065 0.309028 -0.33309102 0.17081773 -0.3014392 -0.54896873 -0.1908089
-0.32910997 0.16325416 -0.026742926 0.18371123 -0.08484312 0.3642227 0.12849635 -0.23575018
0.5927801 0.10241455 -0.27501923 -0.09875375 -0.2612917 -0.3184848 -0.24882606 -0.20372997
-0.011848826 0.5099349 0.40772146 0.13985227 0.11847743 -0.2812558 -0.43822148 -0.22098581

gnn_base.gnn.gnn1.lin_query.bias f4 [48]
00000000: 9ced fc3d 12bf 593d 0909 fc3d b2a1 973e
00000010: 490a 5dbe 7d8e c33e f18a 533e 251e b73d
00000020: 64ad 8abd 3f02 803e 4bb3 1a3f ed10 b63e
00000030: 48e8 a0bd 312c d33d bb5b 02be ede6 c0be
00000040: 576e 503e a859 073e 25ca c3bd 8c5f fe3c
00000050: f73a 1fbe f138 76be 91f6 533e e251 37bb
00000060: 8f9b 493e 5c78 a33e b4b9 893e 374e 0dbf
00000070: ff5a fbbd 00e2 853e 03a7 d3bb 31c3 0ebf
00000080: 0ba0 893e c514 bb3d 54a1 f63e 8409 36bf
00000090: d356 a23e b55d cdbd 296e 2cbf 64d7 1fbe
000000a0: 2da0 f93e 708e 2f3f 1774 1f3f 6227 57be
000000b0: e00a 003f d385 b13d 77a1 80be 4fef 173f
0.12350008 0.053160734 0.12306411 0.2961555 -0.21585955 0.38194647 0.2065847 0.089412965
-0.06771353 0.25001714 0.6042983 0.35559788 -0.07856804 0.10311163 -0.12730305 -0.37676182
0.20354591 0.13217795 -0.095600404 0.03105142 -0.15549837 -0.24045159 0.20699526 -0.002797239
0.19688247 0.31927764 0.26899493 -0.5519747 -0.122732155 0.26148987 -0.0064591183 -0.5576659
0.26879916 0.09134821 0.4816996 -0.7110827 0.31706867 -0.10027639 -0.6735559 -0.15609509
0.48755017 0.6857672 0.62286514 -0.21011117 0.50016594 0.08668103 -0.25123188 0.5934953

gnn_base.gnn.gnn1.lin_value.weight f4 [48, 16]
00000000: 2bed 7b3e 82c3 a3be 1a84 66be e63a f2bd
00000010: 6f65 09bf 586c 7dbd 9207 afbc 3dd7 3dbd
00000020: 0b4e ef3d e47a a13e f689 5c3e b6a4 f7bd
00000030: 2e6e 52be 5ee0 d13d e5dc 0abf aa25 373e
00000040: d9fb 0fbe f70c 9abe 20e8 e13e 0b73 a0bd
00000050: de2c 453d 396d 96be 8508 54be 33bf b23e
00000060: 5c88 04bd 7290 b43e fb47 c83d 6c6c dabe
00000070: ce32 c2be b70f d33e 32c4 833e e929 b2bc
00000080: 79b8 92be 142a 1c3f 1950 55be ae9f 733e
00000090: 67c2 e438 59cf 013f 7ece 39bf 631e aa3c
000000a0: b4e9 8bbe 37d3 4b3e 0768 ec3e 36f2 8b3c
000000b0: 9e2f 1cbe 543b 7c3d 0e68 7c3e 5b03 8cbe
000000c0: 123b e0be ef9d af3d 9431 ce3e 16fb 633e
000000d0: 7efa 71bd 2985 c3be a120 afbe 9bef 14bd
000000e0: d952 15bc 1de6 b43d 3d7c c83d 2a99 ac3d
000000f0: 416d 4bbd 8014 0e3f cc9a 953e ab02 8bbe
00000100: 335b 1a3e fffb b93e 2f76 5b3d a2b5 5b3c
00000110: 4456 18be f969 09bf 8a6c 7bbe 0f67 afbe
00000120: e3b0 4fbe 4333 2b3f e8a4 c63e b985 e93d
00000130: 37e1 38bf 5643 a13e 5825 643e 8a3a 003e
00000140: 48c7 09bc 5bed b13d 64ca fbbd 94ae 4abe
00000150: c178 9abe 38fd a23d 03bb b7be 75a6 803e
00000160: be9c d8be aa36 5a3e d5e6 593e 198e 66be
00000170: 4cf8 bd3d 3456 ff3d 8f58 3b3d b0a2 40be
00000180: a90e 01bf c0f7 2b3d f501 7c3c 337a cdbd
00000190: 1391 b3bd 619b ad3d 9dcc 87be fc18 d93d
000001a0: c323 94bc 037c 31be 8752 ad3c 628c 003f
000001b0: d58b 7ebe b673 7cbc c105 613d c71c 003d
000001c0: 14a4 813e 7d74 463e 88e8 dbbc a53c 103f
000001d0: 4b30 93bd 28d8 0abe 480b d93e b3e5 b7be
000001e0: 8d26 2b3e 5d6c 123f ce6d 38be 0491 fbbe
000001f0: 374e 22bf 3b7a 7b3e 7035 debd 3047 b03d
00000200: a1fe f23d e185 8a3e a08c 7dbe ef7a fd3e
00000210: e1f7 12be 4314 7f3e a497 0cbe dd00 e7be
00000220: 147b 963a 20cd 843d 8a7b 0e3e 4430 493e
00000230: be0e 70be 01ba a03e ec8a a83c 7dd0 6b3e
00000240: 424f 4abe 7a9b ff3d 75ad 693d e55a dfbe
00000250: a775 a23e 6c02 d8be f3ed 1c3d f079 8e3e
00000260: e72f 993d 3382 3e3c 7c46 6c3e 8da5 c8be
00000270: b9c0 803d 5dc8 5cbe 568b 173d da55 4b3d
00000280: f83e afbe ce51 acbd 20e3 f5bd 2fd2 08be
00000290: dee0 48bd abc0 0f3e e30e 813e 51e0 6b3e
000002a0: 4895 d03e 2a26 f4bc 0e32 9c3e e940 1abe
000002b0: 6d7f 47be 1a60 9abe ea4d 1bbe 904f bd3e
000002c0: fffe e4bd a3b8 9e3e 1d29 a0be 9748 323d
000002d0: 9bb6 f13c 0a36 943d 8af7 bfbe 88c0 e73d
000002e0: 55df ff3d 1963 a4bd 28ea 763e 6130 593d
000002f0: 50f1 253e e39c 713e 618b 43be 3fc7 d2bd
00000300: 5742 84be 8baf 6a3e 998b 71be ca13 9bbe
00000310: cb5a f03d b1a1 3cbe 1100 7c3d c654 aa3d
00000320: 7a0c 813e 8784 0fbf b65f 103f 1db1 bb3d
00000330: 3a42 20be 9c15 92bc 8be1 b23d 9539 52bf
00000340: 7503 11bf 62ff 233e 9d15 e93e ae0a 463d
00000350: 8de0 403e a087 f4be 9e25 dfbe 87bc 053f
00000360: eb09 af3e 0c81 6fbe d5f3 603e d32b 8abe
00000370: f813 83bc cee3 4a3d 8fef bc3a eddd 4dbe
00000380: f970 51be 2000 0b3e b38d b33e aa68 f03c
00000390: 57ca babe d85a 2a3f e343 9b3d 16a0 be3e
000003a0: 32d2 bbbb adfe 9d3e a41c 0cbe 2cdf debe
000003b0: e046 08bf 4a4b 32bc 0c5d 19bd b015 8abc
000003c0: fb88 42be 7d05 88be ab80 543e b836 fe3d
000003d0: 2469 9f3e 028f b2be 35ee 54be 1128 0f3e
000003e0: 179a 47be 403a d4be 43a1 083e 22a1 683e
000003f0: b61a 653d ca92 ad3e 19c2 ec3e 180e 4fbe
0.24602191 -0.31985098 -0.2251133 -0.1182764 -0.536704 -0.061870903 -0.021365914 -0.046347845
0.116848074 0.3153907 0.21537003 -0.12091963 -0.20549843 0.10247873 -0.5424331 0.17885461
-0.14060916 -0.30088016 0.4412241 -0.07834443 0.04813849 -0.29380205 -0.20706375 0.34911498
-0.032356605 0.35266453 0.09779354 -0.42660844 -0.37929386 0.41222927 0.25735623 -0.0217485
-0.28656366 0.61001706 -0.20831336 0.23791382 0.000109080975 0.5070701 -0.7258071 0.020766443
-0.2732674 0.19904791 0.46173117 0.017083269 -0.1525254 0.061580017 0.24649069 -0.2734631
-0.43795067 0.08575045 0.402722 0.2226375 -0.05907678 -0.3818753 -0.3420458 -0.036361318
-0.009113991 0.08832953 0.097893216 0.08427651 -0.04966474 0.5550003 0.29219663 -0.27150473
0.15073852 0.3632507 0.053579506 0.013410004 -0.14876658 -0.53677326 -0.24553123 -0.34258315
-0.2028232 0.66875094 0.38797688 0.11402459 -0.7221865 0.31496686 0.2227987 0.12522331
-0.008409329 0.0868785 -0.12294462 -0.19793159 -0.30170253 0.07958454 -0.35884866 0.25126997
-0.42307085 0.21309915 0.21279462 -0.22515143 0.092758745 0.12467614 0.045738753 -0.1881206
-0.50412995 0.04198432 0.015381326 -0.10033073 -0.08767905 0.08476902 -0.26523295 0.106004685
-0.018083459 -0.17332463 0.021157516 0.5021421 -0.24858029 -0.015408447 0.054937128 0.031277444
0.25320494 0.19380374 -0.026844278 0.56342536 -0.071869455 -0.1355902 0.4239142 -0.35917434
0.16713925 0.571966 -0.18010637 -0.49134076 -0.63400596 0.24558346 -0.10850036 0.08607328
0.11864973 0.27055266 -0.24760675 0.49507853 -0.14352371 0.24910073 -0.13729721 -0.45117846
0.0011480772 0.06484437 0.13914314 0.19647318 -0.23443124 0.3139191 0.020574056 0.2302875
-0.19756797 0.12480827 0.057050187 -0.43624035 0.31730387 -0.42189348 0.038312864 0.27827406
0.0747984 0.011627722 0.23073763 -0.39188805 0.06286759 -0.21560808 0.036998115 0.04964242
-0.3422773 -0.084140405 -0.12006211 -0.13361429 -0.049042575 0.14038341 0.2520667 0.23034789
0.40738893 -0.029803354 0.3050694 -0.15063824 -0.19482203 -0.30151445 -0.1516644 0.36974764
-0.11181449 0.31000242 -0.31281367 0.04352626 0.029506018 0.0723687 -0.37493545 0.11316019
0.12493769 -0.08026714 0.24112761 0.053024653 0.16205335 0.23595004 -0.19096138 -0.102919094
-0.25831863 0.22918527 -0.23588409 -0.30288535 0.117360674 -0.18421055 0.0615235 0.083169505
0.2520483 -0.56061596 0.56396043 0.09164641 -0.15650263 -0.01783257 0.08734425 -0.82119113
-0.566459 0.1601539 0.45524302 0.04835003 0.1883566 -0.47759724 -0.43583387 0.52240795
0.34187254 -0.23389071 0.21968015 -0.2698656 -0.016000733 0.049533658 0.0014414656 -0.20104189
-0.20453252 0.13574266 0.35069045 0.029346783 -0.36482498 0.66544867 0.07581308 0.3723151
-0.0057318443 0.30858365 -0.136828 -0.43529642 -0.53233147 -0.010882208 -0.037442252 -0.016856045
-0.18997566 -0.26566687 0.20752208 0.124127805 0.31134903 -0.3487473 -0.20793994 0.13980128
-0.19492374 -0.4145069 0.13342766 0.22717717 0.055933677 0.33901054 0.46241835 -0.2022022

gnn_base.gnn.gnn1.lin_value.bias f4 [48]
00000000: 51a2 babe dff5 77bd 4cb9 debe f914 ecbe
00000010: 8cfa b1be 8058 0ebf a5f8 a4bd 7593 6f3c
00000020: ac5e efbd 9efe 0fbf c9cf 68be 24c5 0cbf
00000030: 720c a8bd e292 51be 1595 3e3e 301e d0bd
00000040: 011e 72bd d662 05be ac67 2e3d ee6a bebe
00000050: 17c0 bebe d917 ffbd f274 d23c 738e 2c3d
00000060: 62c8 2c3c 4cb2 90be aca2 54bd 2abb 3bbe
00000070: c73a eabd 2a9c dfbe 2ebd 163d 000f c2be
00000080: 19c1 edbd 10af 9ebd 7fe5 8bbe e6cc b83a
00000090: 55f6 4a3b d4ce 7abe 13e3 7bbe c981 3abe
000000a0: dd55 163e e30a a8be 0117 443c 19fe a7be
000000b0: 491e bcbe bf63 9fbd a21e 413d f5d0 8ebd
-0.36451963 -0.060537215 -0.43500745 -0.4610975 -0.34761465 -0.5560379 -0.08055238 0.014622559
-0.11687979 -0.5624789 -0.22735514 -0.5498831 -0.08205499 -0.20466188 0.18611558 -0.10162008
-0.059110645 -0.13025984 0.042579338 -0.37190956 -0.37255928 -0.124557205 0.02569053 0.042128038
0.010545822 -0.2826103 -0.05191295 -0.18333116 -0.11436992 -0.4367383 0.03680151 -0.3790207
-0.11609096 -0.07748234 -0.2732353 0.001409915 0.003096958 -0.24492961 -0.2459834 -0.18213572
0.14681192 -0.32820806 0.011968375 -0.3281105 -0.36741856 -0.07782697 0.047148354 -0.06973449

gnn_base.gnn.gnn1.lin_edge.weight f4 [48, 1]
00000000: e574 3dbf 9250 6fbf 2d85 a33e 3f37 df3d
00000010: d8c5 f63e cf01 88bf 4950 38bf 5dca 533e
00000020: d414 66bf 7681 133f d61b 733f 450d 3f3f
00000030: 3fb0 d8be 19ed 9fbf f257 1ebf 5ca1 8abe
00000040: 0292 17bf 6e20 1c3f 15b7 f7be 6d45 203f
00000050: b2b3 1a3f 9eb5 373f 2ee8 ddbd 292c f7be
00000060: 3408 27bf e3b2 6cbf 18d1 4abc a2f9 97bd
00000070: a315 a03d b4e0 7fbe a959 b0be e89b 963e
00000080: 64a6 bcbe f5e4 dc3d 9525 22bf fa18 46be
00000090: e49a 373f 55a1 533e 9c5b 27bf 1f9e 4d3f
000000a0: 8003 25bf f593 423f bbb5 34bf d841 1e3f
000000b0: 67e5 c13e e7cd 11bc caed 203f 93eb 913f
-0.7400649 -0.93482316 0.31937543 0.10899209 0.48197818 -1.0625552 -0.71997505 0.20682664
-0.8987553 0.57619417 0.9496435 0.7462962 -0.42321965 -1.2494231 -0.61852944 -0.27076232
-0.59207165 0.60986984 -0.48381868 0.62605935 0.60430443 0.717615 -0.108353004 -0.4827588
-0.6524689 -0.9246046 -0.012378953 -0.074206606 0.07816627 -0.24988061 -0.34443405 0.29415822
-0.36845696 0.107858576 -0.63338596 -0.19345465 0.7172072 0.20667012 -0.6537416 0.803194
-0.64458466 0.76007015 -0.705898 0.6181922 0.37870333 -0.008899189 0.6286284 1.1400017

gnn_base.gnn.gnn1.lin_skip.weight f4 [16, 16]
00000000: 8b53 68bf 3ce4 633c 4a25 c63e 3376 35bd
00000010: 27c4 143f 4b77 363e 1a44 0bbf ce8d 2f3e
00000020: 03e5 83be dfa4 58be 00df aabe 24ce 023e
00000030: 33b2 983d 5ef7 50be 286f dc3d 02e8 b9be
00000040: f238 53be 4fc2 c83d 5771 b0be 003f 55bc
00000050: ed4d 55be 3e60 053e 5a6d 6bbe b1c3 80be
00000060: 1685 e03e f260 3e3e 5f4d 28bd 2c25 9ebe
00000070: 9895 dc3d 10d4 adbe ce33 a3be ad28 b43e
00000080: f63b 00be 995b 5cbe 1267 8e3e e11c 8c3d
00000090: 78a6 3bbe 491a 8f3e 5598 05bd 8667 2b3e
000000a0: ce2a b0be f42e 10bc ef6f d5be e056 413e
000000b0: 8a27 46bf dde2 53be 8874 fc3e 670f b33d
000000c0: ea4d 1abe 2bd7 84be b4eb f23d 0365 143f
000000d0: fbbc f7bc 7dd1 67bd 1d5b 543d 6a61 cfbe
000000e0: 633a 7f3e de04 c33d 55e5 1abe 1650 30be
000000f0: 4107 00bf 7c02 cdbd ef3b 643e 0182 9c3d
00000100: a6e8 55bd e75f 9abe 701b 813e d708 a7be
00000110: 9f3a 313d 61ba 5abd 4815 89be 907d 4d3c
00000120: 766e dcbe 1321 f13d 21b5 113d 11b2 283e
00000130: 7704 bcbe a7ed f13d 34b9 983d 3f83 bebe
00000140: 3c65 ed3c b9ad 63bd 98ae c0be cb78 ebbe
00000150: 3884 fb3d 660b e63e f6a0 adbd 38b8 4c3c
00000160: 327f 4fbc edc7 993c 1b18 4b3e 3fe9 3fbe
00000170: 17c6 8d3e c1ee babe d28e a7be e843 ef3a
00000180: ca5a 6d3e f4ae 0f3e 166c b83e a749 e9be
00000190: e3a0 0dbd 2c0c bbbe f584 8fbc f0c4 f43d
000001a0: 6b78 f3be 288c 0f3e 9be9 d63e 3ee8 fcbe
000001b0: cf51 c7be 1b26 dfbd 1804 54be 1474 a03e
000001c0: d461 99bd 757c bd3e 6090 3cbe 9034 a83d
000001d0: 303b a53e f63e 0ebe a93b c1be f107 f0bd
000001e0: a1ad f8bd c189 153d a287 25bd c13f 96be
000001f0: 398b 3dbd b3ee ecbb 26b6 8c3e f2b5 99be
00000200: 3c51 0d3d 7512 f4bd 4bf0 78be 015c dabe
00000210: b24f 483e 9ccc 1fbd bc77 d33e 7ac5 a33e
00000220: 032a 763e b051 c0be 5d9b f63d 1944 0c3e
00000230: 7024 65be b7ac 473e 901d 423e 59be dbbd
00000240: 6f53 a83c eb03 59bd e9ec d43d f5c3 ddbc
00000250: c9fe a5be 74c8 01bf e32c 53be e8ef c93d
00000260: 5be6 e73e ebab 853d 9a51 26bc 3c97 163e
00000270: 5977 b2be 716e eb3d 46a1 bfbd 6655 b33e
00000280: d8b9 bc3d d512 0c3e e5db b73d c699 df3c
00000290: 8c48 3cbc cd7e f2be b1ef 17bf 677f 0d3f
000002a0: 8e56 81be 5132 e03e 6632 1b3f 5d87 85be
000002b0: 03f3 73bd 2aaa f73d 99b7 37bd 51a5 e03d
000002c0: 118e 11bd c319 9bbc dc5d 99be b05d fabd
000002d0: 5634 d93e 8b25 753d db9b 82be 92ff 18bf
000002e0: 545e f6bd e55e 3a3e 2893 08be aee3 103f
000002f0: 68e4 5d3e 267e 43be a50e 773e 9422 81bd
00000300: 6b53 7d3e c1a2 893d ef35 8f3d 5db3 7bbe
00000310: 4ad0 8f3d de10 0d3d d781 26be 31d0 ac3b
00000320: 9525 51bd 866a e03e c59f 4dbd c60d 35be
00000330: 3eee 843e e122 263d aed9 f63c bd6c 1bbf
00000340: d835 e1be 9b8e cd3d dab9 8cbe af28 c6bd
00000350: e630 86bd 8a46 173f cc92 bebe 22e7 10be
00000360: 9cc4 acbd 5c6f 033f 5f39 85bd f034 ec3d
00000370: 4771 523d ab70 15bd ef53 37bd 7795 56be
00000380: 3245 9d3e 4762 343f 2036 f23b a93e 583e
00000390: c2be ffbd 7512 20bf 64b1 17bc 3e3a 23be
000003a0: f25e 16be d681 143f 0214 923d 741a d03d
000003b0: 3fb5 8cbe 7ce0 07be ce68 db3d 2a52 29be
000003c0: cd31 693e b364 9d3d b5aa 323b dc98 c0bd
000003d0: 4b9c a33c 48e5 99bd ee8a 3bbd b191 92be
000003e0: 790c 943e 101e 533e a8bc d43c dbd1 26be
000003f0: a849 553e 068f b13e 4ef1 19be 8d01 a2be
-0.90752476 0.013909396 0.38700324 -0.044302177 0.58111805 0.17818944 -0.5440079 0.17143938
-0.2576066 -0.21156643 -0.3337326 0.12773949 0.07455864 -0.20406863 0.10763389 -0.3630982
-0.20627192 0.098026864 -0.3446147 -0.013015509 -0.20830508 0.13024995 -0.22990933 -0.251493
0.43851537 0.18591669 -0.04108941 -0.30887735 0.1077072 -0.33950853 -0.3187546 0.35187283
-0.12522873 -0.21519317 0.2781301 0.06841446 -0.18325222 0.2794974 -0.03261598 0.1673871
-0.34407657 -0.008800257 -0.4168696 0.18880796 -0.7740408 -0.2069201 0.49307656 0.08743172
-0.15068784 -0.2594541 0.11861363 0.5796663 -0.03024148 -0.056596268 0.051844705 -0.4050401
0.24924617 0.09522413 -0.15126546 -0.1721805 -0.5001107 -0.100102395 0.22288488 0.07641984
-0.052223824 -0.30151293 0.25216246 -0.32623932 0.043268796 -0.0534004 -0.2677405 0.012542143
-0.43053025 0.117738865 0.03557313 0.16474177 -0.36722156 0.11812907 0.074572 -0.37209508
0.028978936 -0.055585597 -0.37633204 -0.45990595 0.12281078 0.4493057 -0.084779665 0.012495093
-0.012664603 0.01877209 0.19833414 -0.1874132 0.27690193 -0.3651028 -0.3272615 0.001825449
0.23179165 0.14031583 0.36019963 -0.45564005 -0.03457726 -0.36532724 -0.017519454 0.11951625
-0.4755281 0.14018309 0.41975102 -0.49395937 -0.38929603 -0.1089594 -0.20704687 0.3133856
-0.07489362 0.37009016 -0.1841445 0.082131505 0.3227172 -0.13891205 -0.3774083 -0.11720265
-0.12142492 0.036508325 -0.040412553 -0.29345515 -0.04627535 -0.0072306036 0.27482718 -0.30021626
0.0345013 -0.11917583 -0.24310414 -0.42648318 0.19561651 -0.03901349 0.41302288 0.319866
0.24039464 -0.37562323 0.12041352 0.13697852 -0.22377181 0.19499479 0.1895659 -0.10729665
0.020547597 -0.052982252 0.103967495 -0.027070979 -0.32420948 -0.5069649 -0.20622592 0.098602116
0.45292935 0.065269314 -0.010151291 0.14706129 -0.3485668 0.114956744 -0.09356932 0.3502609
0.092151344 0.13679059 0.089774884 0.027295005 -0.011491906 -0.47362366 -0.59350115 0.55272526
-0.25261348 0.43788388 0.60623777 -0.26079836 -0.059557926 0.12093003 -0.044852827 0.109690316
-0.035535876 -0.018933183 -0.29954422 -0.12224901 0.42422742 0.059850257 -0.25509533 -0.5976497
-0.120297104 0.18200262 -0.13337386 0.5659741 0.21669161 -0.1909109 0.2412668 -0.063054234
0.24738853 0.06720496 0.06992709 -0.2458014 0.0702215 0.034439914 -0.16260467 0.005273842
-0.05106123 0.4383127 -0.050201196 -0.17681035 0.25963014 0.040560607 0.030133095 -0.60712796
-0.43986392 0.100369655 -0.27485543 -0.096757285 -0.065522954 0.5909201 -0.37221372 -0.1415067
-0.08435938 0.51341796 -0.06505083 0.115335345 0.05137756 -0.0364844 -0.04475778 -0.20955454
0.30716854 0.7046246 0.007391706 0.21117653 -0.12487556 -0.62528163 -0.009258602 -0.15940186
-0.14684656 0.58010614 0.071327224 0.101612955 -0.2748203 -0.13269228 0.10713349 -0.1653525
0.22772904 0.076852225 0.0027262394 -0.094041556 0.019971987 -0.07514435 -0.04578679 -0.2862678
0.28915766 0.20616937 0.025968865 -0.16290991 0.20828879 0.3467943 -0.15033457 -0.31641808

gnn_base.gnn.gnn1.lin_skip.bias f4 [16]
00000000: 7206 6ebe 3b3c 7ebe 7b01 b73d 2160 83be
00000010: ae98 25be 9d48 0ebf b842 083d 7669 97be
00000020: b83b dbbd d1ab 01bf 37a2 983d 4d04 37be
00000030: aa27 b8be 3890 9bbe f259 393e ad3f 3dbe
-0.23244646 -0.24827664 0.08935829 -0.25659278 -0.16171524 -0.5557955 0.033266753 -0.29572648
-0.1070475 -0.50652796 0.07452815 -0.17872734 -0.3596776 -0.30383468 0.18100718 -0.18481322

gnn_base.gnn.gnn2.0.lin_key.weight f4 [48, 16]
00000000: f203 053e e088 9f3e 9be1 273e 9023 8a3e
00000010: 55cf e8bd 1807 50bd 275b a2be a09d b83c
00000020: f759 9cbe 342f 02be adfc 873d 3307 5b3e
00000030: 8bc4 ca3d a510 c63e c68a 833e 0a96 303d
00000040: 66ef 61be 000f eabe 5f51 06bb 3d24 1ebe
00000050: 46ee 6fbe 8fb2 dabe a455 bcbe 549e 8d3e
00000060: 142c 18be 60be d6be f6b7 2cbd be33 303f
00000070: fc7d 913e 2ba7 413f 3bd5 633c 204b 92be
00000080: c607 49bc 5b88 21bc 3c19 213e a6a8 053f
00000090: aa59 3ebe 69e2 933d 5dc1 aebe dd47 093f
000000a0: 92d6 6fbe 7009 15bf 3ecd 493e cb2d e3be
000000b0: 5291 843e 6bf4 9dbe a49e 413f 38cf 58bd
000000c0: 1b97 083e fdd2 db3d ae8b d6be 6e01 a53e
000000d0: 1ce7 76be e9f9 3a3e 2468 1d3e d179 5cbd
000000e0: bd78 9e3d 2b3e 153f 676a 7cbc 69a0 d9be
000000f0: bab2 0fbf 8191 11bf 7d96 ddbd 73d0 9f3e
00000100: d68e 85bd 18bb d7bd 95ca 6f3e 8996 98bd
00000110: cd57 16be e20b f9bd a998 22bf 0fbd 1b3f
00000120: 764e 1dbe 9cb5 18bf 996a 2bbe 6b98 973b
00000130: dd8f 1e3d 0009 113e 4c21 ff3d 143f 87bd
00000140: a69e 01bf b2d7 203e 08cf cf3e 8e08 c8be
00000150: d1a9 5fbe ce40 07bf 2094 af3d f3b6 d2be
00000160: f00f b7be 7046 dabd e0ac 87bc d27c 013f
00000170: 3443 c3bd 5454 1c3f 4f73 52bd b5c0 0bbd
00000180: 67e5 633e 5a00 26be 8f2a 9a3d f5e2 573e
00000190: 3c33 063d cdcc 99bd df89 5bbe bc7c 283f
000001a0: 564f c4be c098 3abf c7c6 3b3e 76ad 413e
000001b0: 5e16 4abe 86ba 893e 0de1 fe3e aa3e 8dbe
000001c0: b8a4 0cbd 6bbc c9bd 51b1 3f3e 1e0d 373e
000001d0: 2add aabd 90fc 72bd 897a 82be 5dfd c13e
000001e0: d465 143e 37ea f4be 3ea0 3c3c abe9 e83e
000001f0: 48c2 d83e b00c 273f c589 323e 6b9b 89be
00000200: ea75 013f 7ca8 82be 3339 05be 72d2 8abe
00000210: a04c 063d 6a2b efbc 880a 463f cf23 7f3b
00000220: 71bf f9bd 1cb5 debd 7d11 b4bc 006d a33e
00000230: 602e 8c3e f067 a13e daee c4bd 451b 8d3c
00000240: e973 093e 059e cdbe f4eb 03bc 0d81 10be
00000250: ee08 6b3d f7b5 05be d39b 83be 6059 793e
00000260: 8503 3ebe dcd5 13bf abd1 59bb d899 bb3e
00000270: 9df1 313e 2b5b b83e 1a11 913d 90b6 05bf
00000280: 90f8 10bd d531 a8be 3a1e 513e 1207 a23e
00000290: 7a5a e43c 3979 523e 96d8 733e 7770 ea3d
000002a0: c5b6 febd ab9d bf3d afbb e1be 324e 5dbd
000002b0: 29ac 113e bf63 223e 4f8a 8cbe 26f3 1fbe
000002c0: 6493 7e3e f297 83be 4607 0abe b12d 33be
000002d0: b073 eb3e de76 1d3e b3cd c63d 1874 4f3d
000002e0: 50d3 333e 08df a5be c2bc 003f 378d 3a3f
000002f0: f8fe be3e ea90 81bd b997 e2be 4bbd 513e
00000300: 2fe1 b33e 3691 a73e 7344 223e b2b8 0c3f
00000310: ec6f c43e 2214 f73d 0ab2 a13e 4d48 2ebe
00000320: 9e67 0b3e fd47 7cbe bb66 ab3d e3a8 f13d
00000330: 0c83 f2bd 6073 0bbe e134 18bb 7ebd b83e
00000340: e975 823d c70a 2c3b e8cf 0bbf eaf5 ff3e
00000350: 1355 05bf be81 4cbe 1753 793e de11 a43e
00000360: 2fed 193c a7b4 193f ef8d 31be 5056 54bf
00000370: 7b43 29bf 0ef3 b2bd 12fd 1b3d de8a c53e
00000380: dbdb d13c 01cf 953e 494d 8b3d f754 513e
00000390: 99ae 5bbe e6b2 bbbb 854b 99be eaf0 5dbe
000003a0: 29e9 c4be 9e60 ad3d 7037 ebbd 3cf4 35bf
000003b0: cbc9 10bf 0b9e 12bf 0cea a6bd 5fab 683e
000003c0: f953 46bd 4028 59be ee5e 0d3f 944f 86bd
000003d0: 1c9c e93d 64c2 883d 37bf c83c 4527 8b3e
000003e0: d993 9dbc cb22 25bf df57 b73c dc68 553f
000003f0: 9dfb ce3e dc61 0b3f 2c76 693e df86 1abd
0.12989786 0.31159115 0.16394655 0.26980257 -0.113676704 -0.050788015 -0.3171017 0.022536099
-0.30537388 -0.12713319 0.06639991 0.21389465 0.09900769 0.38684574 0.25691813 0.04311184
-0.2206398 -0.4571457 -0.0020495278 -0.15443511 -0.23430738 -0.42714354 -0.3678409 0.27659857
-0.14860564 -0.4194212 -0.042167626 0.6882895 0.2841643 0.75645703 0.013905819 -0.2857294
-0.01226992 -0.00985917 0.15732282 0.5221046 -0.18588892 0.07220919 -0.341319 0.5362528
-0.23421696 -0.58217525 0.197072 -0.44370875 0.2589212 -0.3085054 0.7563269 -0.052931994
0.13338892 0.10733602 -0.41903442 0.32227653 -0.24111599 0.18259396 0.15371758 -0.05382711
0.07737873 0.58297986 -0.015406228 -0.42505196 -0.5613209 -0.56862646 -0.10819719 0.31213722
-0.065213844 -0.10533732 0.23417123 -0.07450587 -0.14681931 -0.121604696 -0.6351419 0.60835356
-0.15361962 -0.59652114 -0.16739883 0.004626324 0.038711417 0.1416359 0.12457523 -0.06603828
-0.50632703 0.15707281 0.4058764 -0.39069027 -0.21842124 -0.5283326 0.085731745 -0.41155204
-0.35754347 -0.10657966 -0.016561925 0.50581086 -0.09534302 0.61066175 -0.051379498 -0.034119327
0.22255479 -0.16211072 0.07527649 0.21082671 0.032763705 -0.07509766 -0.21439312 0.6581533
-0.3834178 -0.7288933 0.18337546 0.18913826 -0.19735095 0.2690012 0.49781075 -0.2758687
-0.034336776 -0.09850391 0.18719985 0.17876098 -0.08342965 -0.059322894 -0.25484112 0.37888613
0.1449197 -0.47834942 0.011512814 0.45490775 0.42335725 0.65253735 0.17435367 -0.26876387
0.5057055 -0.25519168 -0.13010101 -0.27113682 0.03278792 -0.029195506 0.7735982 0.0038931256
-0.12194718 -0.108743876 -0.021980995 0.31919098 0.2737913 0.3152461 -0.0961587 0.017224917
0.13423122 -0.40159622 -0.008051861 -0.14111729 0.057381563 -0.13057695 -0.25704822 0.243505
-0.1855603 -0.577482 -0.0033236544 0.3664081 0.17377324 0.36007056 0.0708334 -0.52231693
-0.035393298 -0.3285052 0.20421687 0.3164602 0.027875174 0.20554055 0.2381309 0.11447232
-0.12437204 0.09356245 -0.44088504 -0.05402965 0.1422583 0.15858363 -0.2744927 -0.15620098
0.24860913 -0.25701863 -0.13479337 -0.17497899 0.459867 0.15377375 0.09707203 0.050647825
0.17561078 -0.32396722 0.5028802 0.72871727 0.373039 -0.06326468 -0.4425638 0.20482366
0.3513274 0.32727975 0.15846424 0.5496932 0.3836664 0.12064387 0.31581146 -0.17019768
0.13613746 -0.24636836 0.08369204 0.11799791 -0.118414015 -0.13618231 -0.0023224878 0.3608207
0.06370146 0.002625154 -0.54614115 0.49992305 -0.5208294 -0.19971368 0.24348103 0.32044882
0.009394928 0.6004128 -0.173393 -0.829442 -0.6611859 -0.08737765 0.038083144 0.3858251
0.02561753 0.29259494 0.0680185 0.20442568 -0.21453322 -0.0057281135 -0.2994043 -0.21673933
-0.38459137 0.08465694 -0.11485183 -0.710758 -0.5655791 -0.57272404 -0.0815011 0.22721623
-0.048419926 -0.2120676 0.55222976 -0.06558147 0.114067286 0.06677702 0.02450524 0.27178398
-0.019235538 -0.64506215 0.022380767 0.8336313 0.4042634 0.54446197 0.22798985 -0.03772628

gnn_base.gnn.gnn2.0.lin_key.bias f4 [48]
00000000: 8ea2 31be e23c 0e3d b91f ec3c 3594 a13d
00000010: 7ba3 1dbe cecf 853e 303f cdbd ba1e 023e
00000020: a999 e0bd dd18 003e d696 d8bd 9b9e f3bd
00000030: 69ad 77be 201b f13d 6e2f 593c 4c6b 603d
00000040: 58f3 e1bd be68 3e3d 9ab4 dbbd c773 c63d
00000050: 3219 813e d331 44be 5708 253e e391 27be
00000060: 2f30 8d3d 2854 e6bc 4840 a33d 7211 34be
00000070: 4865 0e3e dcc6 0e3e 4b7c 4dbe f465 2ebe
00000080: 4ccf 983d db91 3fbe 3d35 cb3d bf87 18be
00000090: d486 80be f086 d83c 0c20 f4bd 2253 34be
000000a0: 43df 8e3d 561e fd3d 2194 463e 464e 833e
000000b0: 74ca 713d 815f 65bd 29da 09bd 5c89 563e
-0.17347166 0.03472603 0.02882372 0.078895964 -0.15394394 0.26135105 -0.10021818 0.12707034
-0.10966808 0.12509485 -0.10575645 -0.11895486 -0.24187244 0.11772752 0.013255937 0.054789826
-0.11032742 0.04648661 -0.107278064 0.096900515 0.25214535 -0.19159631 0.16116463 -0.16364245
0.06893956 -0.0281163 0.07971245 -0.1758478 0.13905823 0.13943046 -0.20066945 -0.1703108
0.07461414 -0.18707983 0.09922264 -0.14895533 -0.25102866 0.02643153 -0.11920175 -0.17609838
0.069761775 0.12359302 0.19392444 0.25645655 0.059030965 -0.055999283 -0.03365532 0.20950836
