onpolicy/trained_models/informarl_3agents_target/files/critic.pt (torch, 192058 bytes, 57 tensors)

gnn_base.gnn.embed_layer.layer_norm.weight f4 [16]
000000 df 53 7e 3f 82 9a 83 3f 8e be b2 3f db 8e 4c 3f
       0.9934673 1.0281527 1.3964403 0.7990548
000010 e4 5d 0d 3f 6f 56 81 3f 8d 7f 20 3f fc 12 c6 3f
       0.5522139 1.0104502 0.6269463 1.5474544
000020 93 b2 7f 3f f3 80 27 3f 47 8f 9b 3f e8 bd cd 3f
       0.9988186 0.65431136 1.21531 1.607358
000030 ec 55 9b 3f f9 6c af 3f 7d 37 7c 3f 59 04 8f 3f
       1.2135596 1.3705131 0.9852217 1.1173202

gnn_base.gnn.embed_layer.layer_norm.bias f4 [16]
000000 a7 39 35 bd 59 5b 96 be 61 be 7e 3e b8 54 42 be
       -0.044244435 -0.29366568 0.24877311 -0.1897763
000010 4d fa 1d 3e 07 12 42 be 9c 76 7a 3e 9e c6 5b bd
       0.15427513 -0.1895219 0.24459308 -0.053656213
000020 a5 97 1d 3e 15 36 da bc be 21 4b 3e 05 ca 60 3e
       0.15389879 -0.026637116 0.1983709 0.21952064
000030 52 91 2e bd 75 97 24 3e c2 ff f1 3d bc 71 29 be
       -0.042619057 0.16073401 0.1181636 -0.16547292

gnn_base.gnn.embed_layer.entity_embed.weight f4 [3, 2]
000000 67 b6 87 3f 66 95 44 3f 71 63 d6 3e 40 21 94 bf
       1.060254 0.76790464 0.41872743 -1.1572647
000010 78 92 9a bf f2 f9 1a bd
       -1.2075949 -0.037836023

gnn_base.gnn.embed_layer.lin1.weight f4 [16, 9]
000000 c8 0c 9a 3c 60 f4 76 bd 01 82 2a 3f ac 69 34 3f
       0.018804923 -0.060291648 0.6660462 0.7047374
000010 9e 49 20 bf 7c 6c 42 bf 0f a6 a1 bc 60 63 ad 3e
       -0.6261233 -0.75946784 -0.019732503 0.3386488
000020 7a 9a 35 3e a7 11 84 bc bd 10 c1 3c 6a a5 64 bb
       0.1773471 -0.016121699 0.023567552 -0.0034888634
000030 e0 da 0f 3f 15 83 40 bc a6 6e 10 bf f4 f3 42 be
       0.5619335 -0.011750002 -0.56418836 -0.19038373
000040 0c 3a cf bd e4 59 8d 3f 90 75 eb 3c 58 98 01 bd
       -0.101184934 1.1043057 0.028742582 -0.031639427
000050 ec fd 23 3f 0d 31 49 bf 7a 05 17 bf 22 86 4c 3f
       0.6405933 -0.7859047 -0.5899273 0.7989217
000060 95 18 a4 be e4 2b 07 3d 59 03 17 3e 0d e2 87 3b
       -0.32050005 0.03300084 0.14747371 0.0041468204
000070 a5 17 1f bc e9 8a 09 3f c6 48 0a bf c0 5e 01 bf
       -0.009710227 0.53727585 -0.54017293 -0.505352
000080 2a bf 08 3f 71 93 c1 3e 6d 91 9e be fa 91 7f be
       0.53416693 0.378078 -0.30970326 -0.2495803
000090 33 38 84 bd de ec 37 3d c4 d3 b0 be 45 b5 63 3e
       -0.06456032 0.04490363 -0.34536564 0.22237118
0000a0 3c 01 b8 3e 5f 99 4f be 33 cc bd 3e d6 b5 d3 3e
       0.35938442 -0.2027335 0.37069854 0.41349667
0000b0 f7 77 14 3e 8c a8 3f 3c 88 8e ea 3b ea e1 7a 3e
       0.14498888 0.0116979 0.0071581043 0.24500242
0000c0 6d 70 c1 3e eb 1a 63 be 7c bc bf be ef d4 35 3e
       0.37781087 -0.22178237 -0.3744849 0.17757009
0000d0 5c 5a 78 3f 5e 5c 2a bd 8d b3 fb bb 26 9c 3b bd
       0.9701288 -0.041591994 -0.007681316 -0.04580321
0000e0 f6 66 97 3e 56 26 91 be f2 6b 48 be ea 22 8a 3e
       0.2957074 -0.2834956 -0.19572428 0.26979762
0000f0 6d fe e6 bd c7 0a be be 5f ef 2c 3f 11 c9 fb 3c
       -0.112789966 -0.37117597 0.6755275 0.030735524
000100 48 22 13 3c 04 e4 26 be f1 ac 2d bd be 7a 0b 3e
       0.008980341 -0.16297919 -0.042401258 0.13621041
000110 21 6e 1d 3d e4 1d c4 3e 45 37 02 bf c0 36 06 3f
       0.038435105 0.38304055 -0.50865585 0.5242729
000120 fb 02 63 39 91 c5 58 bc 2a 28 58 3e c6 7b 54 3e
       0.00021649517 -0.013230697 0.21109071 0.20750341
000130 8e 76 2c be 61 77 0a be 69 73 8b bf c9 cf 3a bf
       -0.168421 -0.13522102 -1.0894595 -0.72973305
000140 8b 5f 83 bf 14 2c 00 3c b1 13 dd bc 62 60 0e be
       -1.0263532 0.007823009 -0.026986929 -0.13903955
000150 aa f5 04 3f fe e5 2e 3e af 3e 06 bf e9 10 c6 3e
       0.51937354 0.17079923 -0.524394 0.38684776
000160 09 a0 13 3f 1d 8b 1f bf 5d 91 1d 3d 95 f0 bc 3c
       0.5766607 -0.62321645 0.038468707 0.023063937
000170 8c 52 a2 be 4b c2 50 3d 93 e9 b2 3e 1b 8f 5d bd
       -0.31703603 0.050966542 0.34943828 -0.054091554
000180 30 4e fb 3d 23 8d e4 3d c3 31 e7 3e 3e 33 b3 3b
       0.122707725 0.11159732 0.45155153 0.005468755
000190 a1 60 ae 3b 33 d0 24 bf 22 b0 13 bf 6d 8d 24 3f
       0.0053215777 -0.64380187 -0.5769063 0.642783
0001a0 ac 73 11 3f a5 2d d0 3e 74 98 13 be 97 b5 83 bf
       0.56817126 0.40659824 -0.14413625 -1.0289792
0001b0 eb 65 88 bb 92 b1 f8 3b dd 7e 82 be 5a 2d 12 bf
       -0.00416254 0.0075895274 -0.25487414 -0.5710045
0001c0 9f 2c 8d 3e fe 74 0f 3f 6d 01 45 3e bc fe 44 3f
       0.27573106 0.5603789 0.19238825 0.76951194
0001d0 ba d0 34 3f a3 26 91 bc e3 7f 10 3d 0b 17 79 bf
       0.7063099 -0.017718619 0.035278212 -0.97300786
0001e0 06 8f 12 3e b7 88 7a 3f c5 02 01 be c2 88 ed be
       0.14312372 0.9786486 -0.12598713 -0.463934
0001f0 c5 a6 1b 3f 8d be aa be 8f f3 53 3c 29 b0 5a 3c
       0.60801345 -0.33348504 0.012936487 0.013347664
000200 aa c8 40 bd 2c 0a 0c be 64 3d 7a 3d c5 fd 2d 3e
       -0.04706637 -0.13675755 0.061093703 0.16991337
000210 2f 4c 8a bf ba 3c 9e 3d 58 4e 54 3f 5e 3e a3 3d
       -1.0804499 0.077264264 0.82932043 0.0797088
000220 36 11 b5 bc e4 3e 9e 3e d7 9c d5 bb 2a 2b bb be
       -0.022102933 0.30907357 -0.006518941 -0.3655637
000230 ec 48 8e bd 55 8a 7d 3e 23 b8 bf 3e 6a 39 dc 3d
       -0.069475025 0.247598 0.37445173 0.10753138

gnn_base.gnn.embed_layer.lin1.bias f4 [16]
000000 11 df bd 3d ef 18 f4 bd 2b f2 1c bc 9d 5a 0c 3d
       0.09271062 -0.11918818 -0.009579222 0.034266103
000010 67 90 57 3d 8e 1d 69 3d 15 8b 90 be 20 99 53 3d
       0.052627947 0.05691295 -0.2823111 0.051659703
000020 f3 91 65 3e 35 a1 c8 3c a1 f2 2d 3d 09 91 e3 3d
       0.22418956 0.024490932 0.042467717 0.11111648
000030 2a 1e f2 3d 27 0d bc 3d 1f e4 2b 3b 04 2c 3e 3d
       0.118221596 0.09182196 0.00262285 0.046428695

gnn_base.gnn.embed_layer.layers.0.weight f4 [16, 16]
000000 23 9d 35 3d 30 ed db 3e 90 91 5e be cb 12 a2 be
       0.04433931 0.42954397 -0.21735215 -0.31654963
000010 c2 c3 57 3e 39 6f fd 3d 6a 5a 87 3c 21 32 86 3e
       0.2107077 0.1237473 0.016522605 0.2621012
000020 27 48 02 bf c5 c3 90 3e 8d 19 40 be cd 67 9f 3d
       -0.50891346 0.2827436 -0.18759747 0.0778347
000030 43 c9 ad bd d8 e3 09 bf 62 9c dc be 98 89 18 3e
       -0.08485653 -0.53863287 -0.4308806 0.14896238
000040 9c 9b 23 be cc 0a d4 3e 9b aa 32 bf 57 b8 b3 3e
       -0.15977329 0.41414487 -0.69791573 0.35101578
000050 78 87 cc be 7f 47 b4 be 28 f4 00 3f 54 8f 97 3f
       -0.39947104 -0.35210797 0.5037255 1.1840615
000060 a1 68 3d bf 5d 3f 15 bf 64 5f 85 3e 7a 88 7b be
       -0.73987776 -0.5829981 0.2604934 -0.2456378
000070 3f b1 7b bf db fd 44 bf 82 89 be be bc 48 0e bf
       -0.9831733 -0.7694985 -0.37214285 -0.55579734
000080 6c 50 0d 3f 8c 58 1a bd 83 77 44 3f 5b 7d 45 3f
       0.5520084 -0.0376821 0.7674486 0.771444
000090 1d 99 bd be f2 cc 0d 3f 96 ab ac 3e 1f 91 25 be
       -0.3703088 0.55390847 0.3372466 -0.1616864
0000a0 ee 7d 2c 3e c3 86 59 be 3d 5d 3b bf 79 50 ef be
       0.16844913 -0.21242814 -0.73189145 -0.46741083
0000b0 f7 ba 5b be f3 a8 f7 3d ee 36 b6 be 6d d2 08 3f
       -0.2145804 0.120927714 -0.35588783 0.53446084
0000c0 dc 1c 62 be 0b ab d6 3e da 22 ba be 64 c0 11 be
       -0.22081321 0.4192737 -0.36354715 -0.14233547
0000d0 2d 8b 1e 3f b2 3a 37 3f 3d 12 20 bf bd a7 d5 3d
       0.61931115 0.71573937 -0.6252783 0.10432384
0000e0 bf bb d6 bd a3 4b 15 bf 10 31 af 3e 6a d4 7a bf
       -0.104850285 -0.5831854 0.3421712 -0.9798037
0000f0 51 e2 37 3f 5c 84 f6 be 5c d5 46 be a3 40 f4 3e
       0.71829706 -0.48147857 -0.19417328 0.47705564
000100 ae 0e 8e be f9 d2 71 3e 5e 8d cc be d9 69 85 be
       -0.27745575 0.23615636 -0.39951605 -0.26057318
000110 d1 59 92 be e1 1f 09 bf ff b2 4a be 9a 6a ef be
       -0.2858415 -0.5356427 -0.19794844 -0.46761018
000120 fb b2 3f 3e 64 28 6c bf 27 0a 21 3d dd e2 d0 3e
       0.1872062 -0.9224913 0.039316323 0.40798083
000130 24 a0 86 bd b5 73 aa be 54 bf 00 be 75 96 a8 be
       -0.06573513 -0.33291402 -0.12572986 -0.3292729
000140 de d0 4c 3e 32 bd 96 be b7 2a c0 3e 03 d4 3f be
       0.20001552 -0.2944122 0.3753259 -0.1873322
000150 dd 81 17 3e 09 c6 ac 3e 3b 67 26 3c 1a 68 f7 3d
       0.14795633 0.3374484 0.010156448 0.12080403
000160 bb 90 21 3e c7 77 c6 be 84 20 f2 bd d6 5e e8 3e
       0.15777867 -0.38763258 -0.11822608 0.45384854
000170 ac 08 09 bf 28 90 04 be eb dd 86 be b5 1d 9f be
       -0.5352886 -0.12945616 -0.26341185 -0.31077352
000180 48 1c 89 3d 98 2c a1 3f 3f d0 10 3f b5 b1 88 be
       0.06694847 1.2591734 0.5656776 -0.2669808
000190 31 11 06 bf 5e 2e 05 bf da bd 13 3f 7e d9 da be
       -0.5236998 -0.52023876 0.57711565 -0.42744058
0001a0 12 97 13 3e 6e c7 cb be 7d ec f7 3d 3e 60 c2 bd
       0.14413098 -0.3980059 0.121056534 -0.09491013
0001b0 1e 08 04 be 3b 99 09 bf 07 30 6e 3f dc a4 31 3e
       -0.12893721 -0.53749436 0.93042034 0.17348045
0001c0 a5 8f aa be ca 8f 8c bf 7e 1d 82 be a3 63 c2 3d
       -0.33312717 -1.0981381 -0.25413126 0.094916604
0001d0 7a 72 7e 3e 3c 9d 59 3f fb c8 85 be bf 2d c3 be
       0.24848357 0.85005546 -0.26129898 -0.3812084
0001e0 12 3e 15 bf 63 30 96 3e 44 dd 83 be 32 24 80 be
       -0.58297837 0.2933379 -0.2575475 -0.25027615
0001f0 ef a8 4b 3e 3c 10 18 bf de 03 5e 3d 5e cd 5b 3e
       0.19888662 -0.5939977 0.054202907 0.2146506
000200 26 e9 97 bf ae 60 45 bd a1 3a 71 3d 78 a5 5d 3d
       -1.1868026 -0.048187904 0.058893804 0.05411288
000210 19 46 c6 3e 7d cb 1d 3f 3c 07 07 be b2 8d 5b be
       0.38725355 0.61638623 -0.13186353 -0.21440771
000220 9f d1 75 3e 63 5e 4c 3d cb 7f 91 bd 4d 7e ac 3e
       0.24005745 0.0498947 -0.07104453 0.3369011
000230 de 80 a1 3e 74 a7 ac 3e fe 99 3a be 34 f6 85 bd
       0.3154363 0.33721507 -0.18222806 -0.065411
000240 68 41 1c 3e f9 57 2c 3f 4e 5b fa 3e 7c 1b 45 bf
       0.15259326 0.67321736 0.48897785 -0.7699506
000250 2c fa 21 bf 66 b4 ad be 18 92 f0 be e2 b8 da 3c
       -0.63272357 -0.33926696 -0.4698646 0.026699487
000260 22 0f a1 be 7b 39 c5 3d 06 2c 3b 3c 6c d1 a4 be
       -0.31456858 0.09630104 0.01142407 -0.32191026
000270 6b 66 99 3e be 0a 78 3e 53 19 02 3f 79 33 64 be
       0.2996095 0.24222848 0.5081989 -0.2228526
000280 b7 9a cf 3e 91 c3 51 3f 0a 9f c9 be c8 ff 9d be
       0.40547726 0.81939036 -0.3937915 -0.30859208
000290 69 66 80 3e 73 fe d4 3e 27 fe 1f bd 0a d8 4b 3d
       0.25078133 0.4160038 -0.039060738 0.049766578
0002a0 61 ed 63 bf e4 ac 07 3f db 27 26 3e 3e df 9c be
       -0.89034086 0.52998185 0.16226141 -0.3063907
0002b0 e9 28 42 bf 6a a4 55 3f 10 5d ba bc 5f be a1 3d
       -0.75843674 0.83454 -0.022749454 0.078976385
0002c0 b4 80 8b 3c 53 37 54 be 93 85 5c 3e 10 a9 41 bf
       0.017029144 -0.2072423 0.2153533 -0.75648594
0002d0 8e 3f 85 be 4f 53 3c 3c 97 a2 94 be c9 cd 60 be
       -0.2602505 0.011494472 -0.29030296 -0.21953501
0002e0 f6 2d 87 3f 7a b8 8d 3d d8 28 ac be 0a a1 8f be
       1.0560901 0.06919952 -0.3362491 -0.2805255
0002f0 dc 67 88 bf e2 e0 69 3f f2 3b 81 3e 38 5d ea 3e
       -1.0656695 0.9135877 0.25241047 0.45774245
000300 ba 59 b0 be 59 ea 8c 3e ec 67 e8 3e 81 20 97 be
       -0.34443456 0.27522543 0.45391786 -0.29516986
000310 0e 77 e3 3e 9e 30 e3 be a4 a6 3a bd 71 f2 66 be
       0.4442677 -0.4437303 -0.045569077 -0.22553422
000320 fc 71 fb 3d 13 4a d1 bd 2c 8c 40 be 3d 46 29 bf
       0.122776 -0.10219207 -0.18803471 -0.661228
000330 94 a2 5d be 60 5c 05 3d b6 59 c5 3e ef eb a7 3e
       -0.2164405 0.0325588 0.38545007 0.3279719
000340 69 8e 04 be 61 9c c8 be 98 94 e4 3e b9 57 b7 3e
       -0.1294495 -0.39181808 0.44644618 0.35809115
000350 07 4d 0e bc 85 66 23 bf a5 6e a7 3e 62 77 24 3f
       -0.008685357 -0.6382831 0.32701603 0.64244664
000360 0f 8a 5e 38 02 e3 1f bf 37 28 03 3e b2 2c 45 3f
       5.30575e-05 -0.6245576 0.1280831 0.77021325
000370 cd 64 68 3e 1d ac df 3d 87 3b 81 be 59 5d 3b 3e
       0.22694702 0.109215 -0.25240728 0.18297328
000380 b3 00 46 be ed 2f 4b be 78 75 7e 3e f9 36 22 3f
       -0.19336204 -0.19842501 0.24849498 0.6336513
000390 05 ee 69 be ca 0d ff bd 9f a7 bf be 49 fe b1 3c
       -0.22844703 -0.12453802 -0.37432572 0.021727698
0003a0 8c c0 42 3e b0 e4 7f 3e 6a 86 0e bd 7f f1 53 3f
       0.19018763 0.24989581 -0.034796156 0.8279037
0003b0 ae 95 5a bf 14 b3 ad be 3d 28 9e 3d ae d1 d3 bd
       -0.85384643 -0.33925688 0.077225186 -0.103427276
0003c0 26 9f b9 be 9e 4d fd 3e cc f0 ac bd 1c cf 14 3e
       -0.36254233 0.4947328 -0.08444366 0.14532131
0003d0 f0 76 43 bf 82 18 fa be bb 6a 18 3f da 36 8c 3e
       -0.7635336 -0.48846823 0.5953786 0.27385598
0003e0 0b f9 6f bf 03 f5 fb be 5c 92 ea 3e 5c fa 66 bf
       -0.93739384 -0.49210367 0.45814788 -0.9022577
0003f0 9e 0e 47 bf 5f 03 2f bd 23 7a 14 bf 29 e5 19 3d
       -0.7775668 -0.042727824 -0.57998866 0.03757206

gnn_base.gnn.embed_layer.layers.0.bias f4 [16]
000000 17 03 4a be 1a 16 0b 3e 47 84 0f 3e 5f 94 bf be
       -0.19727741 0.1358265 0.14015304 -0.37417886
000010 05 a5 dd 3d 2c a5 a2 be 5b be 85 3d 95 2c 87 be
       0.108224906 -0.3176664 0.06530448 -0.264012
000020 6f 39 89 be 7a 22 28 be af d4 1a 3e 0b 4a 43 3e
       -0.2680163 -0.16419402 0.15120195 0.19071214
000030 d0 6a 20 be 1f a9 41 3e a3 ad d3 bd 61 30 21 be
       -0.15665746 0.18912171 -0.10335853 -0.15741111

gnn_base.gnn.embed_layer.layers.2.weight f4 [16]
000000 df 53 7e 3f 82 9a 83 3f 8e be b2 3f db 8e 4c 3f
       0.9934673 1.0281527 1.3964403 0.7990548
000010 e4 5d 0d 3f 6f 56 81 3f 8d 7f 20 3f fc 12 c6 3f
       0.5522139 1.0104502 0.6269463 1.5474544
000020 93 b2 7f 3f f3 80 27 3f 47 8f 9b 3f e8 bd cd 3f
       0.9988186 0.65431136 1.21531 1.607358
000030 ec 55 9b 3f f9 6c af 3f 7d 37 7c 3f 59 04 8f 3f
       1.2135596 1.3705131 0.9852217 1.1173202

gnn_base.gnn.embed_layer.layers.2.bias f4 [16]
000000 a7 39 35 bd 59 5b 96 be 61 be 7e 3e b8 54 42 be
       -0.044244435 -0.29366568 0.24877311 -0.1897763
000010 4d fa 1d 3e 07 12 42 be 9c 76 7a 3e 9e c6 5b bd
       0.15427513 -0.1895219 0.24459308 -0.053656213
000020 a5 97 1d 3e 15 36 da bc be 21 4b 3e 05 ca 60 3e
       0.15389879 -0.026637116 0.1983709 0.21952064
000030 52 91 2e bd 75 97 24 3e c2 ff f1 3d bc 71 29 be
       -0.042619057 0.16073401 0.1181636 -0.16547292

gnn_base.gnn.gnn1.lin_key.weight f4 [48, 16]
000000 23 2f 20 bf e1 44 6a 3e 40 09 2e bf a0 8d be 3c
       -0.62571925 0.22877838 -0.67982864 0.023260891
000010 ea c6 0a 3c 64 dc fa be 87 2d 06 bd 91 6e 85 3d
       0.008470276 -0.4899627 -0.032758262 0.065152295
000020 29 76 16 3e 04 cf 80 bd b2 49 47 be 1e 39 d2 bc
       0.14693512 -0.06289485 -0.19461706 -0.025662001
000030 d4 42 fb bd 49 61 f4 3e c8 8a db be 44 bb 30 be
       -0.12268606 0.47730473 -0.4287932 -0.17258936
000040 66 d1 b9 3e 1d e9 fa be 63 e3 33 3f a6 34 ce 3d
       0.3629257 -0.49005976 0.7026884 0.10068636
000050 ce c2 88 be 7c b0 f1 3e 4f 1c 14 be 55 52 1d 3f
       -0.26711124 0.4720496 -0.14463924 0.61453754
000060 93 98 b6 bd ff 11 91 3d 9d c1 f3 bd cc 46 89 3e
       -0.0891582 0.070835106 -0.11902163 0.26811826
000070 b7 27 04 be 6a a1 ec be 94 0c 03 bc db b6 f3 be
       -0.12905775 -0.462169 -0.007998604 -0.47600445
000080 6d 3a 10 bf 85 61 c5 3e a6 d3 04 be 3d c2 27 3e
       -0.5633915 0.38550964 -0.12971362 0.1638269
000090 fd 44 dd bd d9 e9 3d bf 55 be 2d 3e 5b 8e af 3e
       -0.10804174 -0.7418495 0.16967137 0.34288296
0000a0 5d 12 06 3f ad 93 a7 be c0 bc 2a be 4c 1e 8c 3e
       0.5237177 -0.32729855 -0.16673565 0.27366865
0000b0 2d 43 06 be 78 dc c8 3d 0c 89 33 bd 07 3a f1 bd
       -0.13111563 0.09807676 -0.04383187 -0.11778646
0000c0 51 8d a2 be 36 39 10 be 3f 2c 33 bf 43 54 5f 3d
       -0.3174844 -0.14084324 -0.6998939 0.054523718
0000d0 1b 1c fd 3e be 1d 70 3c 24 7e 87 3e 32 71 13 3f
       0.49435505 0.014655529 0.26463425 0.575946
0000e0 4a 47 d1 3e d6 26 42 be 3d f1 e0 be 0f cf 67 3e
       0.40874702 -0.18960127 -0.4393405 0.2263758
0000f0 b0 bc 68 3e 0f 05 71 be cd 7a d5 3d fb 2e 3d be
       0.22728229 -0.23537086 0.10423813 -0.18474953
000100 b4 b7 a3 3e dc a1 8a 3e 61 c7 a9 be b5 4d 41 be
       0.31976092 0.27076614 -0.33159927 -0.18877299
000110 96 16 3d bd d4 d4 3e 3e 1c 54 59 be 3c 0b 37 bf
       -0.046164118 0.18635875 -0.21223491 -0.7150152
000120 3a 0b fc be ef d5 25 be ef cc 22 3f f4 1a 2b 3e
       -0.49227315 -0.1619489 0.63593954 0.167095
000130 60 67 e0 3c de 3f 27 be c0 53 0d 3e 72 8e 06 3f
       0.027393043 -0.16332957 0.1380148 0.52561104
000140 93 3f a3 3e 9c 4e 0c 3e 65 d1 3f be 83 b3 c0 be
       0.3188444 0.13701862 -0.18732221 -0.37636957
000150 29 2d af bd c9 ba 11 3e ac bd 43 3e 8b 03 a5 be
       -0.085535355 0.14231409 0.19115323 -0.32229266
000160 b7 f1 97 be 01 38 a8 bb 78 53 ef 3d 80 3b 5a be
       -0.296766 -0.0051336293 0.11685842 -0.2131176
000170 4c ff 15 be 04 64 9e bd 28 e7 2a 3e 5e ab 75 3e
       -0.1464817 -0.0773392 0.16689742 0.23991153
000180 94 c3 4b 3d cc 25 63 3a 74 b2 d2 be f9 32 b5 be
       0.049747065 0.0008664995 -0.41151774 -0.35390452
000190 dc 52 3f 3b e2 03 40 3f 6c e8 1e 3e 9a d2 e5 3d
       0.0029193675 0.75005925 0.1551835 0.1122181
0001a0 3e a3 83 be 2a 8b af 3e 16 ee ce 3d 57 17 96 be
       -0.2571048 0.3428586 0.10104005 -0.29314682
0001b0 ae 23 b2 3e 2e 47 6c bd 48 2d 28 3e 79 83 f9 3c
       0.34792846 -0.05768507 0.16423523 0.030458199
0001c0 5c f8 d1 bd d9 f1 ec 3e 50 e2 c1 bd 5b 5b 1f be
       -0.10252449 0.46278265 -0.09466994 -0.15562193
0001d0 1e 7b 0d bf 85 24 76 bf 03 de 1d 3e 18 85 dc be
       -0.55265987 -0.96149474 0.15416722 -0.43070292
0001e0 35 13 a5 bc 44 8e 1b be 70 3e 04 bd 83 21 50 be
       -0.02015076 -0.15190989 -0.032286108 -0.20325284
0001f0 e9 99 35 be f6 9d b0 3d 6f 53 2f be d7 ac ab 3e
       -0.17734493 0.08623879 -0.17121671 0.33530304
000200 f0 4c 90 be b5 79 30 bf b5 ae 33 3e 41 99 75 3e
       -0.281837 -0.6893571 0.17547114 0.23984243
000210 a5 84 d6 3e e4 23 24 be ad 38 7c be a1 ac 18 3f
       0.41898075 -0.16029316 -0.24630995 0.5963841
000220 d9 e7 2d 3f eb c8 8e bd 9d 19 af bd 3a b2 63 3e
       0.67931896 -0.06971916 -0.08549807 0.22235957
000230 8a 11 22 3d 67 3f fa 3d dd 02 17 be 88 cf e8 bd
       0.039567508 0.12219124 -0.14747186 -0.113677084
000240 a1 a1 4f 3e 87 b0 cb bd 19 21 d0 be 19 22 7a 3d
       0.202765 -0.09945779 -0.40650252 0.061067674
000250 49 4c 35 3e f0 3d 6b 3f ed c0 08 bd 40 eb 6a be
       0.17704882 0.91891384 -0.033387113 -0.22941303
000260 81 d1 98 3c 1d 79 d1 3e 40 a1 a9 3e 0c 36 b2 be
       0.018654587 0.40912715 0.33130836 -0.3480686
000270 08 ac 96 3e 6b 76 38 bd e3 3b 9a 3d b0 aa 83 3d
       0.29428124 -0.045034807 0.07530954 0.064290404
000280 dd 43 09 bf 39 03 96 3e 53 6f 2e bf ce 68 31 bd
       -0.53619176 0.29299334 -0.6813862 -0.04331284
000290 92 90 88 3d 73 24 8f be 3d c0 09 be 62 b0 1b bf
       0.066681996 -0.27957496 -0.1345224 -0.60816014
0002a0 a3 bb 2b 3b 6d 7c ce 3e 1d c7 fc 3d b5 6c 84 be
       0.002620437 0.40329304 0.12342665 -0.25864187
0002b0 28 4f 5b 3d e0 d8 a3 3e dd 57 af be 19 99 67 3e
       0.053542286 0.320014 -0.34246722 0.22616996
0002c0 75 3e 39 3d 9d 3c 9f be d2 77 47 3f 33 44 d1 bc
       0.04522558 -0.31100932 0.77917206 -0.025545215
0002d0 7b b7 76 be 2e 8c 01 3f 04 5c 5b bd b0 76 ab 3e
       -0.2409343 0.5060452 -0.05355455 0.3348899
0002e0 81 5d a1 3c ed 56 85 be 5f 4a 4f be 87 b0 07 be
       0.019697906 -0.26042882 -0.20243214 -0.13250934
0002f0 22 4d 64 bb 74 e5 aa be 9a 8e 97 3e 4e 92 99 be
       -0.0034836014 -0.33378184 0.29600984 -0.29994434
000300 f2 e6 81 3d 09 41 e4 be fc 6d 10 3f 3d 81 7c b9
       0.063428774 -0.44580868 0.5641782 -0.00024080738
000310 34 04 c8 bd 1a 49 7c bd 5b 37 00 bf ca 12 c1 3e
       -0.09766427 -0.061593153 -0.50084466 0.37709647
000320 fb 98 0d 3f bc 9a 8f 3d 65 5c ca 3e 1a 96 18 3f
       0.55311555 0.07011935 0.39523616 0.59604037
000330 16 b4 ac be 98 e1 3b 3d 49 d8 86 be cc 5c 92 be
       -0.33731145 0.04586944 -0.26336887 -0.28586423
000340 3a 30 04 bf 73 a2 e6 ba ab 75 05 be 75 c4 bc 3e
       -0.5163609 -0.0017596021 -0.13033168 0.36868635
000350 a4 7e a0 3e 71 e1 31 bf 3c 02 71 be f5 aa 84 bd
       0.3134662 -0.6948462 -0.23536009 -0.0647792
000360 a0 3a dd 3e c9 80 66 3e 62 8b 0a bf 91 93 84 3e
       0.4320879 0.22510065 -0.5411893 0.25893834
000370 0d 82 d7 3c 84 08 d6 3e 3d ec aa be d4 39 db 3c
       0.02630713 0.41803372 -0.3338336 0.026760973
000380 e5 67 85 be 85 71 07 3f 6e a3 81 bf 84 0c 44 be
       -0.26055828 0.5290759 -1.0128 -0.191454
000390 c4 8f 47 3e 44 e8 95 bc 3e 5d 6e 3e 21 68 13 be
       0.19488436 -0.01829923 0.23277757 -0.14395191
0003a0 40 99 08 bd f8 d9 3e be f4 bf 46 3e ab 40 0c be
       -0.033349276 -0.18637836 0.19409162 -0.13696544
0003b0 59 6e 3e be ca c7 d9 3d 3c 37 8d be 93 1b 5d 3e
       -0.18596782 0.1063381 -0.27581203 0.2159255
0003c0 d6 bd 96 be c7 c6 56 3e b4 e2 74 be 39 d0 fe 3b
       -0.29441708 0.20974265 -0.23914605 0.007776287
0003d0 14 2c 32 3e a9 98 1d 3e 5f 26 e4 3c c2 08 ae be
       0.17399627 0.15390266 0.027850328 -0.33991057
0003e0 bd 5f 8a be 0a ad 52 3e 5a 0d 1b be b8 96 a8 be
       -0.27026168 0.20573822 -0.15141812 -0.3292749
0003f0 96 cd 84 3e 41 9f fa bd e7 1d c5 bd 03 30 88 be
       0.259381 -0.122374065 -0.09624844 -0.2659913

gnn_base.gnn.gnn1.lin_key.bias f4 [48]
000000 9c 20 26 3e d9 7b 98 3d c1 cb 4c 3d da 31 f5 bd
       0.16223377 0.07445497 0.049999002 -0.11972399
000010 8a bd af bd 4d f8 b4 3c 09 20 c0 bc b0 22 19 3e
       -0.085810736 0.022091055 -0.023452776 0.14954638
000020 66 4b 0c 3e 86 ea 70 3e 10 40 a1 3d 1a 0c 28 be
       0.13700637 0.23526964 0.07873547 -0.16410866
000030 20 71 66 3e fb 9d be 3c ed 03 5e be 82 88 32 3e
       0.22504091 0.02326869 -0.21681185 0.17434886
000040 5a 1d 2d be 8b b6 34 3e 73 45 32 3d bd a2 2b be
       -0.16905728 0.1764776 0.043523263 -0.16761298
000050 6a a6 27 3e 9d 65 20 bd 30 10 48 be 4a 92 2b 3e
       0.16372076 -0.039159406 -0.19537425 0.16755024
000060 d9 be 13 be 09 99 9c 3d 19 cb 0d 3e c5 b4 bd 3d
       -0.14428271 0.07646377 0.13847007 0.09262995
000070 7e 56 9a 3d 64 67 00 3e bd 08 4b be 78 55 e7 bd
       0.07536028 0.1253944 -0.19827552 -0.11295599
000080 18 5f 03 3e 3d ca 3a 3e 17 7c 49 3d 3e e1 e7 3c
       0.12829244 0.1824121 0.049190607 0.028305646
000090 51 10 4c be 82 33 37 bd a9 2e f4 bd 52 d3 71 3e
       -0.19928099 -0.044726856 -0.11922962 0.23615769
0000a0 52 cc 7a 3e 3c f2 ff 3c 7f 9b 48 3e ce 59 76 3c
       0.24492005 0.031243436 0.19590567 0.01503606
0000b0 ce ce 8d bd b7 3e 30 be d5 e8 5d 3e f4 53 90 3d
       -0.069242105 -0.17211424 0.2167085 0.07047263

gnn_base.gnn.gnn1.lin_query.weight f4 [48, 16]
000000 c5 54 19 be 2e 5b 7d 3e 2c 85 46 be fa 92 9c 3e
       -0.14973743 0.24741814 -0.19386739 0.30580884
000010 08 35 e3 be ae 77 8d 3e d9 75 c5 be 06 64 27 be
       -0.44376397 0.2763037 -0.38566473 -0.1634675
000020 13 88 13 be b2 a0 3b be ac 16 33 3d 8e a9 f3 bd
       -0.14407377 -0.18323019 0.043722793 -0.11897574
000030 b2 2c e7 be 73 da ee 3e c0 5c dc 3e 1a c6 c8 3e
       -0.45151287 0.4665104 0.43039513 0.3921364
000040 e7 68 f8 be b8 21 b7 bd c5 ab f6 bc cd 5d f2 3d
       -0.48517534 -0.08941978 -0.030111203 0.11834297
000050 21 20 aa 3d cb 42 c5 be 22 6d 36 3f ee bd 77 3e
       0.08306909 -0.38527521 0.71260273 0.24193546
000060 15 c3 69 3e c4 b9 d9 3e c8 6e 23 bf 70 03 4c 3e
       0.22828324 0.4252454 -0.63840914 0.19923186
000070 d3 2a 0f 3f ce 41 5c be 6b 98 15 bf e6 ae f7 be
       0.5592472 -0.21509477 -0.58435696 -0.48375624
000080 7c 67 00 be 5c 28 e7 3e 62 95 bd be 8f aa d7 3e
       -0.12539476 0.4514798 -0.37028033 0.42122313
000090 5a c0 72 3d 95 40 1d 3e ab 47 d3 bd b5 63 8f bd
       0.059265472 0.15356667 -0.10316404 -0.070014395
0000a0 d6 dd 54 3e a3 03 19 bf d6 81 a5 be 21 d9 e7 be
       0.20787749 -0.59771174 -0.3232562 -0.45282844
0000b0 1b ee ca be b7 46 09 3f 6a f0 a1 3e f9 09 58 3e
       -0.39634785 0.5362353 0.31628734 0.21097554
0000c0 0e 34 29 be 45 72 09 3f b8 25 6e bf f6 99 4b be
       -0.16523764 0.53689986 -0.93026304 -0.1988295
0000d0 20 28 82 3e 65 e1 d0 3d 7e b4 2e 3e 5a ea 03 be
       0.25421238 0.101992406 0.1706104 -0.12882367
0000e0 3d 83 40 3d c8 a7 35 3e ce 3e c8 be d0 d9 a3 3d
       0.04700016 0.17739785 -0.39110416 0.08000529
0000f0 92 ae bd bd 7c e4 84 bd 30 13 4d 3e 32 57 6e be
       -0.09261812 -0.064888924 0.2002685 -0.2327545
000100 e5 99 14 3f bd 07 fc bd 96 45 ba 3e ee 1e d9 be
       0.58047324 -0.123061635 0.36381215 -0.4240641
000110 bc 3e ff bd ab 31 eb 3e 32 fc cb be 57 58 c9 bd
       -0.124631375 0.4593633 -0.39840847 -0.098313026
000120 99 71 a4 3e 21 a9 cf 3d 35 a0 9c 3e ad d8 39 3e
       0.32117918 0.10139681 0.30590978 0.18149062
000130 f4 40 0c be 62 de ae be fe c6 c4 3e 2c ae b2 3a
       -0.13696653 -0.3415404 0.3843307 0.001363223
000140 6b d1 aa be d6 03 88 be ee ba ad 3e e5 4c 1c be
       -0.33362898 -0.26565427 0.3393168 -0.15263708
000150 36 2a 99 bd 17 ac a6 3e 5c 07 19 bd 5e fe a5 be
       -0.07478754 0.3255317 -0.037360534 -0.3242063
000160 32 20 5f 3d e6 98 8f be 42 a0 bf 3e 96 05 5d bd
       0.054474063 -0.2804634 0.37426955 -0.053960405
000170 2c 1f ba 3c 44 a5 f4 bc b7 17 37 3e 34 c7 99 bd
       0.022719942 -0.029863961 0.1788014 -0.07508698
000180 73 44 ba be 05 1a 82 be ed 31 d6 bc 5c 87 35 bf
       -0.36380348 -0.25410476 -0.026146853 -0.70909667
000190 7e e2 c6 3d b7 1c 0d 3d 92 4c 28 be 31 cb 24 bd
       0.09711169 0.034451213 -0.1643546 -0.04023284
0001a0 25 32 25 be 70 af 6f 3e e8 8d cb 3d ef 16 6c 3e
       -0.1613241 0.23406768 0.09939176 0.23055623
0001b0 2d df 08 3f 11 26 be bd bb f0 dc 3d 20 6f 90 3e
       0.5346554 -0.09284604 0.10788103 0.28209782
0001c0 85 32 a7 3e 12 26 78 3e 15 14 ad 3e 1d d8 47 3e
       0.3265573 0.24233273 0.33804384 0.19516034
0001d0 85 53 b0 be e3 a5 07 3e e9 4f 09 bf 99 91 a0 be
       -0.3443872 0.13246875 -0.5363756 -0.31361082
0001e0 a8 cc 23 bd cf c6 d8 be 0a 9c fa 3e 82 ca b7 be
       -0.039990097 -0.4233918 0.48947173 -0.3589669
0001f0 5a cf a8 be 6d 17 43 3e 9d f1 c8 3d 0f 68 fd 3e
       -0.32970697 0.19051905 0.09811709 0.49493453
000200 8d 66 c3 be c9 1e 8b 3e e5 dd c3 be da 99 a8 3e
       -0.38164178 0.27171925 -0.3825523 0.3292988
000210 2c 8c 7b be 60 ca 90 be d8 78 55 3f f4 91 00 3f
       -0.2456519 -0.282794 0.8338752 0.50222707
000220 44 b8 ee bd db e8 49 3e 7c 41 14 bf 9c b9 3d be
       -0.1165624 0.19717734 -0.5791242 -0.18527836
000230 a2 47 28 bd 4e 28 14 3e 66 8c 2b 3d e1 67 c2 be
       -0.04108394 0.144685 0.04188194 -0.37969878
000240 ae 4c 6f be 87 46 fb bd 98 ea 32 3e 2d d5 21 be
       -0.23369095 -0.122693114 0.17472303 -0.15803976
000250 59 45 fd 3e 6e 51 bc 3d d9 9d 5e bd 41 05 cd 3d
       0.4946697 0.09195219 -0.054349754 0.10010768
000260 54 27 45 3d a1 0e db 3e 04 e2 6b 3e bb e3 85 3c
       0.04813321 0.42784598 0.23035437 0.016343942
000270 6b b7 30 3f 5c af 1c be 50 ce dd 3d 99 73 ca 3d
       0.69029874 -0.1530127 0.108303666 0.0988533
000280 dd b8 22 3e 1f 7a d6 3d 3e 1f 62 3d cf ec 62 3d
       0.15890832 0.104725115 0.055205576 0.05540162
000290 3a f3 d3 be 8b 9f d3 3e ac 2f cc be 48 85 b1 be
       -0.41396505 0.4133266 -0.3988012 -0.34671998
0002a0 db 1f 55 be de 96 89 be 96 e4 2d 3f 20 53 f8 be
       -0.20812933 -0.26872915 0.6792692 -0.4850092
0002b0 0a aa 5a be 26 48 f1 bc da 42 d1 3e 23 a0 ee 3e
       -0.21353927 -0.029453348 0.40871316 0.4660655
0002c0 00 c0 85 be ab 85 d1 be 45 88 88 3e c2 76 3b 3e
       -0.26123047 -0.40922293 0.26666465 0.18307021
0002d0 c7 a0 d7 3e cf 61 d2 be c3 08 09 3e e0 1d 0e 3e
       0.4211485 -0.41090247 0.13382249 0.13878584
0002e0 89 8d 81 3e 2c 8d f2 3e 81 ef 02 bf ef 0b 9a 3e
       0.25303295 0.4737333 -0.51146704 0.3008723
0002f0 09 b1 f2 3e 3b 4f 8a 3e 31 75 0b bf 58 10 c0 be
       0.47400692 0.27013573 -0.54475695 -0.3751247
000300 30 92 bc bd 5e 71 8d bd bd c8 b1 bd 0f 2b a7 3e
       -0.092075706 -0.06906389 -0.08680866 0.3265004
000310 11 0b e3 be d5 7b 20 be 65 93 2d 3f 3e 82 2c 3f
       -0.4434438 -0.15672238 0.6780303 0.67386234
000320 9b 19 9f 3d ea ab 75 3e 2f e3 22 bf 8d 4b 81 be
       0.07768556 0.23991361 -0.63627905 -0.25252953
000330 ae b6 76 bd 2c 30 40 be 91 e5 c0 be 2b 9d b9 bd
       -0.06023281 -0.18768376 -0.37675145 -0.090631805
000340 cf cb f7 be 96 60 c9 3e 68 ac 07 bf 1c 64 2e 3f
       -0.4839768 0.39331502 -0.52997446 0.68121505
000350 1d bc b1 be 2b 0d fe bd 66 0c 23 be 9a 14 6e bd
       -0.34713832 -0.12404855 -0.15922698 -0.058125116
000360 81 25 f1 be d3 42 65 be eb 65 e8 3c 1f 53 f3 be
       -0.47098926 -0.22388773 0.02836891 -0.47524354
000370 dd 8a aa be 1a c2 07 3e f9 30 a9 3e 2e 78 7e be
       -0.3330907 0.13257638 0.33045176 -0.24850532
000380 a0 c6 86 3e 9d 0f 8c 3e 17 c8 da bd b6 e1 62 be
       0.26323414 0.27355662 -0.10682695 -0.22156414
000390 0e 14 21 bd f8 e1 bc 3e cc 27 24 bf 6c 69 b8 be
       -0.039325766 0.3689115 -0.64123225 -0.3601793
0003a0 78 2e 84 3e c9 9f 9f be 12 e7 96 bd be 72 25 be
       0.25816703 -0.31176594 -0.07368292 -0.16157052
0003b0 49 1a 62 3d 64 e4 c4 bc 3e 38 a8 3e 48 26 6b 3e
       0.05520085 -0.024034686 0.3285541 0.22963822
0003c0 83 a2 87 be 71 5e 68 bd 88 19 ab 3c 24 22 aa be
       -0.26491174 -0.05673069 0.020886198 -0.33229172
0003d0 c6 7b db bd 45 f3 d6 ba c9 ec a8 be 03 a9 5b be
       -0.10716967 -0.0016399404 -0.32993153 -0.21451192
0003e0 3a ac 88 3d 53 67 d7 bd 4c 71 1a 3f ab f3 b3 3e
       0.066734746 -0.105177544 0.6032913 0.3514684
0003f0 37 de 07 3e ca 65 32 3e 2a cc 77 3e e6 61 95 3d
       0.13268362 0.17421642 0.24198976 0.07294063

gnn_base.gnn.gnn1.lin_query.bias f4 [48]
000000 78 ec 65 3e 60 29 94 3d 91 46 6b 3d dd 23 51 bd
       0.22453487 0.07234454 0.057440344 -0.051059593
000010 46 16 ae bd cd e0 e3 be a9 dc d8 bc 54 2f b6 be
       -0.08500342 -0.44507447 -0.026472406 -0.35582983
000020 ba 55 ae 3e 65 29 b6 be 7d e1 cd bc 21 15 80 3e
       0.3404978 -0.35578457 -0.025131935 0.2501612
000030 a6 25 e1 3e 36 a5 2d bd 1e b6 14 bd e7 bd ba 3d
       0.43974036 -0.042393886 -0.036306493 0.09118252
000040 fe 79 0e be 6f 79 49 bf 6a 42 50 3d a7 31 bf 3e
       -0.13913724 -0.7870092 0.050844587 0.3734257
000050 5b 1e e3 be 05 2a a6 be 21 90 4d 3e c6 8c 98 3e
       -0.44359097 -0.32453933 0.20074512 0.29794902
000060 d2 23 f9 3d c6 80 52 3e 60 e0 e8 be 7c 3a 8e be
       0.12165035 0.20556936 -0.45483685 -0.27778995
000070 e2 82 1a 3f 5c c3 96 bd d0 ca 1c 3f be e9 3b bf
       0.6035596 -0.073614806 0.6124697 -0.7340354
000080 b1 ef a0 be b0 7c 32 bf 56 7a 55 bc 83 0f 51 3e
       -0.3143287 -0.6972151 -0.013029655 0.20416074
000090 1b 06 b0 bc 66 07 0a bf a6 55 b6 3c 52 16 de be
       -0.021487286 -0.5391754 0.022257637 -0.43376404
0000a0 98 dc 89 bd bf 5a 84 3c 08 42 16 3f 4d 20 d7 be
       -0.06731528 0.016156552 0.58694506 -0.4201683
0000b0 70 5f a7 be d3 15 e5 3d 9f fe 6c 3e 59 1b 22 bf
       -0.3269 0.11185803 0.23144005 -0.6332298

gnn_base.gnn.gnn1.lin_value.weight f4 [48, 16]
000000 88 96 c5 3e 4b 36 da 3d 89 67 99 bb b5 f9 dc 3a
       0.3859141 0.10654887 -0.004681532 0.0016859086
000010 75 73 e3 bd ce 31 e6 3d 83 d7 d8 be 9e 26 58 3e
       -0.11106006 0.11239968 -0.42351922 0.21108481
000020 ef bd 4e 3e b6 02 ef be 93 06 fd bd e0 0e 03 bf
       0.20189641 -0.46681756 -0.123547696 -0.5119457
000030 92 33 96 bd 5a 68 f2 be 5e 0b 91 3e 8d a8 77 3e
       -0.07334055 -0.4734524 0.28328985 0.24185391
000040 52 11 3f be 77 5c 65 3c 34 0b 05 3f 65 7f e4 3c
       -0.18658951 0.013999096 0.5197022 0.027892778
000050 dc ca b6 be e5 60 58 bd d5 cd d6 3d 15 f0 4d bf
       -0.35701644 -0.05282678 0.10488478 -0.8044446
000060 4f 06 8b be 2a 16 40 3d 5e b8 59 3e 4a 99 b8 be
       -0.2715325 0.046896137 0.21261737 -0.3605445
000070 17 7f 81 bd 6a d3 60 3e 25 10 0b bf c6 00 97 3e
       -0.063230686 0.21955648 -0.5432151 0.29492778
000080 b7 db 18 3d 3e ae 40 3d 9f 50 16 3e 09 01 02 3f
       0.03731891 0.04704117 0.14679192 0.5078283
000090 84 93 c8 3e 77 47 ab bd ea af a4 3d 67 62 14 be
       0.39175045 -0.0836324 0.080413654 -0.14490663
0000a0 32 8a bd be 63 80 8f 3e 61 4b cd be 40 4c 27 3e
       -0.37019497 0.2802764 -0.40096572 0.16337681
0000b0 96 d4 be 3e be 61 52 3d 80 a1 14 be 44 26 99 bc
       0.37271565 0.051362745 -0.14514732 -0.018695004
0000c0 e1 a1 fc 3e 2d c0 02 bf 47 6a fc 3d 53 ea 6f 3d
       0.49342254 -0.51074487 0.12324958 0.05857308
0000d0 b4 df 40 bd 9c 6b f0 3e bb b5 23 be 42 31 c4 bd
       -0.04708834 0.469571 -0.15987293 -0.09579708
0000e0 d5 fe 99 3c 0b 1e c3 bd 61 38 a8 3e 78 92 2c 3f
       0.018798271 -0.095272146 0.32855514 0.67410994
0000f0 ee ce 7c 3e 8b 75 30 bf aa 52 d1 3e 3f 53 89 be
       0.24688312 -0.68929356 0.4088338 -0.26821324
000100 47 40 a4 bd 28 30 24 bf bf 44 d1 3e 16 a0 48 bf
       -0.080200724 -0.6413598 0.40872762 -0.7836927
000110 a6 31 95 3e 24 ba 68 3d 17 6a 34 bd 5f 36 8a bf
       0.2913944 0.056818143 -0.044046488 -1.0797843
000120 cc 1b 85 3b 7e 45 44 3e 77 0f 19 3f 9c 4e 55 3e
       0.0040621515 0.19167134 0.5978922 0.20830768
000130 d2 81 06 3e a0 c8 cb 3e 0d cf 3d 3e c6 df ef bd
       0.1313546 0.39801502 0.18536015 -0.11712603
000140 d6 dd 80 3e e4 7e 5d be dc d6 02 bf c9 40 23 be
       0.25169247 -0.21630436 -0.511091 -0.15942682
000150 a6 3a 8c 3e 75 99 8c be 0d 4d a2 3e e0 e0 1f 3f
       0.27388495 -0.27460828 0.3169941 0.62452507
000160 a7 7c 80 3e 72 6e 13 3f fd 4c cc be 4a 79 6b be
       0.25095102 0.575904 -0.39902487 -0.22995487
000170 7e d6 72 3c 55 42 65 bf 7f 73 91 be f0 1d 0b bd
       0.014821647 -0.8955434 -0.2840843 -0.033964097
000180 7e ff c1 3e 48 62 13 3f 00 cc 2e bf 4f d1 a8 3e
       0.37890238 0.5757184 -0.6828003 0.3297219
000190 56 97 96 be 12 c1 35 be 7a af bd 3d c4 ca 26 3d
       -0.29412335 -0.17749432 0.09261985 0.040720716
0001a0 ef 0d 1a 3e c7 a7 d4 be 2d 79 bd be d2 3f 20 bf
       0.15044378 -0.41534254 -0.37006512 -0.6259738
0001b0 19 c3 8e be ca 20 17 3d f7 b5 08 bf ef a3 68 3f
       -0.27883223 0.036896504 -0.53402656 0.9087514
0001c0 cd ab 65 bc 8b be 45 be b2 20 cb 3d d4 be 90 be
       -0.014018011 -0.19310968 0.099183455 -0.2827059
0001d0 ff 4a e6 3d 1c 94 63 be 9f cf a2 3e 00 07 ce be
       0.11244773 -0.22224468 0.31799027 -0.40239716
0001e0 5d 2a 40 3e 85 7b da 3d 32 3c a5 3e 2b e7 06 3e
       0.1876616 0.10668091 0.32272488 0.13174121
0001f0 cf 36 df bc 00 7c 5f 3f f4 0e 30 be 9f b3 36 bb
       -0.027247814 0.87298584 -0.17193204 -0.0027878059
000200 95 d4 98 be c5 be 58 bf a9 82 0d 3f e3 55 2e 3e
       -0.29849687 -0.8466609 0.55277497 0.1702495
000210 c0 f0 5c 3c 96 06 d0 3e 87 e0 91 be 99 64 cb 3e
       0.013485134 0.40630025 -0.28491613 0.39725187
000220 e4 46 2b 3e 85 24 b7 be 9e 1f 09 3f 33 3c d6 3d
       0.16726261 -0.3577005 0.5356387 0.10460701
000230 cf 91 d6 bc f1 03 c2 3e 2a f2 7b 3f 20 4e 76 bf
       -0.026192574 0.37893632 0.9841639 -0.9621296
000240 9b 1a 21 3e e9 f9 d5 be c1 9c 16 3e 3f 33 90 3e
       0.15732805 -0.4179223 0.14708234 0.28164098
000250 36 c7 1f 3e 25 5d 34 bd 76 be 13 3f 51 a1 03 3d
       0.15603337 -0.044034142 0.57712495 0.032136265
000260 4f 3e 9c be e7 8f 11 3e 75 22 a9 3e de 40 0c 3f
       -0.30516288 0.1421505 0.330341 0.5478648
000270 f8 62 03 3f d3 0e 65 bf 66 28 15 bf 8d a8 f3 3d
       0.5132289 -0.89475745 -0.5826477 0.11897383
000280 8a a0 f8 be 02 10 bb be 8f 35 fe be ca 4b de bd
       -0.48559982 -0.3653565 -0.49650237 -0.10854299
000290 37 cd eb 3e 46 37 fc 3b ab ec 96 3e 6b 1e c1 bd
       0.46055004 0.007697019 0.29477438 -0.0942963
0002a0 8f f2 8f bd 1f cf 33 3f ed f3 bd bd 65 50 05 3f
       -0.07028686 0.70237917 -0.09275041 0.520758
0002b0 94 02 f1 3e 00 12 bf bd b5 98 c6 3e c7 32 36 bf
       0.4707228 -0.09329605 0.3878838 -0.7117123
0002c0 5e 0c 0a be f9 b0 d4 3e 4a 7f f0 be bd 80 97 be
       -0.1348128 0.4154127 -0.46972114 -0.29590407
0002d0 09 8e 00 3e e8 7f 9c bd fc 35 9f 3e 3b e9 3b 3b
       0.12554182 -0.07641584 0.31095874 0.0028672952
0002e0 0d 2b 1c bf 7e cd 8f 3e 77 81 0c 3d 45 fb 13 3e
       -0.6100319 0.28086466 0.034303155 0.1445132
0002f0 8e 5b ae 3e 3d e5 1e 3e 08 11 84 be de 03 2f 3e
       0.34054226 0.15517135 -0.25794244 0.17091319
000300 dd e8 08 3e 01 13 84 be 0b 70 73 3f 66 10 18 bf
       0.1337008 -0.2579575 0.9509284 -0.5940002
000310 db 97 7f be c6 ce 12 be 44 3a 93 be 5e d3 99 bd
       -0.24960272 -0.1433669 -0.2875539 -0.07511018
000320 cd 04 a3 3d c7 8c 46 be ae b0 af bd 8a f6 25 3e
       0.079599 -0.1938964 -0.08578621 0.16207328
000330 53 b9 5b bd a4 7c 2a bd 1f f1 84 be 6d 4d 5c 3d
       -0.053643536 -0.041622773 -0.2596521 0.053784776
000340 4c a5 a4 bd 53 21 c7 be 6f 22 50 3f 4d 64 0f 3e
       -0.080393404 -0.38892612 0.8130254 0.14003105
000350 84 75 4c be 36 f3 38 3e 9b aa 08 be 1f 77 de be
       -0.19966704 0.18061528 -0.13346331 -0.43450257
000360 55 42 ff 3b 55 b4 4b 3d 6b db bd 3e 7d fa 3c 3e
       0.00778989 0.049732525 0.37081465 0.18454929
000370 be 37 b6 3c f4 b6 6b be 44 68 ee be 0c b2 83 3e
       0.022243377 -0.2301901 -0.46563923 0.25721776
000380 c3 c6 c3 3e 9b 63 73 bd b7 1f a2 be c7 8c 22 be
       0.3823758 -0.059421163 -0.31664822 -0.15874015
000390 8a 19 92 3e 72 dc 2f be 6d 24 18 be 62 18 b3 3e
       0.2853511 -0.17173937 -0.14857645 0.3497954
0003a0 0a 45 f5 3d 1b 23 0b 3e e7 be 34 be 1c 6a 47 3e
       0.11976059 0.1358761 -0.17650948 0.19474071
0003b0 e7 3a 92 3e 7b b2 0e bf c5 c6 83 3e ae 68 53 3e
       0.28560564 -0.5574109 0.25737587 0.20645401
0003c0 4e a3 0c 3e 0f 71 e7 3e ff 3c e5 be 72 e1 dc 3e
       0.13734171 0.45203444 -0.447731 0.4314075
0003d0 b0 c6 ac be 08 6c be be e5 81 3b bd 35 fa da be
       -0.33745337 -0.37191796 -0.045778174 -0.42769018
0003e0 9d 87 0c be e5 65 a9 be 76 e9 13 3e 85 c2 86 bf
       -0.13723607 -0.33085552 0.14444527 -1.0528113
0003f0 ab 66 25 bf 99 b0 e5 3d 9b 4d 90 bd b6 1b 09 3f
       -0.64609784 0.11215324 -0.07046052 0.5355791

gnn_base.gnn.gnn1.lin_value.bias f4 [48]
000000 ee 4e 36 3d 9a e2 1f be 0d de 2d bd 1a 81 1a bf
       0.044508867 -0.15613785 -0.042448092 -0.60353243
000010 22 63 8b 3e ef 01 e3 3e 02 69 53 3e f9 52 de 3d
       0.2722407 0.44337413 0.20645526 0.108556695
000020 23 7e 08 bf 8d 9a 51 bd c9 13 23 3e 33 d5 07 be
       -0.5331747 -0.05117278 0.15925516 -0.13264923
000030 6f 10 ec bd 2f c7 40 be 67 c2 a4 3e 3c 8d 1f 3e
       -0.11526572 -0.18825983 0.32179567 0.1558122
000040 08 84 96 be 81 9f d2 bd c6 86 7f 3e 6e bc f6 be
       -0.29397607 -0.10284329 0.24953756 -0.48190635
000050 e1 87 5e 3e 4f bf ec 3d b7 e9 38 3e 06 f9 5a be
       0.21731521 0.11559927 0.18057905 -0.21384057
000060 5c ef cf be 07 ab a7 3e cc 16 77 3d ea a2 10 3e
       -0.40612304 0.3274767 0.060324475 0.14124647
000070 73 ba 2e be ee 24 b3 3c a0 73 61 3e b0 5b 01 3e
       -0.17063312 0.021868195 0.22016764 0.12632632
000080 31 68 16 bd 28 df 4b be d0 e8 59 3e ac b6 0d bf
       -0.03672046 -0.19909346 0.21280217 -0.5535686
000090 8b ad 3f bd 97 5c f6 3e 88 75 31 3e e2 da 9d 3d
       -0.046796363 0.48117515 0.17329991 0.07707764
0000a0 37 8a 08 be b8 f1 93 bc 13 04 0a be d1 3c 17 3d
       -0.13333975 -0.018059596 -0.13478117 0.036923233
0000b0 5f db 8e be 55 1a 48 be bf 10 0d 3e ba 53 09 3e
       -0.27901742 -0.19541295 0.1377592 0.13410845

gnn_base.gnn.gnn1.lin_edge.weight f4 [48, 1]
000000 3b ff 57 3e e2 61 18 bf ae 9d 20 3f 91 c3 c2 be
       0.21093456 -0.5952436 0.627406 -0.3803983
000010 07 a1 9a 3f 26 c6 c4 bc 3b a6 96 3e d6 ef 2d bd
       1.2080392 -0.024020266 0.294237 -0.042465053
000020 36 3b 9b bf 3f 4c a6 3e 94 e4 48 3e 12 71 c0 3e
       -1.2127445 0.32480046 0.19618446 0.37586266
000030 d3 a0 8b bf a3 58 29 3f 68 ac a1 be bd dd 13 3e
       -1.0908455 0.66150874 -0.31576848 0.14440055
000040 c4 43 93 bf a5 74 81 3f 9e 82 78 3e 38 76 9a bf
       -1.1505055 1.0113722 0.24268577 -1.2067327
000050 a1 66 33 bf 34 2e 21 3f bf 2e 81 bf 00 93 79 be
       -0.70078474 0.62961125 -1.0092391 -0.24372482
000060 69 b9 9b bf 8f b1 f6 be c7 3d 5a 3f b6 2a fd be
       -1.2165958 -0.4818234 0.85250515 -0.49446648
000070 57 6f 37 3f 4d fa 1b 3e 73 80 24 bf 3b a0 bf be
       0.71654266 0.15232201 -0.642585 -0.37426934
000080 36 10 29 bd 6b 24 07 3f 70 35 c7 bf f6 95 7f 3f
       -0.041275226 0.52789944 -1.5563183 0.998382
000090 5e 92 53 bf 5c a4 5b bf c5 f8 6e bf 61 ca af 3e
       -0.82645214 -0.8579767 -0.9334834 0.3433409
0000a0 77 c5 ab bf 15 6e d6 be 83 72 18 3f 7d 33 81 bf
       -1.3419636 -0.4188086 0.5954973 -1.0093838
0000b0 b0 78 9b bf f4 cd 61 3f 4b 07 6b 3f 7c 08 37 bf
       -1.2146206 0.88204885 0.91808003 -0.7149732

gnn_base.gnn.gnn1.lin_skip.weight f4 [16, 16]
000000 7e 8e 52 3e 1b 40 ef be f3 29 3b 3e d4 0b 17 3e
       0.20562169 -0.46728596 0.18277721 0.14750606
000010 02 f8 81 3d a5 9d 95 3e 9d ae e7 be 0d e3 29 3e
       0.06346132 0.29221836 -0.45250407 0.16590519
000020 1d ac 87 3e ae 27 7a be d6 f5 a5 3e 46 9c 55 3f
       0.264985 -0.24429199 0.3241412 0.8344158
000030 7c 32 11 3e 2e 0f d7 be 96 25 19 be e9 2f 95 be
       0.14179415 -0.4200377 -0.14955744 -0.29138115
000040 5f 43 03 be 69 24 6a be b5 09 45 3f e2 8c e1 be
       -0.12818669 -0.22865452 0.76967937 -0.44052798
000050 f3 55 a0 3d 9d 4d 22 3e b4 cd 19 3e dd 26 fe be
       0.078288935 0.1584992 0.15019876 -0.49639025
000060 fa ec ca be ef d7 2e be 97 06 24 3f 1d 0f 9a 3e
       -0.39633924 -0.1707456 0.64072555 0.30089656
000070 98 23 14 3c 84 02 09 be 44 b6 d2 bd 0a cb 35 3c
       0.009041689 -0.13379866 -0.10288671 0.011095772
000080 ff 97 41 be ed 48 0c 3d ec 19 04 bd e2 c6 7d bd
       -0.18905638 0.034249235 -0.032251284 -0.061957248
000090 8d b0 8f bd 47 64 74 3d 23 ce 87 be 5c 22 35 3f
       -0.07016096 0.059665944 -0.26524457 0.70755553
0000a0 77 c0 07 3f 6a 4f 9d be a9 fc b6 3e 4f 82 9e 3d
       0.53028053 -0.3072465 0.3573964 0.07739698
0000b0 cc ed 84 be 5d e7 18 3e 52 bb e5 3e 7b 17 01 bf
       -0.25962675 0.14932008 0.44869477 -0.50426453
0000c0 82 1c 90 bc 3c 02 20 be 69 ff 17 be c0 54 f4 bd
       -0.017591719 -0.15625852 -0.14843525 -0.11930227
0000d0 a6 07 59 3e d8 66 63 3e 01 01 3e be 95 53 98 be
       0.21194324 0.222072 -0.1855507 -0.29751268
0000e0 7d 44 86 3e a6 71 92 3d 02 03 da bd e0 d1 a0 bb
       0.26224127 0.07150583 -0.10645105 -0.0049078315
0000f0 06 47 8d 3e 0f 0e 2d be 01 81 13 3e b0 c3 96 3d
       0.2759325 -0.16899894 0.1440468 0.07361543
000100 b1 e1 46 3e ef 55 97 be 7a 26 85 3f 9f d2 1a 3d
       0.19422032 -0.2955775 1.0402367 0.03779852
000110 f8 38 72 bc d8 df 5e 3e 2b a0 e1 bd 91 72 91 bd
       -0.01478409 0.21765077 -0.11016878 -0.0710193
000120 0c 4c b1 3d e5 dd 2f be 0a 3e e4 3e ab 07 ed be
       0.08657083 -0.1717449 0.44578582 -0.46294913
000130 65 0a d9 bd ab 8e c3 bd cd 4d b5 be a7 37 10 be
       -0.10597686 -0.09548696 -0.3541092 -0.1408373
000140 55 ac 8e bd 2d 09 e1 3c 53 42 55 3d d4 92 ad bc
       -0.069664635 0.027470196 0.052065205 -0.021188177
000150 8b bf 4b 3d f7 6f 3a 3e b9 32 74 be 14 67 f3 be
       0.049743216 0.18206774 -0.23847474 -0.4753958
000160 4a ec c4 be 8f 6a 0a 3e e5 a4 fc be 52 5f af 3e
       -0.38461524 0.13517211 -0.49344555 0.3425241
000170 3b fc a6 3e ee 92 b6 3e 80 a7 e6 3e 5e bf e5 bd
       0.32614312 0.35658973 0.45049667 -0.11218141
000180 86 0d bc 3e 70 d1 b8 3d a2 7b a4 be 5b 4f c7 3d
       0.36729068 0.09024322 -0.32125574 0.09731933
000190 25 45 ba be 12 dc e5 3d 26 b9 3a bf 03 70 a4 3d
       -0.36380878 0.11223616 -0.72938764 0.08029177
0001a0 34 65 7f be 23 1d 00 bf 3f b0 2d be f8 22 53 bd
       -0.2494095 -0.5004446 -0.16961764 -0.05154702
0001b0 74 0c fd be f2 ee 27 3e 7f e8 be 3e e7 68 7c 3e
       -0.49423563 0.16399744 0.37286755 0.24649392
0001c0 e1 4a a7 be 05 72 80 3e 79 e1 60 3e 9a 2f be be
       -0.32674316 0.2508699 0.21961011 -0.37145692
0001d0 b6 0c 2a bd 18 bf 09 bf 8e 4a fb bd db a8 c1 3c
       -0.04151603 -0.5380721 -0.122700796 0.023640087
0001e0 0f 1b 86 3e 24 db 99 be 96 da e8 3e 87 c9 1c 3e
       0.2619252 -0.30050004 0.45479268 0.15311252
0001f0 2b 8e 30 be e2 8d 5c 3e ca f3 12 be 14 7e fd bc
       -0.17241733 0.21538499 -0.1435081 -0.030943908
000200 d7 1f 99 be ae e1 e8 3c 3c e6 4f be a1 63 84 be
       -0.29907104 0.028427925 -0.20302671 -0.2585726
000210 8c bf 3f 3e 8b 7a 25 3d 77 ae 7b 3e 71 8d ea bc
       0.18725413 0.04040007 0.24578272 -0.028631898
000220 b9 16 b1 3d ef 84 a3 3e cb 78 70 be 14 6b ee 3e
       0.08646912 0.31937358 -0.23483579 0.4656607
000230 84 83 ef 3d 6e 06 51 3e 5a 27 98 3d e4 4e d8 3d
       0.116950065 0.20412609 0.07429381 0.10561922
000240 fd 1e b1 be 17 e4 1d be 07 a8 43 be c6 a4 b0 3e
       -0.34593955 -0.1541904 -0.19107066 0.34500712
000250 0e df 22 3d 88 a1 38 be 12 d5 f1 3e 40 36 0e be
       0.039763503 -0.1803037 0.47232872 -0.13887882
000260 08 52 ee 3c a4 ac 23 3e 37 9a 0a be dd 84 36 3f
       0.02909185 0.15983826 -0.13535391 0.71296483
000270 92 34 6c 3e 14 ae 8d bd 7f 04 19 be c4 53 37 bf
       0.23066929 -0.069179684 -0.14943121 -0.7161219
000280 64 6c 7c 3e 4f 7c 1c 3e 01 c0 15 3e fa 2f 9f be
       0.24650723 0.15281795 0.14624025 -0.3109129
000290 ea 86 0f bd 83 5d e0 3d f0 bd 5b bf b7 ab cc bd
       -0.035040773 0.10955336 -0.85836697 -0.099936895
0002a0 df 4b 28 be c0 e5 44 be 5c e8 37 3e 7c e9 42 be
       -0.16435193 -0.19228268 0.17959732 -0.1903438
0002b0 16 5f 4a 3e 1e 5c 34 bd 75 0f 97 be 8c 96 90 3f
       0.19762835 -0.044033162 -0.2950398 1.1295943
0002c0 7d 5b b6 3c 5f 4c 02 bf 93 79 f0 bd 05 8d a5 bd
       0.022260422 -0.50897783 -0.117419384 -0.08083538
0002d0 d9 9c d1 3e b1 87 f8 3d a1 3e cc bd 21 1d bf be
       0.40939978 0.12135256 -0.09972883 -0.3732691
0002e0 80 2f 99 bd ee 2e a3 3e ab 26 8f 3e 45 c7 20 3e
       -0.07479763 0.31871742 0.2795919 0.15701015
0002f0 27 77 e7 3e e7 29 2c bf 40 82 f7 bc 57 df 99 be
       0.45208094 -0.6725144 -0.030213475 -0.30053207
000300 54 d7 3b be a4 fc 8c 3e 4a ab c6 3e ce 2c a8 3e
       -0.1834386 0.275365 0.38802558 0.32846683
000310 e5 fc dc bd be df ec be 49 fd 72 3e 5c b2 6b 3e
       -0.10790423 -0.46264452 0.23729433 0.23017257
000320 67 56 2b bd 40 23 c2 be 71 21 10 be c4 f2 0f be
       -0.041830447 -0.3791752 -0.14075257 -0.14057451
000330 40 a2 46 be 9c 5e 27 3f be 2d 6d be a5 af 65 be
       -0.19397831 0.6537874 -0.2316198 -0.22430284
000340 29 c7 37 be 53 02 03 3e 7f cc ad 3c 6a 7c 21 bf
       -0.17947067 0.12793855 0.021215675 -0.63080466
000350 01 d9 e0 3e fa 5d e6 be d3 71 ce 3d 4c 1a 5f bd
       0.4391556 -0.44993573 0.10080304 -0.054468438
000360 cb 01 94 3d 2d 1e bb 3d df 4d 1b 3d 07 b4 68 bc
       0.072269045 0.09136615 0.03791606 -0.014203078
000370 64 7c e2 3c af 39 0f 3f 6a 86 64 be d5 6c 94 bc
       0.027647205 0.55947393 -0.223169 -0.018118301
000380 5e 74 96 3e ae d9 bf 3e af 68 2b bf 23 ac e9 3e
       0.29385656 0.37470764 -0.6695661 0.45639142
000390 b5 a7 d9 be d6 72 9d bd fd 80 44 bc c2 0d e3 3e
       -0.42510763 -0.07687919 -0.011993644 0.44346434
0003a0 32 fb a7 3d c7 2a 09 3d c8 ee 1e bf 87 2f 9f 3c
       0.082022086 0.03348806 -0.620831 0.019431842
0003b0 ec d3 83 be a6 53 23 be f3 64 e2 be 2d fa 19 3f
       -0.2574762 -0.15949878 -0.44217643 0.6014736
0003c0 65 cf 1e 3e f0 48 4f 3d fc d0 a0 3e ae 27 6c 3e
       0.15508802 0.050606668 0.31409442 0.23062012
0003d0 3c 8f 22 be f6 ab 46 3e 20 06 c6 be eb 73 24 3e
       -0.15874952 0.19401535 -0.38676548 0.16059844
0003e0 55 5e 93 3e 50 a7 ac be 63 33 16 3f da 6c e6 3e
       0.28782907 -0.337214 0.5867216 0.45004922
0003f0 aa 9c 08 bd b2 ca 04 3b d1 ec 48 be 49 16 ce 3e
       -0.03335253 0.0020262417 -0.19621588 0.40251377

gnn_base.gnn.gnn1.lin_skip.bias f4 [16]
000000 8f 15 46 be 6e 7e 3f 3e 18 16 cd bd e5 79 72 be
       -0.19344161 0.18700573 -0.1001398 -0.23679312
000010 6d 55 8d 3f e8 0c 33 3e ff 49 ce 3d d5 54 00 3f
       1.1041695 0.17485392 0.100727074 0.50129443
000020 f5 33 7f be ef d9 3c bd 1f b1 78 bd 19 a7 9f bc
       -0.24922164 -0.046106275 -0.06071579 -0.019488858
000030 9f 28 a7 be 80 d4 39 3e 5f f9 63 3d 9c 52 d3 bd
       -0.3264818 0.18147469 0.05565774 -0.10318491
