onpolicy/trained_models/obs01-20250316_062932-xovttk5l/files/critic.pt (torch, 196922 bytes, 57 tensors)

gnn_base.gnn.embed_layer.layer_norm.weight f4 [16]
00000000: c7a9 6b3f 4481 553f 8301 8e3f e8e9 633f
00000010: 3ef3 3e3f d48b 6e3f 2789 8c3f f088 1b3f
00000020: b10f 9b3e e016 b33f 3a83 403f 4523 513f
00000030: dd60 933f 4aa8 793f fc56 363f 9648 853f
0.92055935 0.8340037 1.1094211 0.8902879 0.7458991 0.9318211 1.0979356 0.60755825
0.3028541 1.3991356 0.75200236 0.8169444 1.1513935 0.97522414 0.7122648 1.0412776

gnn_base.gnn.embed_layer.layer_norm.bias f4 [16]
00000000: fc73 65be 18de 4c3c f443 0c3e 597c 06bc
00000010: 1136 f7bd ad89 083e b06d 8abd 1c16 a2bd
00000020: 9f4d 96be 339b d83d bb11 013e 5784 4c3d
00000030: cfe6 3a3d 9e0d 9dbd 4f47 133e 4178 1a3e
-0.22407526 0.012504123 0.13697797 -0.008208358 -0.12070859 0.13333769 -0.067592025 -0.07914373
-0.29356095 0.10576477 0.1260442 0.049930897 0.045630272 -0.07668613 0.14382671 0.15084936

gnn_base.gnn.embed_layer.entity_embed.weight f4 [3, 2]
00000000: e44c 683f 2d60 88be f190 b5be 9fb3 ab3d
00000010: d9b1 433f 20ea a0bf
0.90742326 -0.26635876 -0.35462144 0.083838694 0.7644325 -1.2571449

gnn_base.gnn.embed_layer.lin1.weight f4 [16, 9]
00000000: b168 4e3d bb7d f8bd dead 4c3f 3a83 16be
00000010: bb7b 4bbf 2a5b 193e 9fcf 523e 3e95 f4be
00000020: 8ead 1b3f 7411 93bd 4f07 b3be bfa9 1ebf
00000030: 4945 50bd a966 2d3f 902c df3d 3053 ba3d
00000040: 0377 40bf 2925 d1bc 0329 f2bd 963a f4bc
00000050: 56f6 47bf 6827 593e c7a9 493f 9546 62be
00000060: 28ee d73e 7f23 de3e 8bf5 423f eed5 8dbe
00000070: c4c6 7d3e 69ab c03d 4755 9e3c 82a1 1abd
00000080: b391 f53a cbd8 06bf 8096 24bf 3c82 aebf
00000090: ac8e 83bd 7f23 9abd 3678 853c 4a5f e3bd
000000a0: 5ab7 f63c bcc5 933d 8207 f0be 24c1 b73e
000000b0: 7670 063f eb0d 77be 9935 583e 83fd de3e
000000c0: 622f be3d 1cd7 febe f54c 05be c0f8 6d3e
000000d0: 0da1 12bf 4ad4 c53d 1f62 323c 9551 d63d
000000e0: 9ebb 92be 50b9 543f defa 8d3e 5407 5dbf
000000f0: 1cc2 eabe 8ef3 aa3e d6f3 583f 34b4 6dbe
00000100: 7bf1 803e f18b 45bf 5e45 5fbf 9084 393f
00000110: 3bd5 6a3f f5c0 81be d796 0cbf 04f3 7b3d
00000120: 7ef2 c9bd cfa4 12be 208c 853e 7068 60be
00000130: 18fe 29be 15d1 6e3e 445e 0ebf 4cc5 ed3e
00000140: 9775 623f acb3 5a3b 05b9 ff3d 1c3b d33e
00000150: 89d1 b93f 8dee debe 750b b7bf 9712 b03e
00000160: c387 773e 44fd 50bd 769f 153e 5761 2cbe
00000170: dd76 45be 1000 753e 3749 9cbe 20b8 11bd
00000180: f7ed 0d3e e224 b8bd aced e73d 5494 fcbe
00000190: c6c4 3f3e 7730 32be 09a5 303e f18d 743e
000001a0: 30a1 edbd f81a 87bc 153e 0fbe 5a52 8abd
000001b0: dc6e edbe 9307 e13e e560 493e af32 b3be
000001c0: a72d 63be b4b1 b13e 745d 5abe 4596 1d3f
000001d0: 0064 bdbf 7414 9c3d ad29 aa3e f4ae f7be
000001e0: 555e 46be f137 e73e 99b3 663e 2c1a 1e3f
000001f0: 05d3 26be e515 673e b2cb 14be a0a5 c03d
00000200: dd22 efbd 8141 913e 6979 3e3e 2bb8 2e3e
00000210: 7810 433d bacf 89be 0925 b6be 41f7 673d
00000220: c4cd 12bc 9bff e03e f1d9 9fbd 75bb d3be
00000230: 6f4d ce3d ed62 04be fc58 a0be a702 603f
0.05039281 -0.12133356 0.799528 -0.14698496 -0.7948567 0.14976183 0.20587014 -0.47770113
0.608117 -0.07181063 -0.34966514 -0.6197776 -0.050847325 0.6773477 0.108971715 0.09097898
-0.751816 -0.025530415 -0.118242286 -0.029813092 -0.78110254 0.21206439 0.78774685 -0.22097237
0.42173886 0.43386456 0.7615592 -0.27702278 0.24782854 0.09407694 0.019327773 -0.037751682
0.0018735438 -0.5267455 -0.64292145 -1.3633494 -0.06423697 -0.075263016 0.016292673 -0.11102159
0.030116726 0.07215449 -0.46880728 0.35889542 0.5251535 -0.24126403 0.21114196 0.4355279
0.09286381 -0.4977349 -0.13017638 0.23239422 -0.57276994 0.096596316 0.010887652 0.10464779
-0.28658766 0.83095264 0.2773046 -0.86339307 -0.4585122 0.33388942 0.84747064 -0.23213273
0.25184235 -0.7716666 -0.8721522 0.724679 0.91731614 -0.25342527 -0.54917663 0.061511055
-0.09860705 -0.14320682 0.2608347 -0.2191484 -0.16600835 0.23321946 -0.5561259 0.46439588
0.8846068 0.0033371253 0.124864615 0.41256034 1.451707 -0.43541375 -1.4300371 0.34389183
0.24172883 -0.051022783 0.14611611 -0.16834007 -0.19283624 0.23925805 -0.30524608 -0.035575986
0.13860308 -0.0899141 0.11324629 -0.49331915 0.18727407 -0.174013 0.17250456 0.23882271
-0.1160301 -0.016492352 -0.13988526 -0.067539886 -0.46373641 0.4395109 0.19665869 -0.34999606
-0.22185384 0.3470589 -0.21324712 0.6155742 -1.4796143 0.076210886 0.3323492 -0.48375666
-0.19371922 0.45159867 0.22529449 0.61758685 -0.16291435 0.22566946 -0.14530829 0.094065905
-0.116765715 0.28370288 0.18601002 0.17062442 0.047623128 -0.26916295 -0.3557513 0.056632284
-0.008960191 0.43945011 -0.07805241 -0.41353956 0.10073363 -0.12928362 -0.3131789 0.8750405

gnn_base.gnn.embed_layer.lin1.bias f4 [16]
00000000: da75 a4bc b502 86bc 7d71 3bbd 9118 0f3e
00000010: 64a2 05be 4b02 713b 75cd a0bd f784 5f3c
00000020: 18cf 43be 4319 283d 00dc bebe bc8b 4bbe
00000030: e6e2 3c3e 3bf6 aa3c 4336 acbe 6486 393d
-0.020075727 -0.016358713 -0.045762528 0.13974215 -0.13050228 0.0036775048 -0.07851688 0.013642541
-0.19121969 0.041039716 -0.37277222 -0.19877523 0.1844593 0.020869365 -0.33635148 0.04529418

gnn_base.gnn.embed_layer.layers.0.weight f4 [16, 16]
00000000: 5e1c 3f3e 14d4 e5bd 63bf 813e 533e 21bf
00000010: 024c d93c bcad 5cbf 6869 763e ace8 2dbe
00000020: 12f0 4c3e e2a9 ae3d ab71 b73d 5626 bbbc
00000030: 19a0 00bf 9f0e 6dbf ec68 31be c037 1f3e
00000040: 4342 363e c949 04bf e507 76bf b2f2 c4bd
00000050: 9911 a4be d78e 9dbc 4fd1 64bf 5abf 683e
00000060: d40b 6b3e 6577 b83b b98a 113d 9fd2 d03e
00000070: 503d a3bd 899a 123d 857e a0bd 89ad 653e
00000080: 242d 85bf 5333 a43e 86e8 863f 83aa 91ba
00000090: d715 9c3d d35e fabe 1c3f 693d dc13 953f
000000a0: 7365 893e e371 94bd 6b73 4a3e df14 bb3d
000000b0: 551b 9dbe c73c 243e d59f 193c 9bf5 15bf
000000c0: d472 a4bd a48a 49be aae9 4f3f 4e07 863d
000000d0: 398f 4c3e 4a8c a23d e03a dfbe d87d 5ebf
000000e0: 7397 fe3d c28f 2b3d a91e 5b3e 5b6f 8d3e
000000f0: f682 e9bd ea9e 60be 31a0 b6be 39db b73e
00000100: 594e 91be 08cc 593e a0d5 bc3e 9c9c 38bf
00000110: e535 043f c134 11bf 4fd2 cb3e 6eb8 8abe
00000120: e284 793f b820 a83e f332 d63e fc73 0d3e
00000130: f633 9cbe d7fb fd3d e5da d23d 4417 363e
00000140: 6523 08bf 4038 913e ff8a e43e f1d0 703f
00000150: 92c2 eebe d638 c5be 6724 963e e046 cfbe
00000160: 514a b03c cc25 1f3e 5abc f23e bdbf e23d
00000170: 98e4 843f ac16 d5be 33d4 2f3e c028 5ebf
00000180: 8a85 97bc 30d0 143f f4b5 63be ddad ec3e
00000190: a6bb 893c 3528 fb3e fb22 23be b049 843e
000001a0: 3aa9 32be 3251 53bf 13bd 4d3e eb31 d53e
000001b0: 34a4 62be 661a b4be 2ef5 3a3b da53 d2bd
000001c0: 6633 2d3e 7dd2 56bf 1dc7 d1be eb02 7abf
000001d0: 6ec6 5f3e 8112 483e 8023 653f 4372 8abe
000001e0: bd90 3d3f 3e05 973e a384 ad3e dcf1 23be
000001f0: a89e b6bf 44b7 3cbf 99df 4bbe c430 e13e
00000200: 0665 953f c90d 603e 162e 0dbf 5e84 df3e
00000210: 2d62 a0bd 923a f83e d5ca 03bd 8687 1e3e
00000220: 2ffc 9e3d 8a9c 17bf 90da 903e 9add 693d
00000230: 9313 6a3c 725b 673e 9c0f 18be 0993 043f
00000240: 101a 24bf 0013 19bf 1fe7 0abf 29ab d4be
00000250: 4fcc 443e 816d 893c 9a23 623e da97 c0be
00000260: c6fd 5b3e 0316 a13c 5fee 4d3e 86f0 9b3e
00000270: c628 1fbd 13a8 a5be 05cc 063e 2de6 c53d
00000280: 3f74 68be 5adb 97be 6d2e db3e dc95 57be
00000290: 54bf 783e af11 a3be 57a9 0a3f a4cc 593f
000002a0: 89ac 39bf c2c6 9a3f 05b5 f7bd a1d9 383d
000002b0: 25b1 c1bc eaf3 5cbe 8b99 0fbe 2826 bbbe
000002c0: db8a 633e 9762 383e 0a53 a03d d0fb a43e
000002d0: a088 98be 4892 173f a88e 14be 5e7e 9dbe
000002e0: 9869 f13d ae1a 4d3f 9462 f33c bfbe 913e
000002f0: ad6d 713e d684 4cbf 7c29 1b3d 33e0 853e
00000300: 6b16 bcbd c770 0bbe 8797 7fbe 796a 003f
00000310: 1f99 243e a760 ebbe 2ab8 f6be 468f 83be
00000320: b18d 64be b0af 183e 94e6 2b3f 54fc d73d
00000330: 0610 25be bcb6 9ebd d5c3 b03e dbcc 49bd
00000340: 1e7c 7b3d 655d babe c700 d43e d7f4 b7be
00000350: 8969 cebe 3114 6d3d 339f 09bf 745c 65be
00000360: ebd2 273e d965 0c3d 3202 d33d c13a e7be
00000370: aed6 79bd 8046 2ebd 5b43 ffbd 9242 24bf
00000380: 3406 e73e 17f2 a9be 8cb0 07bf 41f0 1f3e
00000390: fc34 d53e 32a6 ea3e cc39 60be 5e7c a4bd
000003a0: b4b5 b33e 67d0 e23e 4487 e03e 985e 31bf
000003b0: 1013 313f a425 7ebe 27e8 ef3d 3b5e a63d
000003c0: b121 053e 9460 e13e 8740 0cbf c7ca ec3e
000003d0: 972d d93e 169d 8d3e 1c1d ab3d a25a 9abe
000003e0: 235e 663e 5551 bb3e d691 b33d 7859 aa3e
000003f0: cb87 1dbe bbcf 973e 04fd 163e 56c8 f5bf
0.18663165 -0.11222091 0.2534133 -0.62985724 0.026525501 -0.862026 0.24063647 -0.16983289
0.20013455 0.08528496 0.08957227 -0.022845428 -0.5024429 -0.92600435 -0.17325181 0.1554861
0.17798714 -0.5167509 -0.96105796 -0.09616603 -0.32044676 -0.01923315 -0.8938188 0.22729245
0.22953731 0.0056294673 0.035532687 0.4078569 -0.07970679 0.035791907 -0.07836632 0.2242948
-1.0404401 0.32070407 1.053971 -0.0011113439 0.07621353 -0.4890047 0.05694495 1.1646686
0.26835212 -0.07248285 0.19770591 0.0913484 -0.30684915 0.1603881 0.009376486 -0.5857789
-0.08029714 -0.19681793 0.8121592 0.06544362 0.1997651 0.07936914 -0.43599606 -0.8691077
0.124312304 0.041885145 0.21398415 0.2762402 -0.11401932 -0.21935621 -0.3566909 0.3590944
-0.28380087 0.21269238 0.36881733 -0.72113967 0.51644737 -0.5672112 0.3980889 -0.27093834
0.9746839 0.32837462 0.41835746 0.13813776 -0.30508393 0.1240155 0.10295657 0.17782313
-0.5317901 0.28363228 0.44637296 0.9406882 -0.4663282 -0.38519925 0.29324648 -0.4048376
0.021519812 0.15541762 0.47409326 0.110717274 1.0382261 -0.4161886 0.17170791 -0.8678093
-0.018496294 0.5813017 -0.22237378 0.46226397 0.01681311 0.49054113 -0.15931313 0.2583747
-0.17447367 -0.8254577 0.20091657 0.41639647 -0.22132951 -0.3517639 0.0028527486 -0.102699
0.16914138 -0.8391493 -0.40972224 -0.976607 0.21853039 0.19538309 0.89507294 -0.270403
0.7404898 0.29496187 0.33890256 -0.16010231 -1.4267168 -0.7371714 -0.19909514 0.43982518
1.1671455 0.21880259 -0.55148447 0.43655676 -0.078312255 0.48482186 -0.032175858 0.15481386
0.07762944 -0.59223235 0.2829175 0.0570961 0.014286893 0.22593477 -0.14849705 0.5178686
-0.6410227 -0.59794617 -0.5425891 -0.41536835 0.19218563 0.016775848 0.22083893 -0.37615854
0.21483526 0.019663816 0.20110463 0.30456942 -0.038857244 -0.32354793 0.13163765 0.09663043
-0.22700594 -0.2965954 0.42808858 -0.2105326 0.24291736 -0.3184943 0.5416464 0.8507788
-0.7252889 1.2091906 -0.120950736 0.045129422 -0.02364404 -0.21577421 -0.14023416 -0.36552548
0.22220938 0.18006359 0.078283384 0.32223368 -0.29791737 0.5920758 -0.14507544 -0.30760473
0.117877185 0.80118835 0.029710092 0.2846584 0.23576994 -0.7989019 0.03788136 0.26147613
-0.091839634 -0.1361724 -0.24960147 0.50162464 0.16074036 -0.45972177 -0.4818738 -0.25695246
-0.22319676 0.1491077 0.6714871 0.10546175 -0.16119394 -0.077496976 0.34524408 -0.04926763
0.061397664 -0.3639938 0.41406843 -0.35928985 -0.40314892 0.057880584 -0.53758544 -0.2239855
0.16389053 0.034276817 0.10303153 -0.45162013 -0.06099575 -0.042547703 -0.12464019 -0.6416408
0.4512192 -0.33192512 -0.53003764 0.15618993 0.41641986 0.45829922 -0.21897048 -0.08031534
0.35099566 0.44299623 0.438532 -0.69284964 0.6916971 -0.24819046 0.117142014 0.08123442
0.13001134 0.44018996 -0.5478596 0.46248457 0.42417595 0.2765891 0.083551615 -0.30147272
0.22496848 0.3658549 0.087680504 0.33271384 -0.15383832 0.29650673 0.14744955 -1.9201763

gnn_base.gnn.embed_layer.layers.0.bias f4 [16]
00000000: 6ac3 0f3d 5246 90bd 5bc1 85bd 53fa 00be
00000010: 94ba e7bc afd1 15bd a959 debe da7e 84be
00000020: 9fd1 44be a100 313d 4764 72bc 5988 e7bd
00000030: d29d e2be 4cb7 1d3b e6b0 543d dbc3 053d
0.03509847 -0.070446625 -0.0653102 -0.12595491 -0.02828721 -0.036576923 -0.4342778 -0.2587803
-0.19220589 0.04321349 -0.014794416 -0.11305303 -0.44261032 0.0024065552 0.051926516 0.032657485

gnn_base.gnn.embed_layer.layers.2.weight f4 [16]
00000000: c7a9 6b3f 4481 553f 8301 8e3f e8e9 633f
00000010: 3ef3 3e3f d48b 6e3f 2789 8c3f f088 1b3f
00000020: b10f 9b3e e016 b33f 3a83 403f 4523 513f
00000030: dd60 933f 4aa8 793f fc56 363f 9648 853f
0.92055935 0.8340037 1.1094211 0.8902879 0.7458991 0.9318211 1.0979356 0.60755825
0.3028541 1.3991356 0.75200236 0.8169444 1.1513935 0.97522414 0.7122648 1.0412776

gnn_base.gnn.embed_layer.layers.2.bias f4 [16]
00000000: fc73 65be 18de 4c3c f443 0c3e 597c 06bc
00000010: 1136 f7bd ad89 083e b06d 8abd 1c16 a2bd
00000020: 9f4d 96be 339b d83d bb11 013e 5784 4c3d
00000030: cfe6 3a3d 9e0d 9dbd 4f47 133e 4178 1a3e
-0.22407526 0.012504123 0.13697797 -0.008208358 -0.12070859 0.13333769 -0.067592025 -0.07914373
-0.29356095 0.10576477 0.1260442 0.049930897 0.045630272 -0.07668613 0.14382671 0.15084936

gnn_base.gnn.gnn1.lin_key.weight f4 [48, 16]
00000000: d8fd 39be db67 e8be c3c5 8b3d d1ed bebc
00000010: 2ef9 f93d 0e41 b1be 780e f33e c1e3 a9bd
00000020: fefc 7e3e 6428 e73d f0ee 5c3d 27b9 903c
00000030: 1f90 023e 58ed ccbd 8dab d8bd 4938 943e
00000040: 6f79 7a3e 0128 5f3e bb84 46be dee6 903b
00000050: 7d6d ab3d db6d 763e e60b ad3d 608c babe
00000060: 1ed4 303e f6f8 213e f770 933e c75d a63e
00000070: dc4d 62be 61b1 9a3c edf7 a3be ee99 303e
00000080: 70ee 85bd abcd ab3e 7217 8e3d fdf9 49be
00000090: 5878 d83c 1817 aabd bace 043e cdb2 d03e
000000a0: e71f 01be ba63 16be e3d6 85be 1884 d73d
000000b0: 9507 c03e e0b7 bdbe 6b58 dcbe 958e 9abd
000000c0: fd1a 05be 87da 2d3e 5b33 643e c7e6 80be
000000d0: f247 0bbe 853e 983d 2456 f13e 06ef 413e
000000e0: 4e31 a8be 06a7 47bc f9e3 01be c05d a1be
000000f0: f760 233f d182 2cbf d502 0abe 1363 1f3d
00000100: bffa 453e 23bd ddbd 8435 8bbe d39d 9abe
00000110: 0ae3 453d 6b64 6fbd f86f 12bd a166 2f3d
00000120: 05de 673e d1c3 983e 3074 8f3d d4a6 453d
00000130: 35ef 0a3e 89cc 6d3d b60b d0be d63b f83d
00000140: 7048 b1bb 76d5 623d ada3 24bd 426a 25be
00000150: 5aec 76be e483 b83d 0656 a4be 2eaa dc3d
00000160: a58c 41ba 2e98 1bbe b2b7 403e e492 51bd
00000170: 0974 3ebe d62a b23e a9a7 583e d93a 3abe
00000180: b600 b03d a38f 553e a5b2 efbc 7598 123e
00000190: d8a5 ab3e 8e9f 10bd 6015 463e 95c9 a53c
000001a0: be1d 10be 675f a4be 9c11 2abe 731e 09be
000001b0: ad11 073f 510f 31be 4024 fc3d 7722 173f
000001c0: 0e70 a63e c78f 393e 4418 533d 38b9 41bd
000001d0: 16e3 de3e 6247 4a3e e5dc 54be 933c 34be
000001e0: f7d7 8c3d 1290 28be bede 4abe c8af 963e
000001f0: 4fae d2bd aa25 c93d 3dba 4cbd 6e20 d3bd
00000200: 70cc 963e 4f49 a43e 3e17 a43c b7e9 843e
00000210: be5a 943b fd8e 4ebe e5b9 0bbe 5ddf 60be
00000220: 736b ba3e cbb4 063f a213 52be c36a 423e
00000230: 6e34 ebbd 6872 4c3e 4725 10be 72c2 8abe
00000240: 27f4 e13d 6c15 263e c4a0 a03e 6050 473e
00000250: f92a a2be 5210 86be a81e f6bd 0ea4 0dbe
00000260: 69d0 393d 45f0 4d3e 6489 39be 33e4 433e
00000270: f9eb 99be dcd8 063e 4c35 c83d 9389 873e
00000280: ae70 d43d fec9 95bd 84a6 e6bd fa3c 373d
00000290: 54c5 ee3c fddc f3bd 5abf d2be 8d49 2dbe
000002a0: 9d65 c73e 70c7 893e 8027 2abe a350 923d
000002b0: d8b8 50be a686 dd3e 0ea0 00be 79d1 b0be
000002c0: e809 33be 37e1 c7be b685 b0bc f8d0 213d
000002d0: 2f4e b13d 7652 f4be 9384 863e d227 52be
000002e0: 856c 5ebc 984d 1bbc 5aa8 b2bd 7261 51be
000002f0: 7d0d d33e 67ce d5bc 531a 2bbe 030b e6be
00000300: 09ab 623e 0576 0a3e e596 07be 874b 57be
00000310: c9cd 0abe 1c8c 02be 3db4 aeba b28b 0c3d
00000320: 62dc 033e dabf b9bb 94bd 80bd 8397 bdbd
00000330: fa70 8cbe 62f6 de3d b407 99bd 3611 7dbe
00000340: d0fd 16be b5e7 183d 1710 77be f63c 39bc
00000350: a1f4 773d 94a8 b63e ec50 1d3d 41bf 803e
00000360: 8247 87bd 55c4 7e3c cb28 00be b2bc d9be
00000370: ea24 d23c 0e1f a6bd 569d 373e 3d52 1fbe
00000380: 3c83 67bd 6188 1d3c 733b 403e 5123 d73a
00000390: c235 87bd 4f09 b23d 9135 20bc 58be 82be
000003a0: 8152 033e ca25 9e3e 19f0 bbbe 9a45 d43e
000003b0: 2a61 4bbe fda1 a93e c7e6 8cbd 6b1d 8ebd
000003c0: 2010 2abe a277 993e de84 66bd a9ce 2cbe
000003d0: b788 6abe 5aef 35be bb8e 06bf e7a3 46bd
000003e0: 30d3 fb3d 6182 843d a182 6a3c a34e 3b3e
000003f0: 41f1 fdbd 388c e73e f936 46be 19b7 c23e
-0.1816324 -0.45391735 0.068248294 -0.02330676 0.122057304 -0.34619945 0.47471976 -0.08295394
0.24901196 0.11287001 0.053938806 0.017666413 0.1275029 -0.10006207 -0.10579596 0.28949192
0.24460386 0.21792604 -0.1938657 0.0044220528 0.083704926 0.24065344 0.08449535 -0.36435223
0.17268416 0.15817627 0.28797123 0.3249342 -0.22100013 0.018883409 -0.3202509 0.1724622
-0.06539619 0.3355535 0.069380656 -0.19724269 0.026424572 -0.08305186 0.12969485 0.40761414
-0.12609826 -0.1468648 -0.26140508 0.10523242 0.37505785 -0.37054348 -0.43036208 -0.075467266
-0.12998576 0.16977893 0.22285216 -0.2517607 -0.13601664 0.074338 0.47136033 0.18938836
-0.32850116 -0.012185818 -0.12684621 -0.31516838 0.6381983 -0.6738711 -0.13477643 0.038912844
0.19333933 -0.108270906 -0.27189267 -0.30198535 0.048312224 -0.058445375 -0.035751313 0.042822484
0.22643287 0.29836896 0.07004583 0.048254803 0.13567813 0.058056388 -0.40633935 0.12120788
-0.0054102466 0.055379353 -0.040195156 -0.16153815 -0.24113598 0.09009531 -0.3209688 0.10774647
-0.00073833234 -0.1519477 0.18820074 -0.051165476 -0.18598951 0.34798306 0.21157707 -0.18186511
0.085938856 0.20855574 -0.029259989 0.1431597 0.33524966 -0.035308413 0.19344091 0.020237723
-0.14073846 -0.32104036 -0.1660828 -0.13390522 0.52761346 -0.17290999 0.12311602 0.59036964
0.32507366 0.18121253 0.051536813 -0.04729578 0.43532628 0.19753793 -0.2078739 -0.17601232
0.068771295 -0.16461208 -0.19811532 0.29430985 -0.10287153 0.09821637 -0.0499823 -0.1030892
0.29452848 0.3208718 0.020030614 0.2595956 0.004527419 -0.20171733 -0.13645132 -0.21960206
0.36410102 0.5261962 -0.20515302 0.18986039 -0.114846095 0.19965518 -0.1407672 -0.27101475
0.110328965 0.1621911 0.31372654 0.19464254 -0.3167341 -0.26184326 -0.12017566 -0.13832113
0.04536477 0.20111187 -0.18118817 0.1913002 -0.30062845 0.13168663 0.097757906 0.26472148
0.103730544 -0.073139176 -0.11262229 0.044735886 0.029146828 -0.119073845 -0.41161615 -0.16922589
0.38944712 0.2690997 -0.1661663 0.071442865 -0.20383012 0.4326679 -0.12561056 -0.34534815
-0.17484248 -0.39039013 -0.021548133 0.03950593 0.086574905 -0.47719163 0.2627302 -0.20523003
-0.013575678 -0.009478949 -0.08723517 -0.20447329 0.41221228 -0.026099397 -0.1670926 -0.44930276
0.22135557 0.13521583 -0.13241155 -0.21024905 -0.13555063 -0.1274876 -0.0013328862 0.03431291
0.12877038 -0.0056686224 -0.06286159 -0.09257414 -0.27429944 0.108868375 -0.074721724 -0.24713597
-0.1474526 0.037330348 -0.24127232 -0.011306038 0.06053603 0.3567549 0.03840725 0.25145915
-0.06605436 0.015549739 -0.12515561 -0.42526776 0.025652368 -0.08111392 0.17931113 -0.15558715
-0.05652164 0.009615035 0.18772678 0.0016413723 -0.0660205 0.08693182 -0.009778396 -0.25535846
0.12824441 0.30888206 -0.36706617 0.41459352 -0.19861284 0.331314 -0.06879955 -0.06939205
-0.16607714 0.29974085 -0.056279056 -0.1687571 -0.22903715 -0.17767087 -0.5256154 -0.048496153
0.1229614 0.0647018 0.014313371 0.18291716 -0.12399531 0.45224166 -0.19356908 0.38030317

gnn_base.gnn.gnn1.lin_key.bias f4 [48]
00000000: 72fd 13be 4e6a b63d e443 9f3d e588 22bd
00000010: fde4 5abe 7a83 5cbd eaab 603d 205b c83d
00000020: 8669 98bd d624 7e3d dd1e d3bc 5444 013e
00000030: f910 2fbe ce19 5d3e 74a0 54bd dbcb 0dbe
00000040: 58d6 463d f141 2abd 7048 70be b367 463e
00000050: 8697 5d3e ffc4 b13c 65c8 dbbd 6d7c a73b
00000060: af83 08be 0014 703e da07 52be 0baa c73d
00000070: c47d 8c3d bfbd b23d 7782 33be f930 7dbe
00000080: 9878 173e eb2c 47be dd3c 7abe 650f ff3d
00000090: 2c51 ef3d ee71 50bd 5ebe 4fbc 9183 b63d
000000a0: f709 833c 3cec 8fbd 8305 9d3d d3d8 4d3e
000000b0: 6489 ad3d cbc5 e7bd fbad 5b3e 84fd 273e
-0.1445215 0.08906995 0.07776621 -0.039681334 -0.21376415 -0.053836323 0.05485145 0.09783006
-0.07442002 0.06204685 -0.025771553 0.12623721 -0.17096318 0.21591875 -0.051910833 -0.13847296
0.048544258 -0.041566793 -0.23465133 0.19375496 0.21639833 0.02170038 -0.107315816 0.0051112683
-0.13331483 0.2344513 -0.20510808 0.0974923 0.068599254 0.087275974 -0.17530237 -0.24725713
0.14792097 -0.19450729 -0.2443728 0.12454108 0.11685404 -0.0508899 -0.012679664 0.08911813
0.015995963 -0.0702748 0.07667067 0.20102243 0.08473471 -0.11317023 0.21453087 0.16405302

gnn_base.gnn.gnn1.lin_query.weight f4 [48, 16]
00000000: b112 7f3d 053e 9dbe 34ab 8e3d edb7 e2bc
00000010: d0a0 8ebe 33e4 31be 8d92 8f3e 0ac4 dd3d
00000020: ce18 cf3d c962 353f 5251 933e 54ec fb3c
00000030: c703 e63d d1d2 6bbd 2efa edbd 5ece 053d
00000040: 6090 cbbd bcc4 dd3e 728b a9be 5637 60be
00000050: 71f6 113e c924 98bd 6ff4 a43e fc5e 5ebd
00000060: b8bb 06be fe96 7abe 988a e2bd 8f64 923e
00000070: d9df 26be 120f f33d b5e1 16bd dce4 1d3d
00000080: c742 0fbc d88c 263f 159a 4e3d b44e 09be
00000090: 792d 2e3e 31c1 29be 88a5 47bf a782 89be
000000a0: 301f fdbd 6713 f4be a191 433d 8f18 d33e
000000b0: 077f 753e c471 d13e 0d24 2d3e 26be 2a3f
000000c0: 3df4 0abd 4956 36be e44e bdbd d91c 393e
000000d0: a290 eabe 2e77 9c3e b8e7 243e dd54 5bbe
000000e0: b43e e7bd e235 003f 2f5b dbbd c035 01be
000000f0: dea5 f4be c4b8 c6be 6547 a33e e586 7f3e
00000100: 42a0 133e 65c0 82be 07aa 83be e762 b6bd
00000110: a626 37be 1ce6 60be 74ee 413e 094c 893e
00000120: bc8c 363e eae8 fe3e 959c 92bc 0744 ffbe
00000130: 30e3 cbbe 1baa cdbe f778 22bd a0a6 4ebd
00000140: b614 f8bd d7c1 573e 2d59 6abe 0cb8 ccbd
00000150: 626d ee3e 05ad f63d 9a70 e5bd 0a0a 23be
00000160: b324 8dbd 0bf0 d9be a166 9c3d 0cd4 b33d
00000170: 47de a33e 3cd6 e93d e829 dfba 3c18 0dbe
00000180: 379d 363d fdad 24be 8155 80be 0b52 9a3e
00000190: cd29 0abf 1bde 033f 9173 0dbe 8889 52be
000001a0: 5001 9abd 5f8e 373f 0e14 87bd eab1 a2be
000001b0: 10a9 9bbd 3841 cb3d e435 0f3e 1043 a6be
000001c0: 6890 0c3f 9b66 e1bd 89ce 54be 6c79 7fbd
000001d0: e86b 5d3e 6def 153e 389f 48bc 3e12 903d
000001e0: 21d5 853d 344f b13e a456 13bf 60d8 d3bd
000001f0: 1155 e4be 2dfd 0d3d e61a 613e dd22 9dbe
00000200: 4306 693d f8aa 923e bb0b 16bc 0377 913e
00000210: 6124 82be e6c5 49bf 0344 b53d efe6 763e
00000220: ac4b b83c d36d dcbe 2e2c fa3d 7e01 193e
00000230: c427 513e 7fd9 153f 79e0 9cbe 963b c43e
00000240: 0c23 243e a14b 98be c024 463e a87f ac3e
00000250: 4625 b3bd f830 47be 2475 d73e 3f30 013d
00000260: 4878 9a3e fe7a 1f3f a5c9 ed3d a94f 1f3e
00000270: 0624 75be 9a00 063e 9c8e 413d 086a eabe
00000280: f2dd a23d 238b 923c cff9 e5bd 424c a8bd
00000290: cbe4 68bb 08d9 f2be c918 e83d fd1b 933e
000002a0: 65e5 033e 7f12 b6be d050 c2bc 08f1 3fbe
000002b0: 1ceb c83e fd3e d23e b305 57be 0173 17be
000002c0: ec0b bf3d 1cc2 b4be 8b8f ffbc 4ef9 b1bd
000002d0: 8e5f 5dbd 798d 08bf 5fec 493d 9556 f13d
000002e0: 5ab3 cebc 1340 fb3e f903 963d cba8 d6bc
000002f0: 3d69 c23d 7ba3 aa3d 9025 f93d 18fb 6ebd
00000300: b8ad 553e 37e9 533e 7660 a93e e298 84be
00000310: 45cc 263b 6697 09be 7814 34be 46a6 1a3e
00000320: 297f 173e 58d6 98bd c889 c1bd cc25 033e
00000330: 78df 7c3d 7aa0 1e3e a973 6f3e 07cc 913e
00000340: 2d7d a4be d5a2 09be eaf2 32be 2a12 b6bc
00000350: 06c1 8d3e 1db0 ac3d 35eb 163e 2927 303d
00000360: f18f b2bd 57c1 fdbe 50c6 8c3d b5b7 75be
00000370: 1909 bebc 0f19 0cbd 86f7 773d a073 cf3e
00000380: ee6e b1bd 9bc1 843d 4d03 443d 3057 263e
00000390: 1443 c83c 49dc 2ebe 89f5 9c3e c111 bbbc
000003a0: ae38 813e 10b1 833e 70ff 43be 8904 8e3d
000003b0: 69f4 b4bd cbe8 5e3d f60d 74bd c903 cfbd
000003c0: 6f02 d93d 256b bc3e 44b0 d23d 4fac 7ebd
000003d0: 5c36 90bd 09e9 0b3d ccf3 3abe dc05 3cbe
000003e0: e21e 843e 6527 d43e 856c a0bc b66a 3ebd
000003f0: d232 d4bd 2417 1ebd 9bdd 713e aa8f 1ebf
0.062273685 -0.3071138 0.06966248 -0.027675593 -0.27857065 -0.17372207 0.28041497 0.10828407
0.10112153 0.7085386 0.2877298 0.030752338 0.11231189 -0.057574097 -0.116199836 0.03266751
-0.09939647 0.4331416 -0.331142 -0.21896109 0.14254166 -0.07428891 0.32217738 -0.054289803
-0.13157547 -0.24471661 -0.11061591 0.28592345 -0.16296329 0.11868109 -0.036836345 0.038548335
-0.008743948 0.6505866 0.050439913 -0.13408929 0.17009534 -0.16577603 -0.77986956 -0.26857492
-0.12359464 -0.47671053 0.047746304 0.41229674 0.23974238 0.4090711 0.16908284 0.66696393
-0.03392433 -0.17806353 -0.09243563 0.18077411 -0.4581347 0.30559677 0.16104019 -0.21419092
-0.112912565 0.5008222 -0.10710751 -0.1261816 -0.47782797 -0.3881284 0.31890407 0.24953802
0.14416602 -0.2553741 -0.25715658 -0.08905583 -0.17885837 -0.2196278 0.18938619 0.26815823
0.17827123 0.49787074 -0.01789693 -0.49856588 -0.39821768 -0.40168843 -0.039666142 -0.050451875
-0.12113325 0.21070038 -0.2288558 -0.09996042 0.46567827 0.120447196 -0.11203118 -0.15921798
-0.068917654 -0.4256595 0.076367624 0.08780679 0.32005522 0.11417815 -0.0017026039 -0.13778776
0.044583526 -0.16081996 -0.25065234 0.3014072 -0.5397003 0.5151078 -0.13813616 -0.20560277
-0.075197816 0.71701616 -0.06595622 -0.31776363 -0.076006055 0.09924549 0.13985401 -0.3247304
0.54907846 -0.110058986 -0.20781912 -0.062371656 0.21623194 0.14642115 -0.012244992 0.070347294
0.06534792 0.3463074 -0.5755408 -0.10344005 -0.4459615 0.034665275 0.21982917 -0.3069066
0.056890737 0.28646064 -0.00915807 0.2841111 -0.2541838 -0.78817594 0.08850863 0.24111532
0.02249702 -0.4305254 0.12215458 0.14941975 0.20425326 0.58535 -0.3064001 0.3832671
0.16028994 -0.297452 0.19349957 0.33691144 -0.08747344 -0.19452274 0.4208156 0.03154015
0.30169892 0.62297046 0.11610726 0.15557732 -0.23939523 0.13086167 0.047255144 -0.4578402
0.07952489 0.017888611 -0.11229288 -0.0821767 -0.0035536762 -0.47431207 0.113328524 0.2873229
0.12880476 -0.35560986 -0.023720175 -0.1874429 0.39241874 0.4106368 -0.20998268 -0.14789964
0.09328446 -0.35304344 -0.031196376 -0.08690129 -0.054046206 -0.5334087 0.049297687 0.11784092
-0.025232006 0.49072322 0.073249765 -0.026203534 0.09492729 0.08331963 0.121653676 -0.05834493
0.2086705 0.20694433 0.33081406 -0.2589789 0.0025451344 -0.1343666 -0.17585933 0.15102491
0.14794602 -0.07462758 -0.09450108 0.12807387 0.061736554 0.15490904 0.23383965 0.28475973
-0.32126752 -0.13441022 -0.17475477 -0.022225458 0.27686328 0.084320284 0.14738162 0.043006096
-0.08718861 -0.4956157 0.068737626 -0.2399586 -0.023197697 -0.034203585 0.06053879 0.40517902
-0.08663736 0.0648224 0.04785471 0.16244197 0.024446048 -0.1707622 0.30656078 -0.022835614
0.25238556 0.25721025 -0.1914041 0.06934459 -0.0883568 0.054421227 -0.059583627 -0.10108144
0.10596167 0.36800495 0.10287526 -0.062176045 -0.07041618 0.034157787 -0.18257064 -0.1836161
0.25804812 0.41436306 -0.019582996 -0.046488486 -0.10361256 -0.038596287 0.23619692 -0.61937964

gnn_base.gnn.gnn1.lin_query.bias f4 [48]
00000000: 27bc eb3e f30d 943e d5f8 debd 5607 10bf
00000010: ea2f 8f3e 7901 ddbd 5c4a 523e c30f d13c
00000020: 4f8b 50bc df46 7f3c 18f5 ebbc c9d3 8e3d
00000030: 69f4 b93e e3be c6be 61c5 1abe 09c2 143f
00000040: 0f7b 983e 529c 9cbd 38b5 f23e c453 f6be
00000050: 8db7 023f 258b 4b3e d6f1 b03e 6336 c1bd
00000060: dd44 e8be 1661 72bd 79fb a33e e92f abbe
00000070: 08f1 a63e 63e5 5fbd 3bb9 08bf 6b07 943e
00000080: 6886 083e c14d 82be a678 383e e93e bdbd
00000090: b15b 073d c492 5f3e cd4e ccbe 1742 9ebe
000000a0: b836 9dbe 0635 76be 3030 203d a176 11bf
000000b0: 4c3b 813d c429 893e 8bec afbe 7e78 06be
0.46041986 0.28916892 -0.10887305 -0.56261194 0.27966243 -0.107912965 0.20536178 0.025520211
-0.012728526 0.015580862 -0.028803393 0.069739886 0.36319283 -0.3881751 -0.15114357 0.58108574
0.29781386 -0.07647003 0.47403884 -0.48110783 0.51061326 0.19877298 0.34559506 -0.094342016
-0.4536504 -0.05917462 0.32027796 -0.3343499 0.32605767 -0.05466212 -0.5340764 0.2891191
0.13332522 -0.25449947 0.18014774 -0.09240515 0.033046428 0.2183333 -0.3990387 -0.30909798
-0.3070581 -0.24043664 0.039108455 -0.5682164 0.06310138 0.26789677 -0.34360155 -0.13131902

gnn_base.gnn.gnn1.lin_value.weight f4 [48, 16]
00000000: ad9a 1fbe 6a0f 5abd 7f9f 013d ef9a e13d
00000010: 8cf4 0f3e 5b8f 04be b94f 12bf 23ae 993d
00000020: 1759 7e3e 6b1b 7a3c 7c88 50be 5848 3fbe
00000030: c287 493c 6b4e d73e d1ea 303e c7ef 0e3e
00000040: 6954 91be 2273 7dbe ea20 f5be 0e7a 10bd
00000050: c53c f03b b4f1 2dbe df5a 66be aa42 e5be
00000060: 4ff2 c3bd de8e 943e f985 a33d 51ca 6a3c
00000070: 9301 843e 85bb aa3d c6e4 ed3d 7520 4b3e
00000080: cd1c 683d 0f9a c5be 9ad6 94be 80d2 0a3c
00000090: 44d8 d7bd 9bfe 8fbd 39b8 e23d e9f1 95be
000000a0: 19d4 293d 13e7 18be a8cf 513d e612 13be
000000b0: 90d0 3b3e 7f2e e03e 56a5 47be 46f7 1bbd
000000c0: 7a71 1c3e 45b6 803e cf9f 65bd 3f48 8a3e
000000d0: 7be4 02be ffdf 3c3e ddeb ee3d b193 93be
000000e0: bd34 91bd b015 173f 5c1a 103d 7ebf aebe
000000f0: cfed a13d 9723 4dbf 1ae1 763e 55cd 20be
00000100: b989 003f e371 803e 6ca3 9b3d af8d 313e
00000110: bee7 55be 5bd8 5d3e 7405 bb3e d404 5bbe
00000120: ea2c b7bd 3b7e 14be b042 193e 22d4 3cbd
00000130: 4159 e13e 513e 2ebe 5d01 a13e c669 abbc
00000140: 704f 2dbe 4e4d 68be 54a0 543d 2398 3d3e
00000150: 93e0 503e 47a7 29bd 38ff a0bc 4bae 383e
00000160: f632 4f3e 4437 293e d84d b5be a030 fcbd
00000170: 11b3 6cbd 7547 84bd 5bd9 4c3e 6cfe 04bc
00000180: 31c0 ff3d 91af 703d 0fb3 eb3d a903 b7bd
00000190: be69 5c3e cb86 45bd 3bb8 56bf daa5 b7bd
000001a0: 53d5 c73d b2c5 32bf e022 af3d ef1d ab3e
000001b0: 1cee bc3d 5d8c 283f 0534 2fbe b687 02be
000001c0: c2c3 3bbe 2ca7 ee3d 41d9 1b3c 34df b6be
000001d0: c822 ed3d 4154 5bbd ee83 23be b8fc 283e
000001e0: a18c 313e acb0 403d 4e52 a8be fe99 a43c
000001f0: 207f 73be 5bd5 19be 9c16 253e 9b82 053e
00000200: 7b5e 853b da4c a0be 42f3 b43c ef89 8b3e
00000210: 523f 2abd c78a 8c3e 1b65 b7bc 5553 28be
00000220: 31d5 663e c1fd ef3e 855e 8a3d 1f2d aabd
00000230: 49f5 1abd ed3d f83c 5744 113d 353c 8ebd
00000240: f016 c73d 77fd 483e 6025 b739 be67 9a3e
00000250: 6fb6 4b3d 5e42 b1be 7a73 923d 2ed0 173e
00000260: 27dd 4fbd 35c1 09bf 7ca1 bdbd 8718 133e
00000270: 9b0e d03d 1718 8b3e b8ba 28bf 6aa3 f5bb
00000280: 5f47 563e 9ca4 c63c 9f82 a93d cf54 4ebc
00000290: 1083 ccbd ffeb 60be e6b8 203f d0c2 b3bd
000002a0: 4d20 503e 6c18 183d 886a 5ebe 886c f9bd
000002b0: b399 6a3e 6b27 f6be 82a4 88bd 4be4 cc3c
000002c0: ec6d 0a3e bd43 3cbe 5ef8 a9bd 9a7e d53d
000002d0: fb29 c0be bf8c a53e bbb1 a23e 3bdf e2bc
000002e0: c437 873c c778 2d3f eea5 37bb f5ea 313b
000002f0: 4981 50be 6223 31be d781 f63e 6552 82bb
00000300: 4aaf 0cbe 0fae 2b3e a693 3c3e 992e 5ebd
00000310: 6627 bdbe 56fc 5f3e 068c 94be 6a7e e43c
00000320: 9993 21be 9341 0e3f 428f 103e 0328 8a3d
00000330: cdd2 aabe 0288 f8be 46bb 443f 62dc 4f3e
00000340: b75a 4abd ffbe 30be 090f 03bf bb7f 153e
00000350: b406 a33d 6b1f 7dbe 3dca b73c 587c 283e
00000360: 468a 893e 569e d53b d170 54be 9ff8 14be
00000370: f92e 09be de34 ac3e aead b3be c3a6 893e
00000380: 8384 323e 0a93 ef3d 9568 aa3c a30f b5bd
00000390: 368b e73e 97b8 b0be 5747 543e 5f63 1bbd
000003a0: e47d ab3e 2e73 3bbe 91b4 1fbe f7ee c83e
000003b0: bc82 01be 1ba9 0e3f ff91 f7be 1094 b63c
000003c0: 1639 ca3d ac4e fb3e c2b2 6fbc 5e59 f7bc
000003d0: acd4 8c3e 0197 723d 2080 613c 78a2 61be
000003e0: 58aa babd b149 a2be 06e0 57bd 05e9 713e
000003f0: 3891 b63d c5e8 023e 0758 41bd e166 c43d
-0.15586348 -0.053237356 0.031646248 0.11015879 0.14058131 -0.12945311 -0.571529 0.07503917
0.24838673 0.015265326 -0.20364565 -0.1867994 0.012300434 0.42052016 0.17277075 0.13958655
-0.28384712 -0.24750951 -0.47876674 -0.03527265 0.007331463 -0.16986734 -0.22495602 -0.44777423
-0.09567701 0.2901525 0.07984538 0.014330463 0.2578245 0.08336548 0.11615901 0.198366
0.05666809 -0.385941 -0.29069978 0.008473039 -0.10539296 -0.07030984 0.11070294 -0.29286125
0.041462038 -0.14931898 0.051223427 -0.14362678 0.18341279 0.43785474 -0.19496664 -0.038077615
0.15277663 0.2513906 -0.05606061 0.27008244 -0.12782471 0.18444823 0.11666081 -0.28823617
-0.07090137 0.5901747 0.03518139 -0.34130472 0.079066865 -0.8013243 0.24109307 -0.15703328
0.5021015 0.2508689 0.075995296 0.17339204 -0.20889184 0.21664564 0.36527598 -0.2138856
-0.089441136 -0.14501278 0.14966846 -0.046100743 0.44013408 -0.1701596 0.31446353 -0.02092446
-0.16924834 -0.2268574 0.051910713 0.18515067 0.20398168 -0.041419294 -0.019652948 0.18035237
0.20234284 0.16524988 -0.35410953 -0.12313962 -0.05778796 -0.06458942 0.2000479 -0.0081172995
0.124878295 0.058761183 0.11508762 -0.08936245 0.21524712 -0.04822425 -0.83874863 -0.089671806
0.09757485 -0.6983291 0.08551574 0.33421275 0.09225103 0.6583918 -0.17109688 -0.12747082
-0.18336394 0.11652979 0.009512247 -0.35717165 0.115788996 -0.053547148 -0.15968296 0.16502655
0.17338802 0.047043487 -0.32875293 0.02009296 -0.23778963 -0.15022795 0.16121906 0.13038103
0.004070101 -0.31308633 0.02208865 0.27253672 -0.041564293 0.2744963 -0.022387078 -0.16438039
0.22542264 0.46873286 0.067563094 -0.083093874 -0.03783158 0.030302966 0.035465565 -0.06945077
0.09721172 0.19627939 0.00034932327 0.30157274 0.04973453 -0.34620947 0.07150932 0.14825508
-0.050748017 -0.53810436 -0.09259316 0.14364825 0.10159036 0.27166817 -0.6590991 -0.007496287
0.20925663 0.024248414 0.08276867 -0.012593462 -0.09985936 -0.21965025 0.6278213 -0.08777392
0.20324822 0.037132666 -0.21720326 -0.12178904 0.22910194 -0.4807695 -0.066720024 0.025011202
0.13518494 -0.18385215 -0.082993254 0.10424538 -0.3753203 0.32333943 0.31776223 -0.027694335
0.016506083 0.67762417 -0.0028022486 0.0027148102 -0.20361818 -0.17298654 0.48145935 -0.0039771073
-0.13738742 0.16765617 0.18415698 -0.054243658 -0.3694412 0.21873602 -0.2901308 0.02789231
-0.1577896 0.5556881 0.14117149 0.06745913 -0.33363953 -0.48541266 0.76848257 0.20298913
-0.04940292 -0.17260359 -0.51194817 0.14599507 0.07960263 -0.24719016 0.022435302 0.16453683
0.26863307 0.0065191193 -0.20746161 -0.14547966 -0.13396825 0.33634084 -0.35093445 0.26885042
0.17433362 0.11697967 0.020801822 -0.08840873 0.45223397 -0.3451583 0.20730339 -0.037936565
0.33494484 -0.18305656 -0.15596224 0.39244816 -0.12647527 0.55726784 -0.48353574 0.022287399
0.098741695 0.4908346 -0.0146300215 -0.03019398 0.27506006 0.05922604 0.013763458 -0.22034633
-0.09114522 -0.31696847 -0.05270388 0.23624046 0.08914417 0.12784107 -0.04720309 0.09589935

gnn_base.gnn.gnn1.lin_value.bias f4 [48]
00000000: 6098 3cbd ce42 cbbd d41b 033e 83d1 03bf
00000010: 6137 d7be dfb3 c0bd 0338 b93e 6ad0 8dbc
00000020: ab70 353d bd72 9e3e 1a24 823c 72a3 26be
00000030: 2889 cdbe c26a 1a3f f1c0 083f f1e8 21be
00000040: 6d75 8d3e 4850 bdbe 6f87 bc3d 2959 14bf
00000050: 2821 8c3d 0c11 063e 3339 6e3e 5d94 fe3d
00000060: 312f 10be 95f2 0a3f af29 06be ac49 d6be
00000070: 39b8 823c feb4 f03e 94e4 d13e 646f 213c
00000080: bbc5 50bb 2df3 36be c1c1 01be f228 e5be
00000090: 7e2c 17be 5e17 f1bd 4e8e 803a 4f11 13be
000000a0: 2faa c33d 990b c83e 116d 0e3e 316f 7cbe
000000b0: 1a1f 6ebd c33f d53e 2b82 883e 856f dbbc
-0.046043754 -0.09924851 0.12803584 -0.51491565 -0.42034438 -0.09409308 0.36175546 -0.017311294
0.0442969 0.30946913 0.015886355 -0.16273287 -0.40143704 0.6031915 0.53419405 -0.15811516
0.2762865 -0.36975312 0.092055194 -0.5794855 0.068422616 0.1309244 0.23264007 0.12430642
-0.14080502 0.542764 -0.13101839 -0.41853082 0.015956985 0.47013086 0.40994704 0.009853218
-0.0031856138 -0.17866202 -0.12671567 -0.447578 -0.14763066 -0.11772035 0.0009808035 -0.14362071
0.09553944 0.39071348 0.13908793 -0.24651791 -0.05813513 0.4165021 0.2666181 -0.026786575

gnn_base.gnn.gnn1.lin_edge.weight f4 [48, 1]
00000000: 57da 2abf eeea 3f3f 40bd cb3f d2ec 33bf
00000010: cdfc 02c0 8ff9 503f 6a97 6cbf f377 bebf
00000020: d2f7 8f3f 7d34 45bf 4253 d73e 2d3f cdbe
00000030: 914a 0abe 00a6 2e3f 72a3 4c3e b8e9 8dbf
00000040: d122 dc3e d99e 133f fff7 7ebf 7cb6 bc3f
00000050: 1f3a d73e 8dc3 b7bf ce1e fd3e 0b5d 4a3d
00000060: 0329 233f 7023 983f a4fa 7cbf caa8 923f
00000070: 0b91 a7bf 088f 02bc cce8 953f 3afc 893e
00000080: 8a11 013f 8a17 97be 7111 0e3f e163 73bf
00000090: 60e8 0abf 2495 6bbf 2483 383f 610d 65bf
000000a0: df98 9a3f a76a a53f 82a6 b33e 8459 253f
000000b0: 01c0 52be d5c2 1d3f 888d a73f a619 a4bf
-0.6673941 0.7496785 1.591713 -0.70283234 -2.0466797 0.81630796 -0.9241854 -1.4880356
1.1247504 -0.77033216 0.42055708 -0.40087262 -0.13505007 0.68222046 0.19984224 -1.108695
0.42995313 0.5766426 -0.9959716 1.474319 0.4203653 -1.4356552 0.49437565 0.04940514
0.63734454 1.1885815 -0.9881995 1.145776 -1.3091139 -0.007968672 1.1711669 0.26950246
0.5041739 -0.29510146 0.55495363 -0.9507428 -0.54260826 -0.92024446 0.72075105 -0.8947354
1.2077903 1.2923173 0.35087973 0.64589715 -0.20581056 0.61625415 1.3090067 -1.2820327

gnn_base.gnn.gnn1.lin_skip.weight f4 [16, 16]
00000000: 9810 75bd 328e bcbe bc1b 78be 6cda 14be
00000010: c9f6 eebd f517 08be 5ed0 e13e b3df 143e
00000020: c1df 24be 038b fd3d e076 5d3e 31f3 3cbe
00000030: 0d94 1c3e 2b30 35be 7d4f 77be 182f dbbc
00000040: 9935 683e d614 e6bd 9c3b 91be c415 423e
00000050: 5e32 f13d 3963 f5bd 47f2 513e ac4e 96be
00000060: 4f6f 0e3d e0ef 363e 4fb3 93be 2f3a 07be
00000070: cfb7 303e 007d d53e 11ad fdbb 6600 d1bd
00000080: 17b8 c73c 052b 8dbe de0a 07be 2a98 a43e
00000090: 5ae4 4bbd bef9 ba3e 9ef7 a53e c995 e9bc
000000a0: 4899 8a3e 7757 05be 8a26 c5bc bf0f 72be
000000b0: a73e c83e b587 623d 62c1 773e 2f7e 3b3e
000000c0: 554b 383e 88e7 88bd 87ea 553e d0d3 9b3e
000000d0: 5338 9ebe a1b9 2b3d 4c5c 393e 8fdb b4be
000000e0: f3b7 f63d 4a89 a3bd 54ac b83e e8fa 8fbc
000000f0: fc47 bf3e cd82 80be 6978 a73e 2c39 df3d
00000100: 6672 18bd 22c5 d4be 8b34 81bc 3887 7d3e
00000110: 0ce5 06be 5466 5c3e 0aba b4be d21c 19bf
00000120: 513d f2bc 7886 143f f58b 6c3d ba9b 69be
00000130: bd3c 963d ab7b d23d 0e53 163f 9627 23bd
00000140: 574e 303b 7fcc adbe 7bd9 9abe 16a2 123c
00000150: 1dd7 86ba ff65 6a3d 3c74 b53e 9c42 30bb
00000160: 048e 433d 04dd 41be 0422 dd3c e614 36be
00000170: 9cea a3be f490 613e 2bfe ddbd ad37 643f
00000180: cbd7 2cbe 4947 a1be 27c8 69be 6547 973c
00000190: 7755 cbbc 3bef 653e 8f14 a73e 4532 89bd
000001a0: 4cbe 26be e3ba e73e 283a f9bd c54f c0be
000001b0: a5bb 12be 97e2 6dbe 4f07 463d e148 a9be
000001c0: 50e6 5d3d c1a7 94be ae0c 37be dbdd f6bd
000001d0: c858 0abf ceaa 7e3e 5969 51be 16fc 253e
000001e0: d0b5 51be 0035 a7be c67f c9bc 645b afbe
000001f0: e712 073e ef4d 8c3d 62e5 1b3e 60ee f93e
00000200: 4a04 503a 4462 ddbe 7f71 b0be c34d 0aba
00000210: 3433 0ebe 8363 023f 1f67 ab3d cee7 55bc
00000220: fe82 80bd 60fd bebe 1212 36be b3cc adbe
00000230: a497 fc3e 560c d03d cb46 233e 38ab 6c3e
00000240: 4ea0 b73b dd23 833c 8ed5 47be 9b03 23bd
00000250: 9794 9b3e 8a7b e1bd 7f96 2fbe 9ddd 85be
00000260: 014e b63d f060 8abe 4637 fdbe e1c8 8dbc
00000270: 2d7b b23e be4f 473e e641 4cbe e0a6 863d
00000280: b707 553e 8542 d53e 2404 003e 147b 92bc
00000290: b397 a03d a79d 53be ffdf bcbe 37e2 96bd
000002a0: cabf a53d a023 173e ec29 003e 062e 633e
000002b0: f667 ba3d 2f13 4c3e 8479 fdbd 607c b0be
000002c0: 4feb 9fbb 5e81 473e f9b3 623e bb01 a63d
000002d0: 7c4b 03bf 48a0 323e 8ed5 62be a33c 28be
000002e0: 607f 2bbd 4a72 173f 79a1 fa3e 95c7 f1bd
000002f0: 5893 05bf 1d7a 28be 637b 033f 02d7 17be
00000300: 0c7e d83d 1c87 cbbc 9c93 9b3d 38fd 7ebe
00000310: f4f4 403e 33f4 f3bd 3f13 a63c 339f 033e
00000320: 4d43 9a3b 88cc 51be 5671 1dbe de20 dcbc
00000330: 2afa 97be d2f1 88be edeb afbd 4132 103e
00000340: 9280 65bc 1d22 6d3e 017f 813d caa0 1dbe
00000350: 9e03 ef3d fce9 92be 1d2e 7cbe 6db3 acbd
00000360: ad18 80bd 92f6 30bf bcb8 d9bc c7f9 ff3d
00000370: 2a6c 653e 3dd6 9a3e 9dc7 f0bd de47 94bc
00000380: 9367 d03d 065b 103e dd1e fb3c df70 2b3d
00000390: a99d 553d c5f8 65bb a4a1 bfbd 2bc3 80bd
000003a0: e642 0fbe 3f32 54bc cc3b a2be fabb 9a3e
000003b0: eaf9 e5bb 2bcc 95bd ab46 e9be fbd7 56bc
000003c0: aa59 673e b1f7 2c3e b5ea b63d 4962 07bd
000003d0: d11c 96bd ffb2 5dbd 78ef 583e 9f1e 803d
000003e0: 45ea b7be 9ab0 023f fbfc 403e e595 763d
000003f0: 96d5 1b3e 4bb7 1fbe 040e 9abd 8aa3 613e
-0.05983028 -0.36827236 -0.2422933 -0.14536446 -0.11668164 -0.13290389 0.44104284 0.1453846
-0.1610098 0.1238003 0.21627378 -0.18452145 0.15290852 -0.17694156 -0.24151416 -0.026755854
0.22676696 -0.11234443 -0.2836579 0.18953615 0.11777185 -0.11981816 0.20502578 -0.29356897
0.03477412 0.17864943 -0.2884774 -0.13205789 0.17257617 0.4169693 -0.0077415784 -0.10205154
0.024379773 -0.27571884 -0.13187739 0.32147342 -0.04977832 0.36518663 0.3241548 -0.028513806
0.2707007 -0.13021646 -0.024066228 -0.23638819 0.391103 0.0553052 0.24194863 0.18309854
0.17997487 -0.06684786 0.20890246 0.30435038 -0.30902347 0.041925076 0.18101615 -0.3532376
0.12046804 -0.0798517 0.36068976 -0.017575696 0.37359607 -0.25099793 0.32709053 0.108995765
-0.037218474 -0.4155665 -0.015772125 0.24758613 -0.13173312 0.2152341 -0.35298187 -0.598096
-0.029570254 0.58017683 0.05775066 -0.22813311 0.07335804 0.10277494 0.5872048 -0.039832674
0.0026902163 -0.3394508 -0.3024405 0.008949777 -0.0010287497 0.057226177 0.35440242 -0.002689517
0.04774286 -0.18931967 0.026993759 -0.1778141 -0.3201493 0.22027951 -0.10839494 0.89147455
-0.16879193 -0.314997 -0.22830258 0.01846666 -0.024821026 0.2245454 0.32632872 -0.06699041
-0.1628353 0.4525977 -0.121692955 -0.3756086 -0.14329393 -0.23230968 0.048346814 -0.33063415
0.05417472 -0.29034236 -0.1787593 -0.12054034 -0.5404172 0.24869844 -0.20450343 0.16209444
-0.20479512 -0.32657623 -0.02459706 -0.34249413 0.13190804 0.06850802 0.15224221 0.48814678
0.00079352094 -0.43239033 -0.3446159 -0.00052758696 -0.1388672 0.5093309 0.08369278 -0.013055755
-0.06274985 -0.37302685 -0.17780331 -0.33945236 0.49334443 0.10158603 0.15944974 0.2311219
0.0056038266 0.016008312 -0.19515058 -0.03979836 0.30386803 -0.11009891 -0.17147253 -0.2614564
0.08901597 -0.27027082 -0.49456233 -0.0173077 0.348596 0.19464013 -0.19947013 0.06574798
0.20803724 0.41652313 0.1250158 -0.017880954 0.07841434 -0.20665608 -0.36889645 -0.07367366
0.080932215 0.14759684 0.12515992 0.22185525 0.0910186 0.19929193 -0.12376693 -0.3446989
-0.004880346 0.19482943 0.22138967 0.08105799 -0.51287055 0.17443955 -0.22151777 -0.16429381
-0.04186952 0.59158766 0.4895132 -0.118056454 -0.52177954 -0.16452833 0.5136015 -0.14828113
0.105709165 -0.024844699 0.07596514 -0.24901283 0.18843442 -0.11911812 0.02027285 0.12853698
0.00470773 -0.20488179 -0.15375265 -0.026871141 -0.29683048 -0.26746994 -0.08589921 0.1408167
-0.014007704 0.23157544 0.06323052 -0.15393367 0.11670612 -0.2869414 -0.24626966 -0.0843266
-0.062547065 -0.69126236 -0.026577346 0.12498813 0.22404543 0.30241576 -0.11756823 -0.018100675
0.10176005 0.14097223 0.030654365 0.04185569 0.05215231 -0.0035090905 -0.093570024 -0.06287225
-0.13990363 -0.012951433 -0.31686246 0.3022154 -0.0070183175 -0.073143326 -0.45561728 -0.013113017
0.22592798 0.16891362 0.089314856 -0.033052716 -0.07329715 -0.054125782 0.211851 0.062558405
-0.3592092 0.5105072 0.18846504 0.060201544 0.15218195 -0.15597264 -0.075222045 0.22035041

gnn_base.gnn.gnn1.lin_skip.bias f4 [16]
00000000: 5108 593d b03b 263e 2f32 b23e 2333 b9be
00000010: ec40 49be 8105 0b3e b138 e73e c006 293e
00000020: 7941 95be 07c6 a63e 470c 4a3e 25d9 02be
00000030: 490b 75be 1893 3a3f dff1 013f a97e 493f
0.052986447 0.16233706 0.34803912 -0.36171827 -0.19653672 0.13576318 0.4516044 0.16506481
-0.29151514 0.32572958 0.19731246 -0.12778147 -0.23930086 0.728807 0.5075969 0.78708893

gnn_base.gnn.gnn2.0.lin_key.weight f4 [48, 16]
00000000: 4fe2 113e 5143 913c 708c 013e f1b5 51be
00000010: ec74 07bd 337f 393e 338a 6dbd 7d6e c5bd
00000020: c548 383e f0ff d83d 3634 dfbc 8b7b 95be
00000030: fcdb 5d3d 1921 b83e bb65 a63d a361 7bbe
00000040: 7ba3 a0be e11a 293c 6c98 1c3e 1074 f13d
00000050: a583 053e 959a c4be 1f7e 4b3e 4bac 503d
00000060: 9abb babc 1366 133e 693d 023e e2fb 96bd
00000070: 262c 803d d40e de3c f62a 3d3d 12ac 32bd
00000080: bffa f4bc b146 c7bd bea2 f73d d832 0f3d
00000090: 633f 213e 32f5 eb3d 4c3a ce3d 52b3 0ebd
000000a0: 5f4f 7b3e e960 553e 1ba4 77bd 593c e4bd
000000b0: f5ee 12bc 8124 9e3e 05e5 cbbb e099 b5bd
000000c0: 7e4e 953e 381a 333c 2adf 1b3d 47bc 483e
000000d0: 9e1e a3bd bd5e 833d e822 d1be 3ccc f8bd
000000e0: 9df4 c9be 91d1 08be ce5c 883e 9302 423e
000000f0: 7fcc cdbd 49dc 703d 6cb6 edbc e302 443e
00000100: 0ae0 14be e3a1 323d 2f05 91bd d578 61bd
00000110: dc29 043e f42b 80be abc4 653e a815 58be
00000120: 257f 8b3d f24a 373e beb5 2d3e e114 97be
00000130: 9728 00be 32c6 133e 4988 9dbd d441 0b3e
00000140: d5b2 edbd 5b2d 4abe 8de5 ccbe 0651 5abc
00000150: e024 adbe aadd 063e 6006 09bf 333a 793e
00000160: f2c3 cabd dce1 2bbd 2101 36be 3bb6 343e
00000170: 2db9 52bd 6bb7 83be 74a5 51be 6078 1f3e
00000180: 7a2c 01be 9ae2 463e 6706 a33e 4144 0f3d
00000190: 387f b13d 626a 43be 762b 773e 17ae 5e3d
000001a0: 85fb 363e 9da8 e3bd 20d0 3cbe 910a debe
000001b0: cec8 cabd 2e93 953e 748b 67bd c75c fa3d
000001c0: ad8e 023e 83f0 993d 4271 a13e 1564 523e
000001d0: ec23 643d f60e fc3d 3913 ed3d 7119 6dbe
000001e0: b77a a93e eb63 f1bd 9477 0c3e 923f 4dbd
000001f0: 0d7f 183d dafa 0b3e da2a 673e 0a0d 5cbe
00000200: 2430 693e d5ee c03e c1bf 533e bdfe 2b3e
00000210: 5d55 2a3e 6230 d93e 393b 3abe f395 8e3e
00000220: 76d7 813e d711 013e df69 07be 0da1 96bd
00000230: 0fae cebe 78a0 59be c336 49be b89c 19be
00000240: 2e83 523e 36a8 c03d 28ac 833e 5830 55be
00000250: 90f3 b23d 9c44 833e c8f8 ba3e 0a78 55bd
00000260: 9ab0 15bd 83a7 05bd c7b9 9bbe f581 56be
00000270: b8cf 01bd 3cf7 c23e 1cbf 1dbe c345 d53c
00000280: 9ff4 9abe 1c42 93be 72b4 6ebd a693 b3bd
00000290: 4517 373e 55d7 92bd fff6 a83e f0af 51be
000002a0: 5e19 8ebc ecc3 283e 1256 2c3e dbca 503e
000002b0: 0062 d13e b126 b73e 01e0 683e 1ba8 4dbe
000002c0: 8806 83bd 482e 4fbe b9d0 11be 1b04 3fbd
000002d0: 559c 1d3e 4df7 123f b8f7 d8bd 2b15 8dbb
000002e0: 73f3 07bd 30bb 523e 3316 c4be 7379 3cbe
000002f0: 8464 0ebc e08e 00bf 4276 05bd 8cff d53c
00000300: bf6e 003e ab16 5a3d c564 64be 6026 dc3c
00000310: 0af0 abbe c3ed 55be 7d0f cabe ea67 b1bd
00000320: 2c16 9dbe 40b2 47be 35e3 db3d 2018 943e
00000330: 8fcb d73e 061a 9ebd c304 e13d 0f00 5cbc
00000340: 903c 04be 3c3e fa3d e578 9ebd 3c1b e6bd
00000350: 62fc a83e 4083 6e3e b386 2f3e 1fa9 c3bc
00000360: c264 d83e 7f49 11be becf d8be 673f 84be
00000370: 9920 d1be 6de5 953e 51d0 94be 1a89 90be
00000380: 641d 323e dda7 19be e0c1 86be 6318 0dbe
00000390: b3b2 eaba 2a09 883e 487f f1be 04ec d3bd
000003a0: 14d7 073d 112f 823e 1ac7 cb3c 9a8e 2bbd
000003b0: 0410 06be eab2 cdbe 51b9 bdbe 7167 4b3e
000003c0: b6ef dbbd 987c 933c 1f33 403e bf1c 5b3e
000003d0: add7 47bd 6cae 723e 9bd4 a53d 7b3a 693d
000003e0: 8f03 673d 9d0d 89bc b2c4 1c3c ccf6 c73d
000003f0: 444c 07bf 086f d5be d7ba 1f3e c761 923e
0.14246486 0.017732294 0.12651229 -0.20479561 -0.03307049 0.18114929 -0.057993125 -0.096402146
0.1799651 0.10595691 -0.027246576 -0.29195818 0.05416487 0.35962752 0.08124872 -0.24548964
-0.31374726 0.01032135 0.1529252 0.11789715 0.130385 -0.38399187 0.1987233 0.05094556
-0.022794534 0.14394407 0.12718739 -0.073722616 0.06258421 0.02710668 0.04618355 -0.04362113
-0.029904721 -0.0973028 0.120915875 0.034960598 0.15746836 0.11521377 0.10069713 -0.034838982
0.24541996 0.2083775 -0.060459238 -0.11144323 -0.008968105 0.30887225 -0.0062223696 -0.0886724
0.29161447 0.010931544 0.038054623 0.19603072 -0.07964824 0.06414554 -0.40846944 -0.121483296
-0.39444438 -0.13361193 0.26633304 0.18946294 -0.1004877 0.05880383 -0.02901765 0.19141726
-0.14538589 0.04361142 -0.07081067 -0.055046875 0.12906593 -0.25033534 0.22438304 -0.21102011
0.0681136 0.17899683 0.1696386 -0.29508117 -0.12515484 0.14431074 -0.0769201 0.1359933
-0.11606375 -0.19743864 -0.40018883 -0.013324982 -0.33817196 0.13170496 -0.5352535 0.24338607
-0.09900655 -0.041963443 -0.17773868 0.1764764 -0.05144613 -0.25725874 -0.20473272 0.15573263
-0.12614623 0.19422379 0.31840822 0.0349772 0.08666843 -0.1908355 0.24137673 0.054365244
0.17869385 -0.11116145 -0.18438768 -0.43367437 -0.09901582 0.29213852 -0.056529477 0.12224727
0.12749739 0.07516577 0.3153172 0.20545991 0.05569832 0.12307541 0.11575932 -0.23154236
0.33101436 -0.11786636 0.1371749 -0.050109453 0.03723054 0.13669911 0.2257494 -0.21489349
0.2277227 0.37682214 0.20678617 0.16796394 0.16634126 0.42419726 -0.18186654 0.27848777
0.25359696 0.12604462 -0.1322398 -0.07354937 -0.4036717 -0.2125262 -0.19649796 -0.1500119
0.20557854 0.09407084 0.25717282 -0.20819223 0.08737862 0.25638282 0.3651793 -0.05211643
-0.036545373 -0.032630455 -0.30415174 -0.20948012 -0.031692237 0.3807925 -0.15404934 0.026034242
-0.30264756 -0.28761375 -0.058277555 -0.08768396 0.1787997 -0.071699776 0.33000943 -0.20477271
-0.01734608 0.16480988 0.16829708 0.20389883 0.4089508 0.35771707 0.227417 -0.20083658
-0.0639773 -0.20232499 -0.14239778 -0.046634775 0.15391667 0.574086 -0.105941236 -0.004305502
-0.033191156 0.20579219 -0.38298187 -0.18405704 -0.008690957 -0.5021801 -0.032583483 0.02612283
0.12542246 0.053244274 -0.22304066 0.026873767 -0.33581573 -0.2089148 -0.39464942 -0.08662398
-0.30680978 -0.1950159 0.10736696 0.28924656 0.4214749 -0.07719807 0.10987236 -0.013427748
-0.12913728 0.122189015 -0.077379026 -0.11235663 0.33005053 0.23292255 0.17141227 -0.023884354
0.42264372 -0.14188193 -0.42345995 -0.25829622 -0.40845183 0.292766 -0.29065183 -0.282296
0.17394024 -0.15005441 -0.2631979 -0.13778834 -0.001790604 0.26569492 -0.4716742 -0.10347751
0.0331641 0.25426534 0.024875212 -0.041884042 -0.13092047 -0.40175563 -0.37055448 0.19863679
-0.107390806 0.018003747 0.18769501 0.21397685 -0.04878967 0.23699349 0.08097192 0.056940537
0.056399878 -0.016730124 0.00956838 0.0976387 -0.5285075 -0.41686273 0.15598617 0.28590223

gnn_base.gnn.gnn2.0.lin_key.bias f4 [48]
00000000: 94c3 743e 9d04 b8bd 11fa 513e 53e5 a33c
00000010: 325d 183e 7b63 3e3e c775 25be 43c6 b53b
00000020: 3f3d 3e3c 6b73 62be 8d78 77be 7ba0 703e
00000030: ca7b aebd 6f3a a7bd 71ca e2bd 9a3e f93d
00000040: 98e7 4f3e 4478 61be ffe1 35bc d594 8d3d
00000050: 7854 4fbe 2148 3f3e ca30 293d aab0 e23d
00000060: ac58 673e 74eb 773d 893b e13d 2957 653e
00000070: 1a4d f3bd 20c1 aebd 4af6 2ebe 1c1b 753d
00000080: f373 b73d bae6 263e 2790 8e3d 07c8 62be
00000090: 571d 77bc ad99 5abe af12 d4bc c563 2fbd
000000a0: b972 fabd 0f48 393d 70ca 01be 1ecf 97bd
000000b0: e7a5 6cbd da3a 20be c568 7bbe e9ad 8e3d
0.23902732 -0.08985255 0.20505549 0.020006811 0.14879301 0.18592636 -0.1615821 0.0055473163
0.011611282 -0.22114341 -0.2416708 0.23498718 -0.08519705 -0.08165442 -0.11073769 0.121701434
0.2030319 -0.22018534 -0.011101245 0.06913153 -0.20247066 0.18679859 0.041306295 0.11068852
0.2259242 0.06052728 0.109976836 0.2239653 -0.1187994 -0.085329294 -0.1708614 0.059840307
0.089576624 0.16298953 0.06961089 -0.22146617 -0.015082679 -0.21347685 -0.025887815 -0.042819757
-0.12228913 0.045234736 -0.1267488 -0.07412551 -0.057775404 -0.1564745 -0.24551685 0.069667645
