onpolicy/trained_models/informal_noise_3agents/files/actor.pt (torch, 194501 bytes, 58 tensors)

gnn_base.gnn.embed_layer.layer_norm.weight f4 [16]
1.022871 0.7483622 0.95114714 0.9410316 1.4101682 1.3053932 1.1319278 1.0471452
0.952397 1.0834849 0.83794636 0.7891442 0.874786 1.1486362 0.89358944 0.9051491
00000000: 70ed 823f aa94 3f3f 617e 733f 72e7 703f
00000010: 6480 b43f 2017 a73f 03e3 903f db08 863f
00000020: 4ad0 733f a2af 8a3f a783 563f 5b05 4a3f
00000030: faf1 5f3f 8306 933f 47c2 643f dab7 673f

gnn_base.gnn.embed_layer.layer_norm.bias f4 [16]
-0.058621526 0.13577394 -0.1600317 -0.16895942 -0.08734057 -0.12409069 0.008492792 0.19925553
0.16732667 0.10913692 0.06135828 -0.088477775 0.14313652 -0.00974745 -0.10378317 0.04648928
00000000: 201d 70bd 5308 0b3e 5adf 23be b303 2dbe
00000010: 9ddf b2bd 4223 febd 5a25 0b3c a409 4c3e
00000020: af57 2b3e 2d83 df3d d252 7b3d d633 b5bd
00000030: 6192 123e c5b3 1fbc 458c d4bd 8b6b 3e3d

gnn_base.gnn.embed_layer.entity_embed.weight f4 [3, 2]
0.7202511 0.28670546 0.3296939 0.71307075 -0.42813954 0.104659446
00000000: 6062 383f 0fcb 923e a4cd a83e ce8b 363f
00000010: 1b35 dbbe b157 d63d

gnn_base.gnn.embed_layer.lin1.weight f4 [16, 9]
0.77466726 -1.082409 0.4219054 0.022317605 0.19118759 0.16828957 0.26056328 0.08300123
-0.05645429 -0.20465462 0.21784417 -0.37584713 0.58755887 -0.15123095 0.13970383 0.09584421
-1.0645847 -0.04613665 -0.32061437 -0.22667807 0.08428689 0.7960236 0.004307504 0.28836656
-0.05877062 0.284321 0.2852416 0.6044791 0.19122286 -0.03842658 -0.055444308 -0.24887313
0.44191962 -0.054177135 0.32801002 0.61549485 -0.17078368 -0.28642413 -0.40380883 0.108399995
-0.17508137 1.2268894 0.29608217 0.14160591 -0.69347346 -0.75543135 -0.74952966 0.37734434
0.2670331 -0.1970503 0.05272404 0.28693175 -0.40624526 -0.58362854 -0.060977865 0.6488548
0.55777854 0.19842546 0.5172684 0.23910324 0.73635244 0.6742592 0.15588106 0.08202224
0.5682663 0.37832248 0.28488338 -0.34484383 0.103912145 0.6610016 0.30268386 -0.35570735
0.37850624 0.3764493 0.40326196 -0.14582948 0.28465992 0.37798107 -0.5807917 -0.30681267
-0.2202644 0.07233406 -0.5321388 0.56530166 -0.14235124 0.0055664666 0.12110886 0.5710698
-0.30159083 -0.16129279 0.07688833 0.12798977 -0.12364585 0.42846513 0.37223443 0.11271935
-0.30820173 -0.55449665 -0.26090175 0.07125209 0.43824324 0.5227641 -0.030646762 -0.7287828
0.3323809 -0.18431494 -0.21705203 -0.12892552 -0.25823402 0.7471298 0.2204515 -0.3704817
-0.21350892 -0.81703764 -0.12067613 -0.07768525 -0.35421735 -0.079207346 0.4835107 -0.17389588
-0.61794823 0.27363062 0.35650235 0.4663769 -0.22746436 0.6273938 -0.36800697 0.009624828
0.18126561 -0.037979215 0.03987548 0.3359309 -0.6405066 -0.04590575 -0.087028526 0.3639719
-0.19422731 -0.14983508 0.30496427 -0.3287306 -0.22687516 0.2609361 0.7124477 -0.7503282
00000000: 9850 463f 618c 8abf fc03 d83e 69d3 b63c
00000010: aec6 433e 1a54 2c3e 8d68 853e 8dfc a93d
00000020: 9d3c 67bd fb90 51be 8b12 5f3e 096f c0be
00000030: 426a 163f 49dc 1abe 850e 0f3e f849 c43d
00000040: 5044 88bf c9f9 3cbd 9127 a4be 4c1e 68be
00000050: 9b9e ac3d 34c8 4b3f f625 8d3b c8a4 933e
00000060: 76b9 70bd 8692 913e 300b 923e 24bf 1a3f
00000070: edcf 433e 3165 1dbd 9219 63bd 99d8 7ebe
00000080: 4a43 e23e d8e8 5dbd eef0 a73e 1291 1d3f
00000090: ebe1 2ebe 2fa6 92be 08c0 cebe d100 de3d
000000a0: 8848 33be b60a 9d3f 1598 973e 2401 113e
000000b0: 7a87 31bf f363 41bf 2de1 3fbf 4733 c13e
000000c0: 90b8 883e 8ec7 49be 2af5 573d b8e8 923e
000000d0: 61ff cfbe ae68 15bf edc3 79bd 591b 263f
000000e0: 93ca 0e3f 0b30 4b3e b46b 043f 7bd7 743e
000000f0: 9881 3c3f 409c 2c3f 499f 1f3e 47fb a73d
00000100: e679 113f 7cb3 c13e 3cdc 913e 5f8f b0be
00000110: e4cf d43d 6737 293f 61f9 9a3e 461f b6be
00000120: 92cb c13e f6bd c03e 5a78 ce3e 5354 15be
00000130: f2be 913e bc86 c13e c4ae 14bf 8d16 9dbe
00000140: fe8c 61be e123 943d 403a 08bf 9cb7 103f
00000150: 86c4 11be e866 b63b ec07 f83d a131 123f
00000160: 1d6a 9abe f029 25be a177 9d3d c00f 033e
00000170: 093a fdbd c85f db3e 8395 be3e 67d9 e63d
00000180: 9ecc 9dbe 7ef3 0dbf ea94 85be 9eec 913d
00000190: 6b61 e03e ded3 053f eb0e fbbc 8291 3abf
000001a0: d42d aa3e 0ebd 3cbe e342 5ebe 0d05 04be
000001b0: 4037 84be e643 3f3f 0abe 613e c7af bdbe
000001c0: 15a2 5abe 6129 51bf 0c25 f7bd 7219 9fbd
000001d0: fa5b b5be 7637 a2bd b78e f73e c311 32be
000001e0: db31 1ebf 5019 8c3e 7a87 b63e f4c8 ee3e
000001f0: 6bec 68be e19c 203f 696b bcbe 74b1 1d3c
00000200: b19d 393e 1890 1bbd 7954 233d 23ff ab3e
00000210: 3ef8 23bf ab07 3cbd 033c b2bd 865a ba3e
00000220: 86e3 46be 5e6e 19be 4724 9c3e 614f a8be
00000230: f651 68be 6b99 853e f962 363f 8215 40bf

gnn_base.gnn.embed_layer.lin1.bias f4 [16]
-0.073045276 -0.31420752 -0.14487372 -0.040268883 0.12413087 0.07910374 0.19044183 0.16637819
-0.060135495 -0.07640812 -0.16919206 -0.27810073 0.16879591 -0.09468469 -0.054128185 -0.026830388
00000000: c398 95bd cfdf a0be c759 14be fcf0 24bd
00000010: 5338 fe3d 2401 a23d 2f03 433e 0b5f 2a3e
00000020: a350 76bd dc7b 9cbd af40 2dbe 3863 8ebe
00000030: d6d8 2c3e 0cea c1bd 84b5 5dbd 67cb dbbc

gnn_base.gnn.embed_layer.layers.0.weight f4 [16, 16]
-0.44171125 -0.48384887 -0.38042137 0.361933 -0.14208286 -0.56868905 0.36291942 -0.09880264
-0.21554397 0.4150803 -0.09365661 0.3078834 -0.49414805 0.49852276 -0.026129542 -0.48561338
0.0026867676 0.04032103 -0.6594738 0.39064497 -0.6399364 0.16159189 0.27711207 -0.15592521
0.53279203 -0.4245828 -0.2722737 -0.6088772 -0.15185818 -0.047383253 0.6863509 0.11827842
-0.41187397 0.4512299 0.5374678 0.05427171 -0.022361483 -0.5367474 0.14964175 -0.31200197
0.31892094 -0.035905417 0.086790144 -0.15659583 0.2810787 0.9658532 0.075510755 -0.429457
0.1716583 -0.18462351 0.19212812 0.21674944 0.46532595 -0.054509602 0.20487046 -0.68689597
-0.27643776 -0.81016886 -0.10291372 0.16949601 0.7664772 -5.5303233e-05 0.15526278 -0.14691032
0.25848478 0.640996 -0.42245328 0.22426124 0.6597848 -0.8807654 -0.30024838 0.15099944
0.18279816 0.07013079 0.13865435 0.079016574 -0.46040878 -0.4943243 0.2075926 0.68362385
0.2609207 -0.124211445 0.3084126 -0.24866846 0.40848258 0.9316783 0.38879684 0.0808127
0.097120024 0.45756662 -0.19994342 0.5490882 -0.17191638 -0.08542808 0.52606523 0.50739753
0.2847194 -0.17361104 0.12025891 0.6994363 -0.02896004 -0.026589632 -0.03175889 0.008822054
0.5218565 0.18503985 0.5284238 0.22175606 0.7278166 -0.2408301 0.39500156 0.5048317
0.35523173 0.038786575 -0.22383317 -0.8447274 -0.17447239 -0.23385406 0.55195624 -0.9266842
0.46517488 0.100602575 0.19183947 0.079552546 0.025957601 -0.51621795 0.05989592 -0.019023744
-0.11441034 0.22563827 -0.6659519 -0.2861346 -0.83234894 -0.3741705 0.69319934 0.4860509
0.025325548 -0.2216644 -0.39582282 0.3324503 0.69216925 0.08015997 -0.43645027 0.34529373
0.52692425 0.178599 -0.18813312 -0.23696017 0.83204275 -0.2678335 0.27506542 0.3174784
0.14606357 0.21716246 -0.9400074 -0.52971697 0.22712396 -0.100651465 -0.32438147 0.12210555
0.9987414 -0.034079522 -0.12664287 -0.6180325 0.23811477 -0.100904346 0.20119163 0.44609508
-0.3920514 0.13681398 0.45506954 -0.1312294 -0.109332584 0.35394305 0.2871714 0.13340418
0.4026828 -0.16292243 0.25833887 0.27182233 -0.45215735 -0.285252 0.09457912 -0.024851067
0.17988159 -0.29451188 -0.12346667 0.5816417 -0.11528926 -0.060707957 0.3191313 -0.8124143
0.23911992 -0.3293974 0.59541327 -0.01941215 -0.30259374 -0.42900583 0.3295441 -0.16355483
0.19428022 -0.58280015 -0.14048362 -0.38210353 -0.3083163 0.09329778 -0.31540295 0.4711603
-0.23223493 -0.38551474 -0.41105434 -0.06690938 0.022196198 0.080431856 -1.042366 -0.026347555
0.7197263 -0.21418099 0.1625386 0.6950586 0.13625997 0.5942789 -0.22413838 0.061736844
0.5476771 0.34644434 0.1148304 0.34768364 -0.7028507 -0.24897681 -0.53256863 -0.42074808
-0.2556157 0.11722393 -0.4105335 -0.13526843 -0.2421903 0.4400389 0.522165 -0.1795475
0.07765039 0.2594895 -0.21106346 0.73286223 0.20881446 0.2161315 0.33441618 0.23494385
-0.284392 -0.15164316 0.050935496 -0.28851572 -0.68179435 0.5435222 -0.77220124 0.09790985
00000000: fa27 e2be 0abb f7be 97c6 c2be 484f b93e
00000010: 2b7e 11be 9b95 11bf 93d0 b93e 0a59 cabd
00000020: 8fb7 5cbe 6885 d43e 09cf bfbd e5a2 9d3e
00000030: f900 fdbe 603e ff3e 9f0d d6bc 51a2 f8be
00000040: 7b14 303b aa27 253d 46d3 28bf 9e02 c83e
00000050: dfd2 23bf 5878 253e a2e1 8d3e dcaa 1fbe
00000060: 0f65 083f eb62 d9be 7567 8bbe 60df 1bbf
00000070: b680 1bbe f114 42bd b1b4 2f3f f53b f23d
00000080: 25e1 d2be 9b07 e73e 7d97 093f 034c 5e3d
00000090: 6e2f b7bc 4768 09bf b03b 193e b9be 9fbe
000000a0: 9b49 a33e 8f11 13bd 08bf b13d a85a 20be
000000b0: 8ce9 8f3e 2842 773f 62a5 9a3d cae1 dbbe
000000c0: 32c7 2f3e f20d 3dbe 3cbd 443e 91f3 5d3e
000000d0: 343f ee3e 7645 5fbd 90c9 513e 6ad8 2fbf
000000e0: 4089 8dbe 3a67 4fbf 6ec4 d2bd 5d90 2d3e
000000f0: da37 443f 65f5 67b8 35fd 1e3e a96f 16be
00000100: 1e58 843e 5018 243f cc4b d8be bda4 653e
00000110: a8e7 283f d779 61bf 28ba 99be 999f 1a3e
00000120: 712f 3b3e bba0 8f3d 68fb 0d3e 71d3 a13d
00000130: b3ba ebbe 1318 fdbe 2893 543e f901 2f3f
00000140: 6697 853e 9262 febd 42e8 9d3e f2a2 7ebe
00000150: a124 d13e 7882 6e3f 6110 c73e 2181 a53d
00000160: dde6 c63d 2c46 ea3e f8bd 4cbe 0b91 0c3f
00000170: d90a 30be ebf4 aebd 36ac 063f cee4 013f
00000180: bec6 913e 18c7 31be 4e4a f63d 420e 333f
00000190: 9b3d edbc 80d2 d9bc 9c15 02bd 608a 103c
000001a0: 6398 053f 167b 3d3e c846 073f 0514 633e
000001b0: 3052 3a3f 2a9c 76be a53d ca3e a63c 013f
000001c0: efe0 b53e acde 1e3d 8634 65be 0e40 58bf
000001d0: e4a8 32be 7077 6fbe 014d 0d3f 2d3b 6dbf
000001e0: 672b ee3e b908 ce3d 9171 443e 72ec a23d
000001f0: 09a5 d43c dc26 04bf 6d55 753d afd7 9bbc
00000200: f84f eabd b80d 673e d37b 2abf 3c80 92be
00000210: d214 55bf 4793 bfbe 8375 313f aadb f83e
00000220: 8677 cf3c fefb 62be 4aa9 cabe ed36 aa3e
00000230: 0132 313f e92a a43d 6976 dfbe 57ca b03e
00000240: 82e4 063f a8e2 363e f8a5 40be b0a5 72be
00000250: c100 553f 7921 89be 60d5 8c3e 878c a23e
00000260: b091 153e d65f 5e3e 53a4 70bf 889b 07bf
00000270: 2f93 683e 5b22 cebd 5415 a6be 7912 fa3d
00000280: 84ad 7f3f f896 0bbd abae 01be 6137 1ebf
00000290: 5cd4 733e f0a6 cebd 2e05 4e3e 9366 e43e
000002a0: f6ba c8be f718 0c3e e0fe e83e 0061 06be
000002b0: c3e9 dfbd 0638 b53e 2108 933e 1b9b 083e
000002c0: 712c ce3e 23d5 26be fe44 843e 4c2c 8b3e
000002d0: 2b81 e7be 8d0c 92be b3b2 c13d 7794 cbbc
000002e0: e132 383e 43ca 96be 18dc fcbd 78e6 143f
000002f0: c71c ecbd e8a8 78bd 2e65 a33e 62fa 4fbf
00000300: dadb 743e c7a6 a8be 016d 183f 3b06 9fbc
00000310: 91ed 9abe a7a6 dbbe 01ba a83e eb7a 27be
00000320: 65f1 463e 6432 15bf f0da 0fbe 13a3 c3be
00000330: a2db 9dbe e812 bf3d 7f7c a1be ec3b f13e
00000340: fece 6dbe 3062 c5be b775 d2be c907 89bd
00000350: cdd4 b53c 75b9 a43d 406c 85bf d4d6 d7bc
00000360: fc3f 383f 4352 5bbe 8570 263e 5cef 313f
00000370: bc87 0b3e a922 183f 8884 65be c6df 7c3d
00000380: 9134 0c3f 2761 b13e 332c eb3d 9703 b23e
00000390: 06ee 33bf c7f3 7ebe 6b56 08bf 4b6c d7be
000003a0: 10e0 82be 1a13 f03d 7231 d2be cf83 0abe
000003b0: bc00 78be c74c e13e 9bac 053f 4ddb 37be
000003c0: 2b07 9f3d cfdb 843e 0521 58be dc9c 3b3f
000003d0: 75d3 553e 9351 5d3e 9938 ab3e 1f95 703e
000003e0: d49b 91be 5848 1bbe bda1 503d 55b8 93be
000003f0: 138a 2ebf 4524 0b3f fbae 45bf f684 c83d

gnn_base.gnn.embed_layer.layers.0.bias f4 [16]
-0.039329555 0.07577647 0.036713704 -0.16289462 -0.0708362 -0.13055658 -0.07566881 0.14160615
0.17264414 0.077497855 -0.016712632 -0.038636476 0.087776765 -0.17837305 0.02682825 0.15229304
00000000: 0718 21bd b230 9b3d 1c61 163d d9cd 26be
00000010: 9212 91bd a0b0 05be 40f8 9abd 3401 113e
00000020: a0c9 303e 32b7 9e3d eee8 88bc 4841 1ebd
00000030: 4ec4 b33d 6da7 36be ebc6 db3c b5f2 1b3e

gnn_base.gnn.embed_layer.layers.2.weight f4 [16]
1.022871 0.7483622 0.95114714 0.9410316 1.4101682 1.3053932 1.1319278 1.0471452
0.952397 1.0834849 0.83794636 0.7891442 0.874786 1.1486362 0.89358944 0.9051491
00000000: 70ed 823f aa94 3f3f 617e 733f 72e7 703f
00000010: 6480 b43f 2017 a73f 03e3 903f db08 863f
00000020: 4ad0 733f a2af 8a3f a783 563f 5b05 4a3f
00000030: faf1 5f3f 8306 933f 47c2 643f dab7 673f

gnn_base.gnn.embed_layer.layers.2.bias f4 [16]
-0.058621526 0.13577394 -0.1600317 -0.16895942 -0.08734057 -0.12409069 0.008492792 0.19925553
0.16732667 0.10913692 0.06135828 -0.088477775 0.14313652 -0.00974745 -0.10378317 0.04648928
00000000: 201d 70bd 5308 0b3e 5adf 23be b303 2dbe
00000010: 9ddf b2bd 4223 febd 5a25 0b3c a409 4c3e
00000020: af57 2b3e 2d83 df3d d252 7b3d d633 b5bd
00000030: 6192 123e c5b3 1fbc 458c d4bd 8b6b 3e3d

gnn_base.gnn.gnn1.lin_key.weight f4 [48, 16]
0.29557255 0.0032551882 0.5359816 0.48747763 -0.18030868 -0.22016777 -0.18874374 -0.33924127
0.17478363 -0.2968038 -0.37508488 -0.04756432 -0.016906446 0.17551592 -0.00956176 0.20920055
-0.29795307 0.13820861 -0.44493082 -0.15896569 0.30001807 -0.12222157 0.4491093 0.33007908
-0.0074373675 0.5791752 0.28832394 -0.1454683 -0.16514768 -0.049511682 -0.21172816 -0.5233154
0.10360254 -0.2745847 0.557897 0.24052934 -0.30508837 0.10302815 0.38341734 -0.35543388
0.07555315 0.06986597 -0.015595382 -0.07597637 -0.119449444 0.20490094 0.09838803 -0.06920044
0.20951286 0.47206184 -0.1822237 -0.32622752 -0.27698943 0.036669962 -0.5081233 0.024566833
-0.5183754 -0.20769355 -0.18008406 0.3023844 0.5157104 -0.43129662 0.16223857 0.26686093
-0.06766887 -0.13280115 -0.3168347 0.12957314 -0.05406028 0.09491615 0.2070922 -0.2604839
-0.32960662 0.046149198 0.18645088 -0.19235127 -0.020769507 0.3636924 0.13401896 0.16673999
0.33182135 0.40336615 0.23548427 0.05145609 0.1629193 -0.07271759 -0.5705804 0.08930709
-0.2175392 -0.2702608 -0.20447244 0.27987573 0.25309643 -0.13080582 -0.040172633 0.47306868
0.27461702 -0.26272702 0.70422095 0.47281203 -0.01240078 0.30860472 -0.0515083 -0.66605735
0.12355934 -0.23374702 -0.24019179 0.092009716 -0.087800555 -0.109794065 0.0010150014 -0.020601422
0.16499889 0.12647171 -0.32300273 0.110138446 0.016368978 -0.31432065 -0.16975477 0.11435545
-0.11561591 -0.1580129 -0.13131642 0.13594204 0.117862515 0.04983121 0.021863025 0.11627006
0.049078856 0.30586076 -0.37424576 -0.4137181 0.14137058 -0.11200782 -0.06656088 0.25630403
-0.57973397 -0.031878628 0.030959722 0.06604477 0.22494154 -0.21540037 0.016908873 0.23827468
-0.08853575 -0.07507749 0.041531753 0.28592327 -0.095419325 0.47899392 0.43318096 -0.10395968
0.13612568 -0.17503475 0.0010552699 0.36087564 0.18165521 -0.28522855 0.012704478 -0.4446417
0.28963938 0.3057219 -0.27128184 0.15556866 -0.18477954 -0.043599777 -0.11098376 0.34702572
-0.11392939 -0.17569678 -0.2939721 -0.19672705 0.19990855 0.08321796 -0.16290265 0.28258896
-0.2192063 0.2285109 -0.5786165 -0.47620016 0.1128717 -0.178671 0.16871026 0.32915226
-0.15480809 0.30452353 0.22768925 0.016026713 0.057351567 -0.34941608 0.23516102 0.09545864
-0.39791682 0.012985309 -0.5646114 -0.21102874 -0.10057158 0.23269485 0.16845989 0.75510216
0.050326694 0.26813546 0.26127255 -0.17283587 0.06236609 -0.25575522 -0.32409862 -0.14699683
-0.07065593 -0.28776938 0.38942724 0.45162752 -0.27809924 0.058275327 -0.10231703 -0.31488666
0.5422238 -0.23355271 -0.15114722 -0.3111923 0.04452801 0.39831612 -0.25395375 -0.30522177
-0.02343395 -0.46724796 0.22447716 -0.005714428 -0.16443026 -0.12206581 0.3785309 -0.27514157
0.25098798 -0.10135447 0.13377205 -0.2733762 -0.117621385 0.17665371 -0.022186078 -0.57430893
-0.45426962 0.024810338 -0.6350862 0.036665823 -0.13988315 0.108009264 0.40634146 0.62341386
0.23302405 0.19544718 0.24833529 -0.13612166 -0.17189138 -0.3441931 -0.09438511 -0.2969009
00000000: 4955 973e ff54 553b 1736 093f ab96 f93e
00000010: d7a2 38be a973 61be 0a46 41be 08b1 adbe
00000020: 7bfa 323e abf6 97be 200b c0be ced2 42bd
00000030: 637f 8abc 72ba 333e eea8 1cbc ab38 563e
00000040: 4e8d 98be 8f86 0d3e f9cd e3be e7c7 22be
00000050: f89b 993e 4d4f fabd a7f1 e53e 2000 a93e
00000060: 29b5 f3bb d344 143f 329f 933e a4f5 14be
00000070: 791c 29be c3cc 4abd 44cf 58be 00f8 05bf
00000080: 922d d43d 5e96 8cbe 56d2 0e3f 534d 763e
00000090: 8b34 9cbe 6c00 d33d 474f c43e 6efb b5be
000000a0: 9cbb 9a3d e415 8f3d c683 7fbc 8099 9bbd
000000b0: e9a1 f4bd 8dd1 513e aa7f c93d f6b8 8dbd
000000c0: 8a8a 563e 17b2 f13e da98 3abe 4b07 a7be
000000d0: 8fd1 8dbe 3e33 163d 5e14 02bf 6240 c93c
000000e0: 40b4 04bf 9ead 54be f567 38be 21d2 9a3e
000000f0: 9905 043f e9d2 dcbe de21 263e ffa1 883e
00000100: fa95 8abd 06fd 07be 2838 a2be d2ae 043e
00000110: 506e 5dbd 6663 c23d fa0f 543e 255e 85be
00000120: 33c2 a8be f106 3d3d fbec 3e3e bbf7 44be
00000130: d024 aabc e435 ba3e 443c 093e e3bd 2a3e
00000140: 7de4 a93e 0286 ce3e ca22 713e 9fc3 523d
00000150: 51d4 263e f6ec 94bd 8f11 12bf a3e6 b63d
00000160: 99c2 5ebe a05f 8abe 3961 51be df4b 8f3e
00000170: db95 813e f6f1 05be 0f8c 24bd 0f36 f23e
00000180: 9a9a 8c3e 2884 86be d347 343f 6b14 f23e
00000190: a42c 4bbc 7001 9e3e 5efa 52bd bc82 2abf
000001a0: ae0c fd3d 615b 6fbe d6f4 75be 976f bc3d
000001b0: c7d0 b3bd b6db e0bd cc09 853a 50c4 a8bc
000001c0: 78f5 283e cd81 013e 9d60 a5be 4490 e13d
000001d0: 3c18 863c a3ee a0be 32d4 2dbe 3133 ea3d
000001e0: 09c8 ecbd 22ce 21be d077 06be 6434 0b3e
000001f0: e761 f13d d01b 4c3d 161a b33c ff1e ee3d
00000200: e906 493d c899 9c3e 249d bfbe dcd2 d3be
00000210: 73c3 103e 5b64 e5bd 1251 88bd 483a 833e
00000220: 7269 14bf 2a93 02bd 3e9f fd3c 7b42 873d
00000230: 1357 663e ea91 5cbe 7a84 8a3c 47fe 733e
00000240: 3b52 b5bd 3ac2 99bd 331d 2a3d 8964 923e
00000250: 356b c3bd b13e f53e e5c9 dd3e d0e8 d4bd
00000260: 8864 0b3e 4f3c 33be fb50 8a3a b1c4 b83e
00000270: d303 3a3e 7a09 92be 7126 503c 14a8 e3be
00000280: 9d4b 943e 9587 9c3e 74e5 8abe 644d 1f3e
00000290: d936 3dbe ae95 32bd 744b e3bd 5bad b13e
000002a0: d053 e9bd dbe9 33be 8383 96be d172 49be
000002b0: d4b4 4c3e 2e6e aa3d f4cf 26be 80af 903e
000002c0: 9e77 60be c3fe 693e 3620 14bf 82d0 f3be
000002d0: 4729 e73d 88f5 36be 62c2 2c3e a586 a83e
000002e0: 0386 1ebe 82ea 9b3e 5f27 693e 744a 833c
000002f0: 7ae9 6a3d aae6 b2be 0dce 703e d27f c33d
00000300: c1bb cbbe 55c0 543c 5f8a 10bf eb17 58be
00000310: 79f8 cdbd 8f47 6e3e c080 2c3e 604e 413f
00000320: 5d23 4e3d 0d49 893e 84c5 853e e3fb 30be
00000330: 9673 7f3d 59f2 82be 41f0 a5be 5686 16be
00000340: 0eb4 90bd 8256 93be 0263 c73e b93b e73e
00000350: 0663 8ebe 1cb2 6e3d 978b d1bd d338 a1be
00000360: 2ecf 0a3f 7128 6fbe 56c6 1abe 9954 9fbe
00000370: 0163 363d 17f0 cb3e 3a06 82be 0746 9cbe
00000380: 8ef8 bfbc 203b efbe 57dd 653e 1940 bbbb
00000390: 6860 28be a4fd f9bd cdce c13e 5bdf 8cbe
000003a0: 7f81 803e ef92 cfbd 8afb 083e f7f7 8bbe
000003b0: 7be3 f0bd b6e4 343e 94bf b5bc e905 13bf
000003c0: 0796 e8be 0d3f cb3c 0295 22bf e72e 163d
000003d0: 873d 0fbe f633 dd3d fd0b d03e 0d98 1f3f
000003e0: db9d 6e3e 4e23 483e 9b4b 7e3e 7a63 0bbe
000003f0: 4b04 30be 143a b0be fb4c c1bd 6503 98be

gnn_base.gnn.gnn1.lin_key.bias f4 [48]
-0.04035529 -0.12696609 0.12910703 -0.14033338 0.08386274 0.13363178 -0.041844975 0.2286566
-0.120368294 0.11161937 0.16997422 -0.15301251 -0.002963436 0.19383538 -0.19727802 -0.12954217
-0.25091973 0.17239128 0.16766371 0.0397357 0.048538268 -0.23841578 0.1148183 -0.11980951
0.1334274 -0.1635729 -0.16981673 0.17645618 0.06849229 -0.073461644 -0.15981016 -0.22044699
0.17593037 -0.086890765 0.05315269 0.14830616 -0.0588112 -0.11822559 -0.1396197 0.020899825
-0.026101718 0.004377618 0.06208093 -0.22053985 0.12435724 -0.040438425 -0.2153463 -0.08965203
00000000: 974b 25bd 6603 02be a234 043e 8eb3 0fbe
00000010: 3ac0 ab3d c5d6 083e a365 2bbd f524 6a3e
00000020: a783 f6bd b298 e43d b90d 2e3e 50af 1cbe
00000030: 3536 42bb c87c 463e 4003 4abe b4a6 04be
00000040: 8d78 80be 5787 303e 09b0 2b3e e7c1 223d
00000050: 10d0 463d 4423 74be db25 eb3d b05e f5bd
00000060: 31a1 083e a87f 27be 70e4 2dbe eeb0 343e
00000070: b045 8c3d 0f73 96bd 46a5 23be dbbc 61be
00000080: 1727 343e c9f3 b1bd a3b6 593d 92dd 173e
00000090: 03e4 70bd 4220 f2bd 77f8 0ebe 1c36 ab3c
000000a0: 45d3 d5bc 1f72 8f3b 9348 7e3d 33d5 61be
000000b0: 02af fe3d c3a2 25bd be83 5cbe 7c9b b7bd

gnn_base.gnn.gnn1.lin_query.weight f4 [48, 16]
-0.094797045 0.036674958 0.2542794 -0.16512172 -0.074643135 0.40785757 0.2364127 0.33311602
-0.43951282 -0.074930124 0.3816712 0.12315281 -0.41131195 0.26172844 -0.14225915 -0.027173353
-0.07810993 0.38797668 -0.04464761 -0.057948556 -0.4867148 -0.3703183 -0.06637868 -0.26732042
0.3098294 0.34865162 -0.1995124 0.06406336 0.35649505 -0.56507665 0.051337652 0.027830249
0.12137515 0.08057876 -0.1870129 -0.28572783 -0.25242326 0.23133145 0.19464812 -0.07285265
-0.06750461 0.062842034 0.23147847 -0.3162947 -0.23253761 0.22864051 -0.041924942 -0.11768048
0.008984823 -0.59285575 0.50329214 0.28414446 0.23236245 0.13882063 -0.24779081 -0.31930646
-0.69361436 -0.016017651 -0.47902074 0.07125219 0.073000066 0.60508794 -0.023722157 -0.06683123
-0.07262497 -0.24173987 -0.13930434 0.20508502 -0.08968951 0.095006905 0.31828657 -0.39225855
0.0032948854 -0.24838512 -0.16705018 0.49422967 -0.1795576 -0.1434183 0.32617638 0.031564273
0.13339283 -0.33658588 0.32905832 0.15076506 0.35885733 0.17029773 -0.08271357 -0.03725691
-0.41898358 -0.35259825 -0.069160715 0.26680452 -0.20769088 -0.054182988 -0.53318596 0.049003605
-0.25797313 0.10673235 -0.29234505 -0.07261454 0.18249469 0.60561967 0.433194 0.06403376
-0.13531286 -0.33735636 0.1694701 0.14883322 -0.44491494 0.5388835 -0.5754748 -0.2824869
-0.059051905 0.03826407 0.36271763 0.057500638 0.14902256 0.2550468 -0.2934571 0.11897727
0.13105428 -0.2866524 0.16754985 0.087603725 0.08661547 -0.0018926366 0.10639294 0.22219393
0.38866818 -0.62256444 0.524591 0.4321635 0.11567603 -0.09296592 -0.09796457 -0.17176796
-0.5277363 -0.08870762 -0.4883129 0.13175638 0.3950633 -0.09696642 0.14704911 0.065644994
0.2307628 0.22283703 -0.1269333 -0.006838927 0.009662844 -0.17946912 -0.05763956 -0.26730573
0.4656375 0.25871238 -0.039438315 -0.2337994 -0.10071622 0.5680417 -0.38558385 -0.08631506
0.16851479 -0.22765411 0.44663692 0.20365402 0.14326715 -0.18987504 -0.032936674 0.05961104
-0.24207304 -0.21908113 0.3576607 -0.10310294 -0.23055787 -0.16067818 0.017190404 0.028360883
0.16645168 0.04040736 0.12021822 0.109172344 0.18140024 -0.2559299 -0.002979293 -0.21891107
0.109010555 0.15975356 -0.5287747 -0.23549126 0.6517693 -0.15781698 0.4601459 0.41120675
0.27680516 -0.24608919 0.027296659 0.22350517 -0.13678217 -0.26261672 -0.17516492 -0.12108456
0.65006775 0.6385152 -0.32838935 -0.21911065 0.31099033 -0.14593008 -0.0837654 0.10600181
-0.18170208 0.3758885 -0.116404995 -0.064649865 -0.10476169 0.041547805 0.38343292 0.501003
0.43471596 -0.10425094 0.47050244 -0.0923035 -0.7075324 0.014695399 -0.15810825 -0.31025195
0.2203442 0.19762371 -0.38575217 -0.43263867 -0.15369181 0.043409288 0.39572102 0.36999747
0.3470906 0.38086763 0.026545476 -0.13342 -0.18884061 0.0518475 0.33212256 -0.03351214
-0.00016503369 0.23712835 0.085247576 -0.12385136 -0.078326106 -0.5109851 -0.23935887 -0.101587154
0.57845074 0.20529924 -0.2548068 -0.6659134 0.1992979 -0.23314244 -0.0422778 -0.019110935
00000000: f424 c2bd 7b38 163d e930 823e ab15 29be
00000010: 80de 98bd b5d2 d03e 2c16 723e 2f8e aa3e
00000020: d307 e1be f774 99bd 686a c33e 8a37 fc3d
00000030: 7b97 d2be 4501 863e 62ac 11be a79a debc
00000040: 19f8 9fbd e1a4 c63e 6ae0 36bd 775b 6dbd
00000050: af32 f9be 5c9a bdbe 8cf1 87bd 39de 88be
00000060: f6a1 9e3e 7782 b23e fb4c 4cbe a733 833d
00000070: 8586 b63e dda8 10bf 6e47 523d 43fc e33c
00000080: 8993 f83d 7a06 a53d 4f80 3fbe eb4a 92be
00000090: 9f3d 81be 27e2 6c3e d651 473e c533 95bd
000000a0: db3f 8abd 53b3 803d b108 6d3e 61f1 a1be
000000b0: 571e 6ebe bd20 6a3e 7db9 2bbd 7702 f1bd
000000c0: 1435 133c 65c5 17bf c1d7 003f 627b 913e
000000d0: 6cf0 6d3e ff26 0e3e e0bc 7dbe 237c a3be
000000e0: b690 31bf 7337 83bc 3542 f5be abec 913d
000000f0: 0f81 953d 0be7 1a3f f854 c2bc d0de 88bd
00000100: 66bc 94bd a88a 77be cca5 0ebe cf01 523e
00000110: 22af b7bd fb92 c23d 75f6 a23e 1dd6 c8be
00000120: 01ef 573b ab58 7ebe 340f 2bbe ac0b fd3e
00000130: f3dd 37be 3fdc 12be 9700 a73e 8a49 013d
00000140: 2198 083e fc54 acbe 557a a83e 2862 1a3e
00000150: 26bc b73e 8762 2e3e bb65 a9bd b49a 18bd
00000160: 0485 d6be c287 b4be 22a4 8dbd 9a9a 883e
00000170: ebac 54be fbee 5dbd e07e 08bf 01b8 483d
00000180: 0e15 84be 7e96 da3d 40ae 95be efb6 94bd
00000190: e3df 3a3e e409 1b3f 9bcb dd3e 2224 833d
000001a0: 748f 0abe f9b9 acbe 9289 2d3e bc67 183e
000001b0: e4cb e3be 45f4 093f 5152 13bf 1fa2 90be
000001c0: 69e0 71bd c9ba 1c3d 20b6 b93e ca85 6b3d
000001d0: 5f99 183e 7f95 823e 0240 96be 5baa f33d
000001e0: 1833 063e 1ac4 92be 3092 2b3e 9569 b33d
000001f0: 7463 b13d 5912 f8ba 8be4 d93d ce86 633e
00000200: 84ff c63e 6260 1fbf 994b 063f 8944 dd3e
00000210: 8ee7 ec3d eb64 bebd a6a1 c8bd f1e3 2fbe
00000220: ba19 07bf 57ac b5bd 2604 fabe 25eb 063e
00000230: bd45 ca3e 5596 c6bd 0b94 163e e270 863d
00000240: 154d 6c3e 642f 643e cefa 01be 1419 e0bb
00000250: e850 1e3c c1c6 37be 7617 6cbd 4cdc 88be
00000260: 0a68 ee3e f375 843e 128a 21bd 1c69 6fbe
00000270: 4e44 cebd 2e6b 113f 3f6b c5be f3c5 b0bd
00000280: 248f 2c3e 291e 69be 98ad e43e ae8a 503e
00000290: a0b4 123e 9a6e 42be 9be8 06bd b52a 743d
000002a0: ffe1 77be ce56 60be 4e1f b73e a227 d3bd
000002b0: 5d17 6cbe d288 24be e4d2 8c3c 1555 e83c
000002c0: 4f72 2a3e 3082 253d f834 f63d c095 df3d
000002d0: fcc0 393e 3e09 83be 3e40 43bb 392a 60be
000002e0: ed40 df3d 7096 233e c75d 07bf 9f24 71be
000002f0: 5ada 263f c69a 21be 3e98 eb3e b189 d23e
00000300: 68b9 8d3e cefe 7bbe 3e9d df3c 8ade 643e
00000310: a010 0cbe b375 86be 6f5e 33be 2ffb f7bd
00000320: d76a 263f bb75 233f a622 a8be 8b5e 60be
00000330: 203a 9f3e b26e 15be 328d abbd 7a17 d93d
00000340: 1c10 3abe 7574 c03e be65 eebd 2667 84bd
00000350: 4c8d d6bd 082e 2a3d 5251 c43e bc41 003f
00000360: 1793 de3e 8481 d5bd b2e5 f03e 9e09 bdbd
00000370: d820 35bf f9c4 703c 21e7 21be 58d9 9ebe
00000380: e9a1 613e df5d 4a3e 4f81 c5be d182 ddbe
00000390: 6361 1dbe f0cd 313d f29b ca3e 4f70 bd3e
000003a0: dcb5 b13e 1501 c33e e675 d93c 419f 08be
000003b0: 6f5f 41be 0b5e 543d f80b aa3e 0744 09bd
000003c0: e50c 2db9 c6d1 723e 4896 ae3d c8a5 fdbd
000003d0: 7069 a0bd ebcf 02bf 7e1a 75be ed0c d0bd
000003e0: 5915 143f f739 523e 0976 82be 4d79 2abf
000003f0: c014 4c3e e4bc 6ebe 7d2b 2dbd 898e 9cbc

gnn_base.gnn.gnn1.lin_query.bias f4 [48]
-0.43748903 0.21446897 -0.056497242 0.07963624 0.029331518 -0.11798555 -0.59443665 0.00438225
0.28608915 0.022275468 -0.38242805 0.4412548 0.44720393 -0.07468107 0.31322134 0.17554007
0.23611256 0.18125844 -0.46405286 -0.34478712 0.11075311 -0.51873344 0.044132587 -0.03447729
-0.30958122 0.2438232 -0.2706697 -0.21169895 -0.05114804 0.20235433 -0.18041313 -0.15670253
0.23274927 0.3529766 0.18012902 -0.21834397 -0.39679083 -0.23786978 -0.20742923 -0.1863503
-0.47255173 0.029007645 0.14055456 0.18561034 -0.0758053 -0.23565033 0.22090727 0.16515367
00000000: 90fe dfbe c19d 5b3e a769 67bd 5318 a33d
00000010: a748 f03c 68a2 f1bd 002d 18bf fa98 8f3b
00000020: 477a 923e 0b7b b63c 9ccd c3be 26ec e13e
00000030: eaf7 e43e 64f2 98bd 8c5e a03e c7c0 333e
00000040: 7ec7 713e d09b 393e 5698 edbe f087 b0be
00000050: 87d2 e23d b7cb 04bf 5fc4 343d 0f38 0dbd
00000060: 6e81 9ebe caac 793e 3895 8abe 9cc7 58be
00000070: 9b80 51bd f935 4f3e 38be 38be a176 20be
00000080: d355 6e3e 59b9 b43e be73 383e 9095 5fbe
00000090: 2b28 cbbe 2394 73be 5468 54be 9dd2 3ebe
000000a0: 4df2 f1be 71a1 ed3c 89ed 0f3e a310 3e3e
000000b0: cf3f 9bbd 524e 71be 8435 623e 0b1e 293e

gnn_base.gnn.gnn1.lin_value.weight f4 [48, 16]
0.21293968 -0.070494525 0.66819566 -0.28977957 -0.26252586 0.13483463 -0.3953437 -0.2479653
-0.29234833 -0.4742045 -0.32513422 0.6828833 0.17221002 -0.31767973 0.2525586 0.33475006
0.608832 -0.5030681 0.34085345 -0.19512863 -0.19415045 -0.78913635 -0.55393875 -0.5640164
-0.3302418 0.41468355 0.0063328915 -0.16530596 0.103418656 0.053908642 -0.07011083 0.3133109
-0.28339627 -0.022704484 0.021240491 0.07570193 -0.3029742 -0.20202897 -0.056984372 0.15344326
0.39835152 -0.19506939 0.23031195 0.17985447 0.09423986 -0.31723067 0.34804943 0.032853194
-0.3960081 0.1921411 -0.076883286 0.20100513 0.12678547 0.14648438 0.22622272 0.23188156
0.06779562 -0.37853754 0.19027714 0.38777733 -0.031597227 -0.25034028 0.027268117 -0.52943975
0.18898298 -0.33231738 -0.11437513 0.050188363 0.08399226 0.17953946 -0.17338577 -0.28873816
0.44244742 0.1472452 0.31370288 0.08909 0.14317757 0.061861977 -0.023349395 0.09497641
-0.014816393 -0.29443386 0.3608184 0.20992537 -0.4777523 0.21563981 -0.23428042 0.13489395
-0.13348727 0.4529023 -0.20824318 0.07651033 0.31561443 -0.4989192 -0.32160854 0.16806059
-0.27461195 0.10370419 -0.18432246 -0.7254823 0.37821415 0.25444123 0.06662699 0.1984674
0.06549631 0.28628406 0.2293018 0.06553559 -0.12125863 -0.33610865 -0.19016182 -0.14187196
-0.15363213 0.08291381 -0.20956022 -0.24788727 0.030753514 0.14612137 0.29297543 -0.29642075
-0.018934203 -0.22215019 -0.10622008 -0.19668092 -0.24412361 0.38504866 0.04884136 -0.22103949
0.012437705 0.51602596 0.08345425 -0.5190889 -0.01989897 -0.03382221 0.17132008 0.09372852
-0.11801306 -0.011347304 -0.2043055 0.34857172 0.04531237 -0.01110933 0.43389764 0.32628483
0.020896295 0.15915287 -0.3309146 0.41075185 0.4771411 -0.19788904 0.17628677 -0.039495524
0.38085994 0.0056767697 0.04203951 -0.0004951177 -0.013249266 -0.11500428 0.10444554 -0.22135547
-0.09976655 0.23070095 -0.10439667 0.3641093 -0.11239113 -0.039395075 0.21659443 -0.29091343
0.19277544 0.14573352 0.22393443 -0.040457483 0.0034308708 -0.199423 0.16528818 0.21443893
-0.11326389 -0.12871851 -0.1492606 -0.32755625 0.18924466 0.08582529 0.40343788 0.57831687
0.25450313 0.053476248 0.22062168 -0.06876613 -0.13429287 0.37997723 -0.2153874 -0.17561437
0.047486834 0.12209902 -0.31934938 0.116799384 0.0046627484 -0.15518193 -0.14871746 -0.071946025
-0.14432667 0.124241106 0.21573196 -0.04441606 -0.015917988 0.10312914 -0.11720577 0.4269856
0.2035395 0.059005577 -0.040438585 -0.2130608 0.11727842 -0.36329332 -0.17672665 -0.15156926
0.2650516 0.10042927 0.118904784 -0.21765749 0.20829895 -0.29156846 -0.08960662 0.21870373
-0.11318542 0.4822149 -0.024010263 0.04773096 0.12363044 0.57574534 -0.14843509 0.17130479
-0.24497303 0.014575613 0.1929617 0.33752888 0.032220993 -0.28529146 -0.42374173 -0.36263165
0.0737448 -0.022855565 0.15832709 -0.43415472 -0.36964035 0.18350331 0.51743245 0.12576406
0.35581285 -0.39304996 0.12908809 0.43132144 -0.06155238 0.40083024 0.18390329 -0.28048596
00000000: dc0c 5a3e 6f5f 90bd df0e 2b3f fd5d 94be
00000010: ca69 86be 1712 0a3e 7d6a cabe 9eea 7dbe
00000020: aeae 95be efca f2be fe77 a6be 71d1 2e3f
00000030: d357 303e eba6 a2be 5c4f 813e 5c64 ab3e
00000040: 6adc 1b3f 12c9 00bf 5884 ae3e cdcf 47be
00000050: 60cf 46be d704 4abf eece 0dbf 6163 10bf
00000060: 7415 a9be 6751 d43e 2584 cf3b f745 29be
00000070: 29cd d33d 4fcf 5c3d 4496 8fbd 496a a03e
00000080: 5119 91be c1fe b9bc 8a00 ae3c 9d09 9b3d
00000090: 6f1f 9bbe afe0 4ebe 7268 69bd 3b20 1d3e
000000a0: bbf4 cb3e 45c0 47be e5d6 6b3e c52b 383e
000000b0: d400 c13d 0f6c a2be 8933 b23e 1291 063d
000000c0: 93c1 cabe a3c0 443e fc74 9dbd 4ad4 4d3e
000000d0: 0dd4 013e 0000 163e eea6 673e 5c72 6d3e
000000e0: 6ed8 8a3d accf c1be 03d8 423e c08a c63e
000000f0: 186c 01bd 9a2c 80be 6361 df3c 5d89 07bf
00000100: c184 413e 8125 aabe 823d eabd 5092 4d3d
00000110: 2204 ac3d 31d9 373e 0a8c 31be 7dd5 93be
00000120: 7888 e23e 72c7 163e aa9d a03e d174 b63d
00000130: 249d 123e fc62 7d3d 3b47 bfbc fe82 c23d
00000140: 75c0 72bc 09c0 96be 30bd b83e adf6 563e
00000150: f39b f4be afd0 5c3e 35e7 6fbe a421 0a3e
00000160: e3b0 08be cfe2 e73e b33d 55be 73b1 9c3d
00000170: 3798 a13e 5672 ffbe e0a9 a4be 1318 2c3e
00000180: f099 8cbe dd62 d43d 07bf 3cbe 35b9 39bf
00000190: 49a5 c13e 1f46 823e bb73 883d 0a3b 4b3e
000001a0: ee22 863d d393 923e 17ce 6a3e 8637 863d
000001b0: 7256 f8bd 6f16 acbe c8b9 42be e246 11be
000001c0: be51 1dbe b7ce a93d f496 56be 29d6 7dbe
000001d0: cbee fb3c d7a0 153e e000 963e 76c4 97be
000001e0: e71b 9bbc 577b 63be ea89 d9bd b966 49be
000001f0: 8afb 79be 1925 c53e e10d 483d 2d58 62be
00000200: 84c7 4b3c 471a 043f 10ea aa3d 03e3 04bf
00000210: 2a03 a3bc 2889 0abd 886e 2f3e bdf4 bf3d
00000220: d5b0 f1bd 0bea 39bc 7635 51be fe77 b23e
00000230: 7799 393d e803 36bc d527 de3e ce0e a73e
00000240: b52e ab3c f8f8 223e a36d a9be 114e d23e
00000250: d74b f43e 6da3 4abe 8584 343e 0fc6 21bd
00000260: 1300 c33e 3204 ba3b 9f31 2c3d c9ca 01ba
00000270: 7313 59bc 5d87 ebbd 8be7 d53d 02ab 62be
00000280: 6852 ccbd df3c 6c3e eccd d5bd 896c ba3e
00000290: 522d e6bd bb5c 21bd eeca 5d3e 9bf2 94be
000002a0: ed66 453e 2b3b 153e 114f 653e bfb6 25bd
000002b0: 76d8 603b 8b35 4cbe 4e41 293e e195 5b3e
000002c0: e6f6 e7bd c9ce 03be c5d7 18be 74b5 a7be
000002d0: 5ac9 413e 2bc5 af3d 698f ce3e 930c 143f
000002e0: 3c4e 823e e909 5b3d a6ea 613e 42d5 8cbd
000002f0: 1284 09be 608c c23e 848e 5cbe 41d4 33be
00000300: 8e81 423d 0d0f fa3d c381 a3be 8434 ef3d
00000310: f8c9 983b 03e8 1ebe 6449 18be 7058 93bd
00000320: 5fca 13be 1f72 fe3d d7e8 5c3e 9ded 35bd
00000330: 7166 82bc 5f35 d33d 9409 f0bd db9d da3e
00000340: a96c 503e d5af 713d eea2 25bd 9c2c 5abe
00000350: ab2f f03d 9501 babe d5f7 34be f934 1bbe
00000360: d8b4 873e dcad cd3d 5a84 f33d 9be1 5ebe
00000370: 524c 553e 7648 95be ad83 b7bd dff3 5f3e
00000380: c2cd e7bd dfe4 f63e 2cb1 c4bc 8a81 433d
00000390: f531 fd3d 0c64 133f 5eff 17be 866a 2f3e
000003a0: 36da 7abe 8dce 6e3c c097 453e 96d0 ac3e
000003b0: 29fa 033d b911 92be adf4 d8be dbaa b9be
000003c0: 8407 973d 983b bbbc 7f20 223e 8749 debe
000003d0: 8041 bdbe 4be8 3b3e 7476 043f 4bc8 003e
000003e0: 1a2d b63e d83d c9be ab2f 043e 2ad6 dc3e
000003f0: 591e 7cbd 9f39 cd3e 2551 3c3e db9b 8fbe

gnn_base.gnn.gnn1.lin_value.bias f4 [48]
-0.03237288 0.32258797 0.15649231 -0.007610526 -0.03481824 0.17965175 0.10693657 0.15261501
0.07710278 0.19092144 0.2217871 -0.020488203 -0.10903311 0.29363266 -0.33145946 0.04055471
-0.061910722 0.33284357 0.14870554 -0.3834773 -0.36126226 0.30237895 -0.12100848 -0.12582174
0.1184504 0.17363295 0.29020718 -0.31733608 0.047776274 0.13503453 -0.102855034 0.07034733
0.18728295 0.02828198 -0.009782852 -0.021288922 -0.058906835 -0.07275056 0.27954584 0.13556595
-0.14561631 0.037036166 -0.12960272 -0.2614811 -0.15458684 0.17152368 -0.20124115 0.039312035
00000000: 6d99 04bd 402a a53e 853f 203e b861 f9bb
00000010: 929d 0ebd a1f6 373e 8f01 db3d 1c47 1c3e
00000020: 10e8 9d3d e980 433e 281c 633e e0d6 a7bc
00000030: c04c dfbd 0557 963e 0eb5 a9be b21c 263d
00000040: 1996 7dbd 796a aa3e 4446 183e 2357 c4be
00000050: 5ef7 b8be 6ad1 9a3e 4bd3 f7bd 6ad7 00be
00000060: 2096 f23d d6cc 313e 0996 943e e079 a2be
00000070: 0eb1 433d 7e46 0a3e a9a5 d2bd 4312 903d
00000080: 1ac7 3f3e 9caf e73c 4148 20bc 1b66 aebc
00000090: 4b48 71bd 3ffe 94bd a220 8f3e cdd1 0a3e
000000a0: 711c 15be 3cb3 173d 93b6 04be dae0 85be
000000b0: 034c 1ebe e7a3 2f3e 2912 4ebe a805 213d

gnn_base.gnn.gnn1.lin_edge.weight f4 [48, 1]
1.3963116 0.15529889 0.55638236 0.5318036 0.2968312 -0.51094556 0.6890733 0.06997101
-0.878927 -0.2944047 -0.41785303 -0.21985386 -0.86665004 0.82686484 -0.28428182 -0.70963144
0.5222911 0.83201575 0.22853845 -0.25133783 -0.011291101 -0.29364815 0.7301932 -0.3543511
0.51275074 0.5614193 -1.0017633 -0.20286234 0.10517237 0.37073806 0.42939493 -0.19979368
-0.22449994 0.17398062 -0.32651985 0.2968897 0.6281233 -0.09409145 -0.79089296 0.11592966
1.0001211 0.06329368 0.3978942 -1.2579886 0.7590817 1.2815062 -0.29989192 -0.7214176
00000000: 57ba b23f ac06 1f3e 136f 0e3f 4824 083f
00000010: 42fa 973e 54cd 02bf 1c67 303f f64c 8f3d
00000020: 5c01 61bf 36bc 96be d5f0 d5be 5f21 61be
00000030: c7dc 5dbf 6aad 533f 638d 91be 68aa 35bf
00000040: dfb4 053f fcfe 543f fc05 6a3e 5aaf 80be
00000050: 4ffe 38bc 0d59 96be f1ed 3a3f 826d b5be
00000060: a243 033f 2db9 0f3f c839 80bf 25bb 4fbe
00000070: 9d64 d73d 61d1 bd3e a7d9 db3e b796 4cbe
00000080: 50e3 65be fa27 323e 9c2d a7be ed01 983e
00000090: b0cc 203f 05b3 c0bd f677 4abf 886c ed3d
000000a0: f803 803f 1ea0 813d cab8 cb3e c505 a1bf
000000b0: 2e53 423f 6508 a43f 6f8b 99be d3ae 38bf

gnn_base.gnn.gnn1.lin_skip.weight f4 [16, 16]
-0.013853069 0.026852995 -0.058941178 -0.019689063 0.21388909 -0.05325072 0.15099335 -0.18951266
-0.3648073 -0.27174503 -0.16515978 0.21587613 0.2423501 -0.35073835 0.23383586 0.2419477
-0.2772465 -0.40933 0.19212915 0.20938979 0.14182469 -0.33530232 -0.29136887 -0.12568808
0.06906072 -0.03199999 -0.29488108 -0.114568114 0.1849539 0.074068956 -0.23205721 0.031191444
-0.188575 -0.18137024 -0.16220814 0.2250651 0.24471557 0.2059477 -0.36999393 0.37566555
-0.00784035 0.33186698 0.2957063 -0.0007676394 0.29952088 -0.11126322 0.020214338 -0.15731858
-0.25287378 0.0018370978 -0.043336052 -0.11665705 -0.08762417 0.12943214 0.14923 -0.044026725
0.033755306 0.20364656 0.05830025 0.38470918 0.016807495 -0.00679628 -0.4596359 -0.22512877
0.2999939 -0.0016382767 0.09888915 0.05997495 -0.17743957 -0.15205008 -0.05019086 -0.05900876
-0.10162225 -0.09028884 -0.20973668 -0.08820969 -0.27233234 -0.035560414 0.24890181 0.0527267
0.14471886 -0.048105203 0.08635719 -0.24629 -0.4077318 0.211419 -0.16834313 0.05314943
0.101757266 -0.06491347 0.38365582 0.2107188 0.14558648 0.1988516 0.1217578 -0.2928134
-0.18493879 0.20960672 0.10786178 -0.053378966 0.13773797 -0.42098415 -0.37999147 -0.06233289
0.010451246 0.24350831 -0.065551825 0.054208916 0.1755079 -0.22043318 0.061881773 0.1398387
0.10701449 -0.22583981 0.21451585 -0.20720877 -0.36822727 -0.2687584 -0.2204437 -0.21265833
0.18714863 -0.33093807 0.019759607 0.060736496 0.042579528 0.051157556 -0.24169895 0.18151052
-0.18485084 0.38667977 -0.34371555 0.36712962 0.5040559 -0.1431301 0.00989822 -0.26611045
-0.24859716 0.062154043 -0.41987768 0.053541847 0.05069096 0.117261484 0.24561815 0.20993076
0.096706025 -0.08620882 0.031132283 -0.112782665 -0.22475588 -0.29114914 0.19453244 -0.3816368
0.07806551 0.015176774 0.11871315 0.11260024 0.06462873 0.16588975 0.056108266 0.19771113
0.33145204 -0.34071133 0.07171111 0.21948856 -0.2575802 0.04626142 0.13219467 -0.25902855
0.44521752 -0.12354684 -0.17920578 0.14536141 0.0270166 0.1414627 -0.021447768 0.31126764
-0.13151538 -0.076359116 -0.20398106 -0.06798613 0.29782477 0.40515417 0.25176522 0.09703796
0.070917994 0.16650547 -0.08733512 -0.032036852 0.118606694 0.595661 -0.0779547 -0.10750969
0.2860619 0.29661524 0.12211532 -0.5919956 -0.16571674 -0.11736458 -0.07328197 0.2734328
-0.012502134 0.045796964 0.12070555 -0.1761539 -0.16724451 -0.22135252 0.4218472 0.24139081
-0.13682821 -0.34565884 0.026055215 0.052696627 0.16265011 -0.26985896 -0.198406 0.036450844
0.1186694 0.02741471 0.266307 -0.20363915 0.0077978205 0.058261342 -0.35080948 0.022530375
0.01671747 0.13804147 -0.08407794 0.16019098 -0.05191712 0.49323758 0.2147386 0.026594112
0.021608548 -0.25166613 0.028624518 0.22420539 -0.18974224 -0.11711516 0.03220387 -0.641009
0.09958164 0.28166893 -0.07018444 0.03741836 0.25465426 0.3545953 0.3999109 0.24115844
-0.12019448 -0.32569966 -0.10900749 0.15409271 -0.11780235 0.026495235 -0.32722288 -0.21342923
00000000: fcf7 62bc d0fa db3c 4e6c 71bd f54a a1bc
00000010: be05 5b3e 6d1d 5abd 009e 1a3e 9b0f 42be
00000020: 06c8 babe 2a22 8bbe a51f 29be a20e 5d3e
00000030: a02a 783e fa93 b3be ab72 6f3e 23c1 773e
00000040: 41f3 8dbe b493 d1be 81bd 443e 476a 563e
00000050: 7e3a 113e bfac abbe 4d2e 95be 60b4 00be
00000060: b56f 8d3d 6c12 03bd a7fa 96be b0a2 eabd
00000070: 8e64 3d3e 77b1 973d 68a0 6dbe 3385 ff3c
00000080: ce19 41be 1fb9 39be e419 26be 7777 663e
00000090: b896 7a3e f4e3 523e d86f bdbe 3c57 c03e
000000a0: d074 00bc 78ea a93e d166 973e 683b 49ba
000000b0: cd5a 993e f9dd e3bd 8a98 a53c 1f18 21be
000000c0: ac78 81be c6ca f03a 2581 31bd e4e9 eebd
000000d0: 4d74 b3bd dc89 043e c0cf 183e 5e55 34bd
000000e0: 0143 0a3d b988 503e 3ecc 6e3d 9af8 c43e
000000f0: dfaf 893c 54b3 debb 6655 ebbe 2888 66be
00000100: cd98 993e 72bb d6ba 6586 ca3d 4ba8 753d
00000110: b8b2 35be 04b3 1bbe ee94 4dbd 2bb3 71bd
00000120: 541f d0bd 5be9 b8bd 36c5 56be 48a7 b4bd
00000130: 256f 8bbe cca7 11bd 1ee0 7e3e f4f7 573d
00000140: 2e31 143e f609 45bd 0adc b03d 7233 7cbe
00000150: 39c2 d0be 397e 583e 2462 2cbe 37b3 593d
00000160: 1d66 d03d 5af1 84bd 896e c43e abc6 573e
00000170: 9f14 153e c19f 4b3e 275c f93d a3eb 95be
00000180: 9860 3dbe 25a3 563e a3e6 dc3d e7a3 5abd
00000190: 2f0b 0d3e 3c8b d7be 3e8e c2be c650 7fbd
000001a0: b43b 2b3c 3e5a 793e 0940 86bd 2b0a 5e3d
000001b0: 58b8 333e 3cb9 61be be77 7d3d e031 0f3e
000001c0: 6a2a db3d 8d42 67be 0baa 5b3e 892e 54be
000001d0: 4988 bcbe b39a 89be febb 61be 1bc3 59be
000001e0: e4a3 3f3e b770 a9be e6de a13c d5c6 783d
000001f0: df67 2e3d 968a 513d ee7f 77be e5dd 393e
00000200: 8a49 3dbe e4fa c53e 7cfb afbe 6af8 bb3e
00000210: cf09 013f b290 12be 252c 223c a13f 88be
00000220: 4190 7ebe 3d95 7e3d 35fa d6be b24e 5b3d
00000230: 53a1 4f3d ca26 f03d 5383 7b3e 17f8 563e
00000240: cf0d c63d 408e b0bd 2109 ff3c 99fa e6bd
00000250: 6826 66be 8011 95be 8333 473e e665 c3be
00000260: cfe0 9f3d 01a8 783c e11f f33d f49a e63d
00000270: 115c 843d 01df 293e c8d1 653d c974 4a3e
00000280: 15b4 a93e b771 aebe 46dd 923d 9cc1 603e
00000290: 8de1 83be 9d7c 3d3d 0a5e 073e 649f 84be
000002a0: 8df3 e33e 2006 fdbd b881 37be 9fd9 143e
000002b0: eb51 dd3c 99db 103e 3bb3 afbc 795e 9f3e
000002c0: f8ab 06be 2b62 9cbd 69e0 50be 503c 8bbd
000002d0: 7d7c 983e 5e70 cf3e 5fe7 803e d7bb c63d
000002e0: 743d 913d 6980 2a3e c1dc b2bd 1339 03bd
000002f0: 11e8 f23d 3d7d 183f b7a6 9fbd 0a2e dcbd
00000300: b576 923e f4dd 973e 9917 fa3d 068d 17bf
00000310: a6b1 29be d75c f0bd dc14 96bd 62ff 8b3e
00000320: c0d5 4cbc 9995 3b3d 7934 f73d b061 34be
00000330: 2542 2bbe 3caa 62be 5bfc d73e 272f 773e
00000340: b21c 0cbe 32fa b0be bf71 d53c 6bd8 573d
00000350: c08d 263e f42a 8abe f12a 4bbe 7b4d 153d
00000360: f108 f33d d094 e03c 6459 883e c886 50be
00000370: dc84 ff3b 72a3 6e3d 4d9d b3be 9f91 b83c
00000380: 13f3 883c be5a 0d3e 0e31 acbd 1b09 243e
00000390: 0ca7 54bd a389 fc3e 70e4 5b3e e5db d93c
000003a0: 6904 b13c 62da 80be f77d ea3c 1996 653e
000003b0: ca4b 42be 13da efbd 35e8 033d 2a19 24bf
000003c0: 75f1 cb3d e936 903e dcbc 8fbd ff43 193d
000003d0: 0b62 823e 848d b53e 1fc1 cc3e 3df2 763e
000003e0: 8628 f6bd 1bc2 a6be 523f dfbd 7bca 1d3e
000003f0: 5c42 f1bd 890c d93c c289 a7be 318d 5abe

gnn_base.gnn.gnn1.lin_skip.bias f4 [16]
0.06659169 0.4009414 0.059811812 -0.34246838 -0.1227649 0.10831202 0.051950544 0.110202104
-0.1238273 0.14324899 -0.07053036 -0.05824688 -0.026264327 0.09500608 -0.092352636 -0.12856199
00000000: 3961 883d 3148 cd3e 3bfd 743d 0458 afbe
00000010: 2a6c fbbd b1d2 dd3d 18ca 543d a4b1 e13d
00000020: 2b99 fdbd ddaf 123e 3972 90bd 4894 6ebd
00000030: 4928 d7bc 8c92 c23d 6123 bdbd c1a5 03be

gnn_base.gnn.gnn2.0.lin_key.weight f4 [48, 16]
0.29999876 0.22531186 0.27205232 0.04429655 -0.13036962 0.15763475 0.13915546 0.12424452
-0.22401741 -0.17017913 -0.40641958 -0.59834844 0.454614 0.30468488 0.3789928 -0.16783528
0.19887635 -0.0015654286 0.26716542 0.37031168 -0.29900694 0.50540185 -0.06758169 -0.10490194
-0.17069621 -0.11235296 -0.23212616 -0.5968871 0.07347224 -0.33401075 -0.0080805505 0.121903785
0.116880186 0.07059136 0.15564768 -0.13149081 0.20653358 0.004479518 0.042715527 -0.17350681
-0.16682099 -0.27987438 0.07581144 0.5460001 -0.35527146 0.12151269 -0.024731398 0.02660961
0.5587912 0.09540528 0.19842504 0.18065175 -0.01662599 0.2909213 -0.026219971 -0.29732195
-0.054112215 -0.3419948 -0.4977783 -0.39461675 0.016431717 0.114588626 -0.07441288 0.110649236
-0.33769095 0.07400309 0.6832899 -0.124319695 0.08003577 0.112983465 0.57788026 0.2547199
0.2589257 0.16933976 0.28985807 0.27408838 -0.13101952 0.019855406 -0.10435096 0.43108562
-0.39548615 0.12965345 -0.17982674 -0.42698327 0.15997317 -0.48964408 -0.21762346 0.4632682
-0.0024515553 0.10936556 0.6395055 0.29896167 -0.24525663 -0.21161619 -0.01972542 -0.053509317
-0.13446479 -0.32511196 -0.32703063 -0.33933252 0.00083573733 -0.037807733 0.15789343 0.30886853
0.44280648 0.51117074 0.46945497 0.37890473 0.003518576 -0.5223454 -0.09659154 0.18024741
-0.02735672 0.26696452 0.19993682 -0.5111083 0.21487926 -0.4091525 0.27655637 0.45703968
0.25886723 -0.24728589 0.24559544 0.08598561 0.003130609 0.52993923 0.036346924 -0.11839329
0.076235846 0.22238405 0.22878002 -0.12219115 -0.16157544 -0.054353986 0.014246161 0.41206104
-0.11102044 -0.065946974 0.10507743 -0.59871525 0.32339528 -0.079959385 0.20472991 0.0054761455
-0.38399962 -0.54568374 -0.26584587 -0.30226707 0.03879598 0.10815325 0.17967273 0.4061874
0.15026817 0.47329062 0.50375587 -0.19246948 -0.08721013 -0.6193138 -0.29472253 -0.10792733
-0.08312061 -0.15646723 0.25652322 -0.067841955 -0.17587602 0.2023012 0.19799174 0.5650988
0.2053125 -0.16104913 0.10143107 -0.448308 0.21642065 -0.19014661 -0.012640005 -0.119147785
-0.3855722 -0.32659182 -0.13340484 -0.4428651 0.228021 -0.15969415 0.10972554 0.5842555
0.43373218 0.38237023 0.4942124 0.21720684 -0.097414106 -0.22910437 0.063351035 0.021172652
0.40341628 0.3051698 0.08387314 0.26889524 -0.3304147 0.44472507 0.26437515 -0.36707476
-0.25078258 -0.0042205467 -0.41351897 -0.26350132 0.091683015 -0.12941043 0.100674756 -0.16414061
0.326066 0.111576416 0.39549628 0.43367955 -0.031706125 0.51112384 -0.06255621 -0.22406204
-0.41915783 -0.4402186 -0.3815302 -0.22676034 0.01706634 -0.00927319 -0.036693357 0.14724922
-0.2597495 0.2985152 0.49914292 0.27276018 -0.3356378 0.15409508 0.31129113 -0.089013375
0.14907257 0.08218609 -0.25456974 0.33209184 -0.070787035 0.4820375 0.18739475 0.14205882
-0.568421 -0.47087628 0.010463149 -0.39356297 0.19572793 -0.25081956 -0.03060209 -0.089762844
-0.031837817 0.37860498 0.29695687 0.5129864 -0.19904491 -0.151151 -0.094933145 0.29185528
00000000: 7099 993e 27b8 663e 714a 8b3e 4d70 353d
00000010: 9d7f 05be 016b 213e c57e 0e3e e973 fe3d
00000020: d264 65be 7043 2ebe 3a16 d0be 5d2d 19bf
00000030: 2bc3 e83e a8ff 9b3e 580b c23e 03dd 2bbe
00000040: 3ea6 4b3e 112f cdba e8c9 883e 7e99 bd3e
00000050: 7017 99be 0462 013f 4568 8abd d4d6 d6bd
00000060: fdca 2ebe 4f19 e6bd 7bb2 6dbe 98cd 18bf
00000070: 9d78 963d 7503 abbe 4964 04bc b1a8 f93d
00000080: e15e ef3d 3492 903d 1b62 1f3e 87a5 06be
00000090: 8a7d 533e ecc8 923b 7af6 2e3d c5ab 31be
000000a0: 1fd3 2abe b24b 8fbe 0743 9b3d aac6 0b3f
000000b0: 24e6 b5be a5db f83d 8099 cabc 66fc d93c
000000c0: f10c 0f3f d863 c33d ef2f 4b3e c6fc 383e
000000d0: 3a33 88bc a3f3 943e 44cb d6bc 953a 98be
000000e0: c5a4 5dbd f119 afbe ccdc febe 350b cabe
000000f0: cf9b 863c 71ad ea3d c865 98bd 119c e23d
00000100: d4e5 acbe ef8e 973d 16ec 2e3f 539b febd
00000110: cbe9 a33d e063 e73d f6ef 133f a66a 823e
00000120: e991 843e 6767 2d3e 4768 943e 5055 8c3e
00000130: fb29 06be cea7 a23c f5b5 d5bd 41b7 dc3e
00000140: 297d cabe e0c3 043e 8024 38be 8d9d dabe
00000150: 02d0 233e a1b2 fabe afd8 5ebe 7d31 ed3e
00000160: 46aa 20bb 0dfb df3d a2b6 233f 8111 993e
00000170: 8e24 7bbe eab1 58be 3497 a1bc 962c 5bbd
00000180: 23b1 09be 1375 a6be 8f70 a7be febc adbe
00000190: 6215 5b3a 48dc 1abd d1ae 213e 0424 9e3e
000001a0: 88b7 e23e 16dc 023f 675c f03e cdff c13e
000001b0: e997 663b 6eb8 05bf c9d1 c5bd c792 383e
000001c0: 331b e0bc 93af 883e 3dbc 4c3e fed7 02bf
000001d0: 4f09 5c3e 707c d1be cc98 8d3e 1b01 ea3e
000001e0: 3f8a 843e 8338 7dbe 5f7d 7b3e 3919 b03d
000001f0: e72a 4d3b 19aa 073f 83e0 143d 2e78 f2bd
00000200: 8a21 9c3d a5b8 633e 4f45 6a3e 5b3f fabd
00000210: 0874 25be 49a2 5ebd bb68 693c aaf9 d23e
00000220: af5e e3bd 350f 87bd d632 d73d 6745 19bf
00000230: 1194 a53e bfc1 a3bd b8a4 513e 3d71 b33b
00000240: 999b c4be eeb1 0bbf f31c 88be c0c2 9abe
00000250: 89e8 1e3d 737f dd3d 21fc 373e cbf7 cf3e
00000260: e6df 193e 2653 f23e 25f6 003f b816 45be
00000270: 3a9b b2bd 598b 1ebf dfe5 96be 0109 ddbd
00000280: 233b aabd f238 20be 0357 833e b9f0 8abd
00000290: d818 34be 0c28 4f3e 59be 4a3e 51aa 103f
000002a0: 713d 523e 10ea 24be 18bb cf3d a088 e5be
000002b0: 609d 5d3e cbb5 42be 0618 4fbc c103 f4bd
000002c0: b869 c5be 0b37 a7be 479b 08be 37bf e2be
000002d0: 567e 693e dd86 23be c9b7 e03d c591 153f
000002e0: 2512 de3e 08c6 c33e 6809 fd3e 786b 5e3e
000002f0: 0c81 c7bd 569a 6abe 30be 813d 4572 ad3c
00000300: 948c ce3e 373f 9c3e aec5 ab3d a3ac 893e
00000310: 1e2c a9be 01b3 e33e 2e5c 873e 39f1 bbbe
00000320: 9366 80be 834c 8abb c2b8 d3be a5e9 86be
00000330: 4ec4 bb3d 2b84 04be 912e ce3d 7a14 28be
00000340: 1ff2 a63e 2d82 e43d 7d7e ca3e 3f0b de3e
00000350: 48de 01bd 03d9 023f 781d 80bd 8570 65be
00000360: db9b d6be 5564 e1be ed57 c3be dd33 68be
00000370: b6ce 8b3c 94ee 17bc c64b 16bd 80c8 163e
00000380: e3fd 84be fcd6 983e a98f ff3e 39a7 8b3e
00000390: b8d8 abbe 1acb 1d3e 8d61 9f3e a54c b6bd
000003a0: 7ba6 183e 2e51 a83d f756 82be f107 aa3e
000003b0: cbf8 90bd 9fcd f63e 69e4 3f3e de77 113e
000003c0: 0a84 11bf b216 f1be a16d 2b3c 1681 c9be
000003d0: e76c 483e 6c6b 80be 3cb1 fabc 95d5 b7bd
000003e0: 5f68 02bd 83d8 c13e bb0a 983e 1453 033f
000003f0: 6ed2 4bbe 54c7 1abe 4f6c c2bd 0e6e 953e

gnn_base.gnn.gnn2.0.lin_key.bias f4 [48]
-0.22161359 0.07308365 -0.20246595 0.00200406 0.21422376 -0.03664264 -0.15204221 -0.22038402
-0.042678088 0.0005442031 0.059409056 0.035491206 0.24388313 0.010494521 -0.003942974 0.2124905
-0.08393675 0.11499461 0.18760937 -0.11821945 -0.15358274 0.14954425 0.16077073 0.2379661
-0.22922915 0.2405556 0.035323333 -0.17130266 -0.0927966 0.059870765 0.1497518 0.18827412
0.004306948 -0.16858187 -0.113758825 -0.11025225 0.07661156 -0.11710716 0.24744995 0.024192877
-0.05361828 -0.22793461 0.1408223 0.106688164 -0.05061682 -0.061893243 0.071581215 -0.079542086
00000000: acee 62be e1ac 953d 3c53 4fbe 8c56 033b
00000010: 795d 5b3e 9816 16bd f4b0 1bbe 59ac 61be
00000020: 38cf 2ebd daa8 0e3a e956 733d 3a5f 113d
00000030: 80bc 793e 36f1 2b3c 1034 81bb 1c97 593e
00000040: 08e7 abbd 4b82 eb3d ac1c 403e 0a1d f2bd
00000050: cb44 1dbe 2122 193e 15a1 243e 63ad 733e
00000060: 0cbb 6abe 3554 763e 33af 103d f769 2fbe
00000070: 250c bebd 0c3b 753d 8958 193e eeca 403e
00000080: 4c21 8d3b baa0 2cbe 63fa e8bd efcb e1bd
00000090: 86e6 9c3d e1d5 efbd 8563 7d3e 2430 c63c
000000a0: d79e 5bbd b167 69be b933 103e 537f da3d
000000b0: 9553 4fbd c583 7dbd 2c99 923d f6e6 a2bd
