onpolicy/trained_models/informal_sat_3_graph/files/actor.pt (torch, 194373 bytes, 58 tensors)

gnn_base.gnn.embed_layer.layer_norm.weight f4 [16]
000000 b5 52 50 3f 97 c1 64 3f e6 dc 76 3f 0b f6 75 3f
       0.813762 0.89357895 0.96430814 0.96078557
000010 63 8a b0 3f f1 a9 69 3f 1f 56 8d 3f 81 e2 55 3f
       1.3792232 0.91274935 1.1041907 0.8354874
000020 24 3c 6a 3f 57 56 88 3f 37 da 8c 3f 54 15 72 3f
       0.9149802 1.0651349 1.1004094 0.94563794
000030 2c 92 8a 3f 9f dd 87 3f 2c 8a 8d 3f 40 b4 7c 3f
       1.0825858 1.0614508 1.1057792 0.9871254

gnn_base.gnn.embed_layer.layer_norm.bias f4 [16]
000000 1c 39 c7 bd 5a bd cf 3d 86 00 1f be 63 91 30 3c
       -0.097276896 0.10143538 -0.15527543 0.01077685
000010 c1 e4 e9 3d 32 e3 95 bd b8 6c a3 bd a1 62 f4 3d
       0.114205845 -0.07318725 -0.07979721 0.119328745
000020 ee 04 a4 3d 2d e0 b6 3b db cd 20 bb d0 0d d4 bc
       0.08008753 0.005580923 -0.0024536762 -0.025885493
000030 f7 0e f2 3c 1a 1b 3d bd 60 08 8e b9 37 ff 86 3d
       0.029548151 -0.046168424 -0.0002709059 0.06591647

gnn_base.gnn.embed_layer.entity_embed.weight f4 [3, 2]
000000 f0 2d 1c 3f eb 30 1a 3e 91 90 94 3d 65 67 df 3e
       0.61007595 0.15057723 0.07254136 0.4363357
000010 52 06 b6 be c9 4d d2 be
       -0.35551697 -0.4107497

gnn_base.gnn.embed_layer.lin1.weight f4 [16, 7]
000000 e1 c1 90 3e dc 83 01 3c 58 16 e0 be 80 63 33 3f
       0.28272918 0.007904973 -0.43767047 0.700737
000010 b1 7d 13 bf ee 82 3c 3d 3e 60 56 be 9e df e0 3e
       -0.57613665 0.0460233 -0.20935151 0.43920606
000020 44 b2 f4 3e 91 5f 47 be 8d 4c d1 bc bb 73 c2 be
       0.47792256 -0.1947005 -0.025549198 -0.3797892
000030 6a b6 24 3d 75 69 6f bf c3 41 a2 3e 16 fe e0 3e
       0.040213026 -0.9352029 0.31690797 0.43943852
000040 c4 1e 81 3d 57 4d ab be 86 d3 84 3e 95 20 c2 3e
       0.06304696 -0.33457443 0.2594263 0.37915483
000050 a0 ae 74 3e 3b 9d bd 3e 63 18 9a 3c f3 4a 35 3f
       0.23894739 0.3703402 0.018810457 0.7081749
000060 c9 c6 ec be 62 a8 6c 3e 5b 76 ab 3d 8e ed bc ba
       -0.4624541 0.23111108 0.08372184 -0.0014414059
000070 f1 d3 fe 3e 62 65 2c bf 9c 52 e2 bc b4 c2 47 be
       0.49771073 -0.673422 -0.027627282 -0.19507867
000080 88 e2 3f 3f ba 92 d1 be 30 18 be bd 5a f6 58 3e
       0.74955034 -0.40932256 -0.09281957 0.21187726
000090 91 40 0c bf e8 31 e6 3e b6 e4 9d bd b0 6f 99 3e
       -0.5478602 0.4495995 -0.07709639 0.29968023
0000a0 9a 20 8e bc 7d 02 18 3e b8 e1 2c be 25 46 8c bf
       -0.01734953 0.14844699 -0.1688298 -1.0958906
0000b0 f4 7e ba 3e 25 54 22 be b5 00 87 3d 39 38 07 3f
       0.36424983 -0.15852411 0.06591932 0.52820164
0000c0 3b 4b f0 be 49 f0 17 3c 98 ab 20 bf 0a 0f d9 be
       -0.46932396 0.009273597 -0.6276183 -0.42394286
0000d0 e9 c3 31 3e fa 10 c2 3e 07 a7 ab 3e d9 33 f2 bd
       0.1735989 0.37903577 0.3352587 -0.118262954
0000e0 cb 8f 20 be 11 73 f0 3e 52 5b 02 3f bb 08 9c 3e
       -0.15679853 0.4696279 0.50920594 0.3047541
0000f0 de db 9e be 7a 1c 4f bf a7 6d 25 bd d5 0a 9a be
       -0.3102712 -0.80902827 -0.040387776 -0.3008639
000100 70 6a e6 bd d9 95 a6 be 36 70 0a 3f 66 b1 85 3e
       -0.1125077 -0.325362 0.5407747 0.26111907
000110 ec 9d 2e 3e f7 06 4b 3d ca b6 bd be 51 fd 95 be
       0.1705243 0.04956719 -0.3705352 -0.29294828
000120 97 9e 50 be 77 19 ce 3d 01 65 f6 bc 84 34 48 be
       -0.20372997 0.10063451 -0.03007746 -0.19551283
000130 27 6d 7c bf fc 12 de 3d 51 49 cd be 8e f5 12 3f
       -0.98604053 0.10843465 -0.40094998 0.57405937
000140 bb 28 ff 3e 9b ac 29 3e 73 3b a3 3e 0f 6b c4 be
       0.49835762 0.1656975 0.31881294 -0.3836293
000150 71 74 41 bf 95 26 7d 3e 4e ba b7 be 6b a0 1f 3f
       -0.755683 0.24721749 -0.35884327 0.62354153
000160 a4 dc a8 3d 46 50 9c 3e 75 90 48 bd 5a 4c 91 3f
       0.08245209 0.30529994 -0.04896589 1.1351426
000170 d1 f9 18 3e c7 09 c1 3e 85 d6 5d 3f c3 2d 87 3e
       0.14939047 0.37702772 0.86655456 0.264021
000180 a1 f3 09 3f ad bf 32 bd 9f fd 4b 3e 51 a7 a9 be
       0.53887373 -0.043639828 0.19920968 -0.33135465
000190 11 f4 ee bc 42 58 9a 3e a2 2c 78 be 64 b4 db be
       -0.029169114 0.3014546 -0.24235776 -0.42911065
0001a0 33 f7 25 3f 5d 4f 5a bd 71 26 b9 3d 3b 82 bc 3d
       0.6483032 -0.053298343 0.09040535 0.09204527
0001b0 d9 69 db 3d c7 62 1c 3f dc 19 a2 be e6 c1 9a be
       0.10713548 0.6108822 -0.31660354 -0.30226058

gnn_base.gnn.embed_layer.lin1.bias f4 [16]
000000 31 a8 19 be 58 91 d0 bd 71 2e 08 be 8e fb 78 bc
       -0.15005566 -0.10183972 -0.13298966 -0.015196694
000010 15 5c 46 3d d9 c3 c0 3c 97 2d 2f 3e 13 3c d5 3c
       0.04842766 0.023530887 0.17107235 0.026029622
000020 58 d0 2e 3e 28 fd 33 3e 52 0c 80 be df e2 7b bd
       0.17071664 0.1757704 -0.250094 -0.061495658
000030 25 57 dc 3c f4 ea 31 be f0 92 f9 bc 2d 62 1b 3e
       0.026897023 -0.17374784 -0.030465573 0.1517417

gnn_base.gnn.embed_layer.layers.0.weight f4 [16, 16]
000000 c9 91 ac bb 04 d5 8d be 62 b9 25 bf 7c 2f 0d 3e
       -0.0052664024 -0.2770158 -0.64735997 0.13787645
000010 bf d8 2e 3d a8 99 89 3d a7 ee a7 bd 4a d2 13 3e
       0.042687174 0.06718761 -0.08199816 0.14435688
000020 18 6e 4e be 0d 15 ae be 3a 2d 5e 3e 9b c4 f6 3e
       -0.20159185 -0.34000435 0.2169694 0.48196873
000030 a9 43 16 bf 4e 53 3a be d4 07 54 3f 98 59 43 bf
       -0.5869699 -0.1819584 0.82824445 -0.76308584
000040 67 5c 9a be b1 d2 39 3e 36 f4 24 bf 85 e1 86 be
       -0.30148622 0.18146779 -0.64435136 -0.26343933
000050 86 6e 42 3e bf ad e2 3e f3 d2 ba 3e 13 d9 49 be
       0.18987474 0.44273183 0.36489066 -0.19711713
000060 62 a3 08 3f 66 cd 16 bf b1 41 af 3e a8 e1 c5 3e
       0.533743 -0.58907163 0.34229806 0.38648725
000070 03 72 8d 3d 2b 84 b9 3d 84 da 54 be c5 8b bc bd
       0.06906512 0.09058412 -0.20786482 -0.092063464
000080 22 9c 11 bf b5 21 c4 bd 52 e1 4f 3e 88 7a 96 be
       -0.56878865 -0.095767416 0.20300797 -0.2939036
000090 07 82 ca be a7 69 d7 be 38 73 42 3f ea 76 ac 3d
       -0.39552328 -0.42072794 0.7595706 0.084211186
0000a0 70 40 18 3e b4 b2 55 be 99 6b e3 3e be 0a 05 be
       0.14868331 -0.20868951 0.44418028 -0.12992379
0000b0 bf ab 19 bf a6 5b e0 bd 5a ad 97 be c4 03 90 be
       -0.6002769 -0.109549806 -0.29624444 -0.28127873
0000c0 92 5a a4 3e a5 09 c8 bd 91 44 5c be 99 4d a1 3e
       0.3210035 -0.097674645 -0.21510531 0.31504515
0000d0 43 22 c2 be f6 c7 c7 3e 88 50 9b 3d 3e d7 e2 be
       -0.37916765 0.39019746 0.075837195 -0.44304842
0000e0 33 35 55 be fd 19 a0 3e 63 3f 85 3e 38 c6 2f be
       -0.20821075 0.31269827 0.26024923 -0.17165458
0000f0 d8 05 e2 be 52 7b 7d 3f fa 05 f1 3d 73 16 55 3e
       -0.44145083 0.99016297 0.11768718 0.20809345
000100 43 01 63 bf 0d 7e 2e bf 72 8f d7 be d8 31 fc bc
       -0.886738 -0.6816109 -0.42101628 -0.030785486
000110 d2 e0 d2 3e 88 95 a9 be e7 00 74 3e 7b 22 62 3e
       0.4118715 -0.33121896 0.23828469 0.22083466
000120 53 f1 72 bc b5 af f7 3e 95 88 ea bd b2 ec 1b 3f
       -0.014828044 0.4837624 -0.11451832 0.60908043
000130 40 eb b9 3e 97 be 6a 3e f3 4e c9 bd e5 9a 0b 3f
       0.36312294 0.22924267 -0.098295115 0.54533225
000140 f4 3b bd be 3b 8c 1f be 0c 5b f6 be 20 35 58 3e
       -0.36959803 -0.15580837 -0.48116338 0.21114016
000150 4b 8a 53 3e c1 72 e8 3e 9e 71 57 3e a2 13 4a 3d
       0.20658223 0.4540005 0.21039435 0.04933513
000160 81 3f 59 3e 2d 7e 87 be 95 1f 93 be 6a 70 33 bf
       0.21215631 -0.26463452 -0.28735033 -0.70093405
000170 33 f4 be be 12 d5 11 bf 56 f2 d7 3e fa 20 21 3f
       -0.37295684 -0.56965744 0.42177075 0.62940943
000180 db ea 59 be 62 e8 41 3f f1 41 e3 3e 5e b5 98 3d
       -0.21280997 0.75745213 0.44386247 0.07456468
000190 23 29 eb ba fe 0f c4 be f3 81 a8 3d 52 3a 18 bd
       -0.0017941337 -0.3829345 0.08227911 -0.037164994
0001a0 05 0f 5a 3e 20 ad 9a 3d cd 6a b3 3d c2 ef 9c be
       0.21294792 0.07552552 0.08760605 -0.3065167
0001b0 cf f8 7c 3e b8 7f e7 3e 6c 31 61 3f e5 f4 d0 3c
       0.24704288 0.4521463 0.87966037 0.0255074
0001c0 02 4c 14 3e 95 a4 26 be bc 52 01 be 86 c1 92 3e
       0.1448212 -0.1627372 -0.12629217 0.28663272
0001d0 da fc e6 3e b4 e4 ac bd ba 71 75 3f 62 b8 e1 be
       0.45114785 -0.08442059 0.9587666 -0.44085985
0001e0 ab 0c 11 bf 3b 93 ab be 23 90 3c bd e6 92 90 3e
       -0.56659955 -0.33510765 -0.046035897 0.28237075
0001f0 27 45 78 3e 2e 5b 4d be 5f 85 37 3e 58 f9 32 be
       0.2424513 -0.20054314 0.17921971 -0.1747793
000200 e0 37 59 3e d6 a4 fe 3e ad 2e 28 bf 24 61 a0 3e
       0.21212721 0.49735135 -0.6569622 0.31324112
000210 72 79 e5 3e 20 32 53 bf 7e d3 f2 bd bc 3c 5e 3e
       0.44819218 -0.8249836 -0.11856745 0.21702856
000220 e7 65 b2 3d 9b a2 b8 3e ed 85 bc 3e 3b c7 17 3d
       0.087108426 0.36061558 0.36820927 0.037055235
000230 0a 0a 88 be 56 37 93 bd 63 be 1c bf c6 e0 4c 3e
       -0.2657016 -0.07188289 -0.6122801 0.2000762
000240 ff e8 26 bd ce d1 81 3e 12 d0 93 3e 40 4b df 3e
       -0.040749546 0.2535538 0.28869683 0.436121
000250 51 f9 ce 3e 8c d2 06 3f 74 b2 2d 3f f1 a7 ae 3e
       0.40424588 0.5266502 0.6785042 0.34112504
000260 6f 10 47 be 22 40 fd 3e 97 ea a6 3e 37 43 53 3e
       -0.19439863 0.49462992 0.32600853 0.20631109
000270 ac 09 bf be a7 3f ce be bc 9f e3 be fb c8 bf 3e
       -0.37312067 -0.40282938 -0.44457805 0.37458023
000280 3f 72 d1 3e 87 b4 2a be 10 73 b4 3e e2 1b 6c 3f
       0.40907475 -0.16670428 0.35244036 0.92230046
000290 1e d6 f2 bd 5e e5 e2 bc e4 a3 d0 3e b9 b7 bb be
       -0.11857246 -0.027697261 0.4075004 -0.36663607
0002a0 3a 87 26 3f dc 2c d7 bc 96 69 28 3f b6 82 94 be
       0.6505009 -0.026266508 0.6578611 -0.29005975
0002b0 44 9b b0 bb 7c 81 0d bf 75 fb 9d 3d 12 3e 45 be
       -0.005389603 -0.552757 0.07713977 -0.19261959
0002c0 8a 14 08 3e 20 26 09 3f 37 40 fb bd 40 b5 b8 be
       0.13289085 0.535738 -0.122681074 -0.36075783
0002d0 f1 04 18 3e 4d 9a 5b be 21 8c cc 3e bb 27 59 bf
       0.14845635 -0.2144558 0.3995066 -0.8482625
0002e0 a0 96 a8 be e3 45 13 3f ed d1 02 3f 62 fb 28 3e
       -0.32927418 0.57528514 0.5110157 0.16502145
0002f0 d9 ae 2d bd 84 07 07 be 69 3a c2 bd 86 56 a4 3d
       -0.042403076 -0.1318646 -0.09483797 0.080243155
000300 33 58 f5 3c 83 02 09 3f 46 73 26 bf 40 87 3e 3e
       0.029949283 0.5351946 -0.65019643 0.18606281
000310 62 3c 44 bf 07 87 e3 be 7f 70 0a 3f 7b 90 61 3e
       -0.76654637 -0.44438955 0.54077905 0.22027771
000320 46 d6 ab be 55 4d 7d 3e a5 38 4d be a5 cf 9e 3e
       -0.33561915 0.24736531 -0.2004114 0.31017795
000330 6c 22 09 3f a9 cd 57 3d 09 b5 18 bf 95 f4 c8 bd
       0.5356815 0.052686367 -0.5965124 -0.09812275
000340 03 1c 61 3e c6 46 12 3c 7e fd 9d be ba 5e ee 3d
       0.21983342 0.0089280065 -0.30857462 0.116391614
000350 99 48 1f 3f f2 76 f6 3e ea 48 04 3f 32 9e c3 3d
       0.6222015 0.48137623 0.5167376 0.09551658
000360 6c e6 0f 3f b8 2f 07 3e 7e 32 55 bf 1e 13 8b bd
       0.5621097 0.13201797 -0.8328017 -0.06790756
000370 8e 31 1f bf 60 75 22 3f fc 47 e7 3d 95 d3 d8 be
       -0.6218499 0.6346035 0.11293027 -0.42348924
000380 9a 03 33 3f 4d 77 02 3e b6 c2 5f be 3e ec da be
       0.6992737 0.12740822 -0.2185162 -0.42758363
000390 6a 43 f3 bd 22 86 ad be f3 cf b5 3e b0 08 98 3e
       -0.118780926 -0.33891398 0.35510215 0.29694128
0003a0 5c b1 97 3e ff 89 10 bf a4 2a 23 3f ad c2 b2 be
       0.29627502 -0.56460565 0.6373694 -0.3491415
0003b0 2d 6d 13 3e 67 c0 46 bd 14 4b ce 3e d7 c5 c3 3e
       0.14397116 -0.048523333 0.40291655 0.38236877
0003c0 3b d0 54 3e 4c 48 af 3d c9 84 08 3f 33 14 86 3e
       0.20782559 0.085587114 0.53327614 0.26187286
0003d0 45 84 cc be 6f 44 21 3d e9 ed 8c 3d 20 a0 fe be
       -0.39944664 0.039371904 0.06881315 -0.4973154
0003e0 db bb 39 3e 88 3e 30 bf 6f 4a fc be 31 d4 25 3f
       0.18138067 -0.68845415 -0.49275538 0.64776903
0003f0 3c c8 45 bf e3 5f cc be 0d bc 18 3e d2 fb b9 3e
       -0.7725866 -0.39916906 0.14915486 0.36324936

gnn_base.gnn.embed_layer.layers.0.bias f4 [16]
000000 15 ae a2 3d b5 76 7e bc d4 3c 62 be 61 fd 63 be
       0.0794336 -0.015531232 -0.22093517 -0.22264625
000010 56 b8 86 3d b7 ba f0 3c 4a 9e 2d 3d 58 64 3f be
       0.06578128 0.029385908 0.042387284 -0.18690622
000020 3e 06 e6 bd 89 4b 22 38 ec c9 97 bc 9f 2b 62 be
       -0.11231659 3.8694157e-05 -0.018528901 -0.22086953
000030 66 62 83 3c 5c f4 46 3d c6 b3 b5 bd 9e 81 f5 3d
       0.016038131 0.048572883 -0.0887218 0.11987613

gnn_base.gnn.embed_layer.layers.2.weight f4 [16]
000000 b5 52 50 3f 97 c1 64 3f e6 dc 76 3f 0b f6 75 3f
       0.813762 0.89357895 0.96430814 0.96078557
000010 63 8a b0 3f f1 a9 69 3f 1f 56 8d 3f 81 e2 55 3f
       1.3792232 0.91274935 1.1041907 0.8354874
000020 24 3c 6a 3f 57 56 88 3f 37 da 8c 3f 54 15 72 3f
       0.9149802 1.0651349 1.1004094 0.94563794
000030 2c 92 8a 3f 9f dd 87 3f 2c 8a 8d 3f 40 b4 7c 3f
       1.0825858 1.0614508 1.1057792 0.9871254

gnn_base.gnn.embed_layer.layers.2.bias f4 [16]
000000 1c 39 c7 bd 5a bd cf 3d 86 00 1f be 63 91 30 3c
       -0.097276896 0.10143538 -0.15527543 0.01077685
000010 c1 e4 e9 3d 32 e3 95 bd b8 6c a3 bd a1 62 f4 3d
       0.114205845 -0.07318725 -0.07979721 0.119328745
000020 ee 04 a4 3d 2d e0 b6 3b db cd 20 bb d0 0d d4 bc
       0.08008753 0.005580923 -0.0024536762 -0.025885493
000030 f7 0e f2 3c 1a 1b 3d bd 60 08 8e b9 37 ff 86 3d
       0.029548151 -0.046168424 -0.0002709059 0.06591647

gnn_base.gnn.gnn1.lin_key.weight f4 [48, 16]
000000 db c7 15 3d 11 0d a9 3d a1 93 7b 3e 8e 9f a5 be
       0.03656755 0.08254445 0.24568035 -0.32348293
000010 1a 0b 29 3f cf 19 9d be 53 37 de 3e 54 56 85 3e
       0.66032565 -0.30683753 0.43401584 0.26042426
000020 59 2f 1f 3d ef b4 ab be 50 de df 3d 06 79 3a be
       0.038863514 -0.3353648 0.109310746 -0.1821023
000030 11 ef 0b 3e e2 ff 0c be cf b9 8d be 8b 16 c4 3d
       0.13665415 -0.13769487 -0.27680823 0.09574612
000040 dd 5c 1c be 4f 3f 3f be 4a 00 f8 3e b4 07 95 bd
       -0.152698 -0.18676494 0.4843772 -0.0727686
000050 58 15 96 3d 00 9a 33 be 65 4c 56 bd 60 e0 d3 3c
       0.0732829 -0.17539215 -0.05231895 0.025863826
000060 b7 e3 5b 3d 95 25 a4 be c0 90 18 bd 95 d3 c6 bd
       0.053683963 -0.32059923 -0.03724742 -0.09708325
000070 0d 71 06 bf 51 cf 55 3e 6e d7 16 bf fd 55 ad bd
       -0.5251625 0.20879866 -0.5892247 -0.084636666
000080 37 1c 04 be 16 03 9a 3e 69 82 42 be 86 63 0c be
       -0.12901388 0.3008048 -0.1899506 -0.1370984
000090 98 fb 85 be 0a 6c 36 3e ad fb 8c be aa 4c 1b 3d
       -0.26168513 0.17814651 -0.27535763 0.03791491
0000a0 f0 65 d2 3d f7 e2 ed 3d 9d f7 91 bc eb c7 97 3e
       0.10273349 0.11615556 -0.017818267 0.29644713
0000b0 6c 9b 9e be 99 a9 2f 3e 53 0b aa 3d 1b cf a1 3d
       -0.30977952 0.1715454 0.08302941 0.0790083
0000c0 46 08 54 3e ea 24 5b be 39 29 4c 3e bc 52 c4 3d
       0.20706281 -0.214008 0.199376 0.09586093
0000d0 e3 7d 1e 3e 10 10 7d bd 11 ae 0a 3c 8c dd 97 be
       0.1547771 -0.061782897 0.008464352 -0.29661214
0000e0 72 b9 02 be 52 bd 1d be 12 ff ef be 40 97 0f 3e
       -0.12766054 -0.15404251 -0.4687429 0.14022541
0000f0 1e 2c ce be cc 07 64 3e 09 2a a2 be df c7 65 be
       -0.40268034 0.222686 -0.31672695 -0.22439526
000100 3c a4 34 3e 33 62 5b 3e c7 74 9c be 06 e0 15 3d
       0.17640775 0.21424179 -0.30557844 0.0365906
000110 85 f3 4e bf 06 dd 8e 3e eb 8b 8c 3d 3e 67 50 3e
       -0.8084033 0.27903003 0.06862625 0.20351884
000120 1f 53 6b 3d a8 bb ad 3b 46 93 2e 3e 1d ab ac 3e
       0.057452317 0.0053019114 0.17048368 0.337243
000130 ed a8 08 bf a6 a8 ee 3e ee 24 ca 3c 62 60 19 3e
       -0.5338276 0.46613044 0.024675813 0.14978173
000140 66 2f a0 3e 34 55 5a be ec 79 03 3e 2c 51 ca 3c
       0.31286162 -0.21321565 0.12839478 0.024696909
000150 8a d8 34 3f 4b 61 80 be b5 1a 7a 3e 45 36 70 be
       0.7064291 -0.2507423 0.2442425 -0.23458202
000160 60 e0 8b bc 5c 2a fd bd 0c df cc bc 61 94 48 bd
       -0.017074764 -0.12361595 -0.0250087 -0.04896963
000170 9c 95 78 bb a9 a2 2d be bb 32 11 3c 5f 0d 80 be
       -0.003793097 -0.16956581 0.008862193 -0.250102
000180 e5 3a 14 3d 41 7e ce 3c 66 9b 91 3d bf 32 65 3d
       0.03618898 0.025206687 0.07109718 0.0559566
000190 94 ba 83 bf 12 a0 1a 3f 09 5c 69 3e f9 88 c3 bd
       -1.0291314 0.604005 0.22789015 -0.0954761
0001a0 8b f8 a4 be 1b d3 18 3e 12 f4 1c 3e 4a b4 84 3e
       -0.32220873 0.1492428 0.1532748 0.259188
0001b0 56 2a 02 bf a7 93 67 3e 29 13 8a 3e 6c f8 0c 3e
       -0.5084585 0.22614919 0.26967743 0.1376664
0001c0 0f bf e4 bd 6e 3b af 3e f9 23 30 be 2b 8e f6 bd
       -0.11169254 0.3422503 -0.17201222 -0.12038835
0001d0 f6 73 59 bf 97 f2 25 3f 7c aa b1 be ee fa 11 3e
       -0.8494257 0.6482329 -0.34700382 0.14255878
0001e0 26 56 8c be 7f 5c 2a 3d fd 9f 8b 3e 62 25 1e 3e
       -0.27409476 0.041592117 0.272705 0.15443948
0001f0 a3 0f 06 be 0a 8b 5e be 7a 2d 2a 3e 60 dd 17 3e
       -0.13091902 -0.21732727 0.1661891 0.14830542
000200 24 66 fd bd e9 d0 35 3e ca 71 84 be 5a 80 a0 3d
       -0.123729974 0.17755474 -0.25868064 0.07836981
000210 39 a9 10 bf da 1e b8 3e 3a 15 dc be f3 76 ad be
       -0.56508213 0.35961038 -0.42984945 -0.33879814
000220 a5 80 ac bd 60 f2 dc 3e af c4 8e 3d 24 19 1e 3e
       -0.084229745 0.43153667 0.06971108 0.15439278
000230 85 39 16 3e 57 fd 91 be cd 60 99 3e 4d 8f 17 bd
       0.1467038 -0.28513595 0.29956666 -0.037001897
000240 a6 f7 4d 3e c6 e2 4c 3d ea 5b 89 3e e2 68 82 3e
       0.20114002 0.050020956 0.26827937 0.25470644
000250 72 df 61 3f 23 cb 49 bf fd ca 6c bd 44 12 81 3e
       0.88231575 -0.7882559 -0.057810772 0.25209248
000260 ea 26 34 3e d6 1d 09 be 19 fd 2f be f1 90 0c be
       0.1759297 -0.13390288 -0.17186393 -0.13727166
000270 88 84 6e 3e f5 d1 dc bc 9f 96 93 bd 67 7c 19 3e
       0.23292744 -0.026955584 -0.07206463 0.14988862
000280 a8 71 3c 3d 51 d8 83 3e 38 72 57 3d a8 44 92 3d
       0.04600683 0.25750974 0.052599162 0.071420014
000290 e1 16 23 be 08 24 91 3c c4 9e 31 bd b4 7d 8a be
       -0.15926696 0.017717376 -0.0433643 -0.2704903
0002a0 b0 37 f4 bd fa 06 8d 3e b1 22 8f bd 99 f8 82 3c
       -0.11924684 0.27544385 -0.06989039 0.015987681
0002b0 c8 2b a2 3e 74 04 99 be 76 80 bd 3e 0b 22 85 bd
       0.31674027 -0.2988621 0.3701207 -0.06500634
0002c0 87 66 48 3e 6d aa dc be d0 dc c3 bd e1 b4 45 3e
       0.19570361 -0.43098775 -0.09563601 0.19307281
0002d0 30 60 c3 3e fd 19 8f 3a 84 10 3e bd 79 28 3d be
       0.38159323 0.0010917779 -0.04640247 -0.1847247
0002e0 f2 02 6c 3c 88 94 0b bf 2c 07 96 bd cc c3 41 3e
       0.014404999 -0.54523516 -0.07325587 0.18922347
0002f0 8c 51 b9 bd f0 82 a5 3e 6c b1 ea bc a8 cc 96 bb
       -0.09048757 0.3232646 -0.028649054 -0.0046020336
000300 8f 1c a6 bc 75 c8 b9 be 9c 82 e3 3d fa a2 da bc
       -0.02027729 -0.3628575 0.11108896 -0.026689041
000310 65 b0 ef 3e 89 f4 96 be 6a ad a9 3e 47 d7 5c 3e
       0.46814266 -0.2948344 0.33140117 0.21566497
000320 9c de 78 be 3a 5b a5 be e8 84 50 3c eb 45 bf bd
       -0.24303669 -0.32296163 0.012727 -0.09339508
000330 75 99 b9 bd 46 9a 25 3e 16 af 9d be 4a 74 a2 3d
       -0.09062473 0.16172132 -0.30797642 0.07932337
000340 c4 4d ae 3e b3 1e bc be c2 8b 52 3d c4 da 89 3e
       0.34043705 -0.36742172 0.051402815 0.26924717
000350 13 be 4d 3f 60 ef 80 3c d7 79 09 3f 40 fb 12 be
       0.80368155 0.015739143 0.5370154 -0.14353657
000360 80 c5 fe 3d 72 c9 d5 be ce 03 01 be 19 b5 4c 3d
       0.12440014 -0.41755253 -0.12599108 0.049977396
000370 97 4c da 3e 2f f6 c3 be 20 13 96 bd 01 0f 5f be
       0.42636558 -0.3827376 -0.073278666 -0.21783067
000380 9b 49 9f 3e 64 78 9c be 17 6a 40 bd 3d 98 68 3d
       0.31110844 -0.305606 -0.046976175 0.05678581
000390 44 c0 25 be c4 41 a0 3e 2b ad 73 3d c6 40 ad 3d
       -0.16186625 0.31300175 0.059491318 0.0845962
0003a0 42 47 26 3e 59 8d f5 bd 7e b5 bb bc fe ae 49 3e
       0.1623812 -0.119898506 -0.02291369 0.1969566
0003b0 fd d6 c0 be 88 e4 b5 3e 2d 8c c7 be b2 9b 26 3e
       -0.37664023 0.35525918 -0.38974133 0.1627033
0003c0 29 1f 05 bd 12 a4 e9 be 36 f2 5a bd 5f e4 47 3e
       -0.03250042 -0.45632988 -0.053453647 0.1952071
0003d0 4a 47 e0 3e 7e 2a fd be d4 f1 97 3e 52 b1 13 3e
       0.4380439 -0.4944648 0.29676688 0.14423111
0003e0 e0 fd 87 bc 91 05 ee bd 99 7f 1f be 63 95 ae be
       -0.01660055 -0.116221555 -0.15576018 -0.34098348
0003f0 42 9f 21 be ce 77 9b 3d 93 9c b9 bd bc a3 ce 3d
       -0.15783408 0.0759121 -0.09063067 0.100898236

gnn_base.gnn.gnn1.lin_key.bias f4 [48]
000000 ee bd 9f 3c 25 81 75 be 17 90 92 3d 65 41 2d be
       0.019499745 -0.23975046 0.07156389 -0.16919477
000010 24 80 86 bd df a2 f2 bd 7c 30 73 be 7a 8f 25 3e
       -0.0656741 -0.118474714 -0.23748964 0.16168013
000020 81 10 16 3e 6b 5c fd 3c 4f fa 25 be d0 ff 63 3e
       0.14654733 0.030927857 -0.16208766 0.22265553
000030 f3 e8 b9 bd 38 c5 33 be 09 b4 3b be de c5 10 3d
       -0.09077635 -0.17555702 -0.18330397 0.03534495
000040 c9 76 15 be 93 66 0a bd 61 d4 78 be db 56 83 bd
       -0.14596094 -0.03378923 -0.24299766 -0.06413051
000050 27 99 6d be e5 32 38 be 4f 8b 4f be 09 90 26 be
       -0.23202954 -0.17988165 -0.20267986 -0.16265883
000060 af 03 4d 3e ca 20 9d bd 3a 41 29 be 1c 88 72 3e
       0.20020936 -0.0767227 -0.16528788 0.23684734
000070 75 d9 b7 3c 79 98 51 be c5 13 47 be 9c 50 db 3c
       0.022442559 -0.2046832 -0.19441135 0.026771836
000080 a6 44 34 be 7f 41 d1 3d c0 9f 5a be 2e aa 64 be
       -0.17604312 0.102175705 -0.21350002 -0.22330543
000090 be 42 10 3e 69 30 ec bb e2 28 a1 3d a8 43 98 bd
       0.1408796 -0.0072079194 0.07869126 -0.074347794
0000a0 bd 4a 32 be 44 b6 29 3e 9c cf 20 bd 2a fd 3f 3e
       -0.17411323 0.16573435 -0.03926049 0.18748918
0000b0 27 a2 8a bd 35 71 43 bd 1f e3 64 bd 41 3d 15 be
       -0.06769209 -0.047715385 -0.055880662 -0.14574148

gnn_base.gnn.gnn1.lin_query.weight f4 [48, 16]
000000 c5 1f 36 3d c0 1d ac bd 11 a2 21 3c 05 4e 8d be
       0.04446389 -0.08404112 0.0098653 -0.27598587
000010 34 3f 1a 3f 3d 15 d5 bd 21 7e 93 3c 08 76 df be
       0.6025269 -0.104044415 0.018004479 -0.43644738
000020 d6 39 52 3e 40 0a 99 3e 66 6f db bd ec 3d 56 3e
       0.20529875 0.29890633 -0.10714607 0.20922059
000030 c5 e9 a8 3e c9 d4 ab bb d0 5d 2b bc 3a 54 84 be
       0.32990852 -0.005243872 -0.010459378 -0.2584551
000040 d7 d8 44 3e 17 65 6e be 58 97 df 3e 73 91 c9 be
       0.19223343 -0.2328075 0.43670154 -0.3936878
000050 42 63 8e bb 62 f8 a5 3e 0a be 27 3d 69 2b 82 3e
       -0.0043453285 0.32416064 0.04095272 0.25423744
000060 06 fc e2 3d b5 17 4a 3e 43 cd a9 bd 6f f3 0b 3e
       0.11083226 0.19735606 -0.08291104 0.13667081
000070 69 03 b0 be 2e a0 c1 3c 89 79 da bd 99 1b c3 be
       -0.34377602 0.02363595 -0.10667712 -0.38106993
000080 3c 1d c0 bb 84 c1 16 be 5e 10 e7 3d e0 f9 17 3e
       -0.00586286 -0.14722258 0.11282419 0.14841413
000090 59 75 79 be 31 7a 2c 3e 59 93 79 3e f7 c4 83 3d
       -0.24361171 0.16843487 0.24372615 0.064340524
0000a0 eb 3f ca bd c2 64 13 bc 2d 42 02 be d6 af 67 ba
       -0.09875473 -0.0089961905 -0.12720557 -0.0008838152
0000b0 31 e3 99 be ef 8a b4 3c 84 2e 05 be 78 40 32 3e
       -0.30056146 0.022038905 -0.13006026 0.17407405
0000c0 89 d7 11 3e 60 9c c3 bd 7f 15 67 3e 6c 12 16 be
       0.14242376 -0.095513105 0.22566794 -0.14655465
0000d0 bf d4 7c be ec df b3 bd 38 7c 76 be 65 29 6f 3e
       -0.24690531 -0.08782944 -0.24070823 0.23355635
0000e0 fe 6e e8 3d 96 76 c1 bd a3 de 8d 3e e3 15 df bc
       0.11349295 -0.094464466 0.2770892 -0.027232116
0000f0 9a 9d 79 bd 30 16 36 be af 44 6a be 84 c4 b2 bd
       -0.060941316 -0.17781901 -0.22877763 -0.08728889
000100 13 8c 92 3e b1 e0 e6 3d ac 1a 76 3e ba 6f b8 be
       0.28622493 0.11273325 0.24033612 -0.3602274
000110 77 c0 04 bf 2c 2b 0d 3f d8 18 34 3e 87 80 66 3e
       -0.5185618 0.55144 0.17587602 0.22509967
000120 f2 c4 98 be f1 c4 3e 3e 52 23 cf 3e 97 e6 94 3d
       -0.29837757 0.18629815 0.40456635 0.07270544
000130 12 12 d4 be 61 27 8d 3e 9f 09 78 be 25 9e a9 3e
       -0.41420037 0.27569106 -0.2422242 0.33128467
000140 60 74 c6 be e3 83 64 3e ce fa c2 3d 17 3a 42 be
       -0.38760662 0.22315936 0.095204934 -0.18967472
000150 e7 91 67 3e fe 9d d5 be 6d b4 06 be 1f 38 01 bf
       0.22614251 -0.417221 -0.13154764 -0.5047626
000160 af 82 db 3d 16 2d fd bd 74 7a e7 3e 4e d8 bf 3e
       0.10718285 -0.12362115 0.45210612 0.37469715
000170 c4 d7 8e 3e 70 47 98 be d3 26 e1 3d 81 3d aa be
       0.2789899 -0.29742002 0.10993733 -0.3325005
000180 f6 46 e1 3e 35 3a ce bd fb 88 ba be 01 76 a9 be
       0.4399945 -0.10069696 -0.36432633 -0.33097842
000190 0c 01 09 bf db 15 87 3e 56 6c aa 3c a2 87 9e 3e
       -0.5351722 0.26383862 0.020803612 0.30962855
0001a0 a1 6e 0a be fb a7 cc 3e d9 de 02 3f 19 57 5a be
       -0.13518764 0.3997191 0.5112129 -0.21322288
0001b0 b6 47 0e bf 10 6c 28 3e f7 7c 95 be 38 7b f0 3d
       -0.5557817 0.16447473 -0.29196903 0.11742252
0001c0 12 4d 19 3e 59 43 59 be 51 ad 39 be 8b 6c 12 3d
       0.14970806 -0.21217097 -0.18132521 0.035748046
0001d0 39 9b 0e bf 77 57 a4 3e ff 2e b9 3d b3 07 e8 3c
       -0.557056 0.3209798 0.09042167 0.028323984
0001e0 32 4c cc be 97 08 e5 3c a5 81 b0 bd 53 03 97 be
       -0.39901882 0.027958198 -0.08618478 -0.29494724
0001f0 de 43 53 be 25 a0 1e 3f 2a b5 f4 3c ee df 65 3e
       -0.20631358 0.6196311 0.029871542 0.22448704
000200 32 d0 76 bc 80 a4 00 bc d7 86 11 bf fa b1 35 3f
       -0.015064286 -0.00785172 -0.56846374 0.70974696
000210 8a da d7 be 51 15 73 be 56 ea a2 3d 90 8b 00 3e
       -0.4215892 -0.237386 0.07954852 0.12553239
000220 d8 d0 f1 bd 20 30 7e be 22 18 01 be ef 05 3b be
       -0.11807412 -0.24823046 -0.12606862 -0.18263982
000230 8d 61 4d be 0e 51 86 3e f3 5b fe 3d 98 e2 08 3f
       -0.20056744 0.26233715 0.12419882 0.53470755
000240 2a a4 2d bd cc c1 22 be 7d 9e c8 3e 7c fb 1a 3e
       -0.042392887 -0.1589424 0.39183417 0.15134996
000250 2e c0 bf 3e fe fc a6 be cc 76 58 be 61 61 b0 be
       0.3745131 -0.32614893 -0.21139067 -0.34449294
000260 77 d5 e8 3d 57 78 8b be d6 0c 08 bf f6 37 8b 3e
       0.1136884 -0.2724025 -0.53144586 0.27191132
000270 04 68 ba 3e b6 39 e1 be 45 e3 a4 bd ca ee be bd
       0.36407483 -0.43989342 -0.08051161 -0.09322889
000280 89 7e ab be c7 a6 f1 3c 01 55 9d be f6 10 c6 3e
       -0.33494976 0.029498471 -0.30728915 0.38684815
000290 58 fe 4c 3e 78 a0 6e be 87 ae aa bd 5b 46 5b 3e
       0.200189 -0.23303401 -0.0833407 0.21413557
0002a0 30 8c a2 bc 47 da a9 bd 1f ce ee 3c 98 4c 15 3e
       -0.019842237 -0.08293586 0.02915102 0.1458
0002b0 6a 3e 64 3d c3 ca 5d bd 0c e2 15 be 33 d9 02 be
       0.055723585 -0.054148447 -0.14637011 -0.12778167
0002c0 99 57 48 be d2 d3 e7 3e 3a ff b6 3e 0f f9 bb be
       -0.19564666 0.45278794 0.35741597 -0.36713454
0002d0 20 1f 0d be 8e 73 15 3e ba 81 22 be 9f f2 28 3e
       -0.13781404 0.14594862 -0.158698 0.16498803
0002e0 93 0d bd 3e 46 48 16 be a1 ee 89 3e 5b 54 37 be
       0.3692442 -0.14676008 0.26939872 -0.17903273
0002f0 c9 f3 94 3e ee 99 96 3e 6d d8 77 3c 30 e3 22 bd
       0.29092243 0.29414314 0.0151272835 -0.039767444
000300 b0 79 9d 3d b4 59 df bd ad d2 f0 3e 02 6e 1b bf
       0.07689226 -0.109057814 0.47035733 -0.60714734
000310 de f7 80 3e a7 2a 2e 3e 34 c8 08 3d 35 12 1b be
       0.25189108 0.17008458 0.033394054 -0.15143664
000320 46 8f 13 3e 03 04 03 3e ae c2 5b be f7 f4 a2 3e
       0.14410123 0.12794499 -0.21460983 0.31827518
000330 5c 22 00 3f 86 1a 6e be 36 e1 1c be 09 0e 1d bf
       0.5005243 -0.23252305 -0.15320286 -0.6134954
000340 c4 ec 60 bd 29 9d 8d 3d cb 2f c4 3c 7e af 66 be
       -0.054913297 0.069147415 0.02394857 -0.22527882
000350 f4 64 c9 3e 4e 1f 12 bf cd 04 2a be 01 98 b3 be
       0.39334834 -0.5707902 -0.16603394 -0.35076907
000360 55 53 c3 3e 11 64 55 bd c5 7b f9 3e 8a 5a ae 3d
       0.38149515 -0.052097384 0.4872724 0.08513363
000370 3e 62 86 3e 91 91 db 3d a7 c5 ae 3c 28 4e cd be
       0.26246828 0.10721124 0.021334482 -0.4009869
000380 02 a0 88 3e 1e 32 93 3d 24 57 b3 3e 22 01 b8 be
       0.26684576 0.071872935 0.3502742 -0.35938364
000390 5f 95 f2 be b8 a3 26 3e 29 99 f3 3d 7e 44 cc 3d
       -0.47379586 0.16273391 0.11894447 0.09974001
0003a0 a6 b8 cb bd 0f a5 9b 3c 4f 6d 88 3e aa 08 ac bd
       -0.09947328 0.018999605 0.26645896 -0.0840009
0003b0 5d 94 6b be 2d bc 27 3d 78 d3 3c be 40 95 da 3d
       -0.23005815 0.040950943 -0.18440044 0.106729984
0003c0 31 97 b9 3d 65 0a 12 3d 46 37 bc 3e 46 1a bc be
       0.090620406 0.035654444 0.3676092 -0.36738795
0003d0 05 f7 80 3e c4 48 14 3d df 8c eb bb f8 17 5d bd
       0.2518846 0.036202207 -0.007188424 -0.053977937
0003e0 08 1a ea 3e 23 cb 93 3d 87 63 ed bc 54 2e 63 3e
       0.45722985 0.0721648 -0.028978122 0.22185642
0003f0 cd 63 e9 3e a3 3c de bb 4c 4a 8a 37 0e 7d 12 be
       0.45583954 -0.006782131 1.648548e-05 -0.14305517

gnn_base.gnn.gnn1.lin_query.bias f4 [48]
000000 5e 00 43 be a9 8b 10 bd c7 69 c9 3c 7e 1d 5a be
       -0.19043109 -0.03528944 0.024586571 -0.21300313
000010 ae a6 76 3e ae 2c bd 3d d7 02 89 3e 02 96 28 3e
       0.24087021 0.092370376 0.2675998 0.16463473
000020 68 24 6f 3e bb 91 1e be 1b 62 52 bd bb b7 43 3e
       0.23353732 -0.1548528 -0.051363092 0.19113056
000030 60 1a 76 be fe cb 95 bc f9 3f aa bd 5c ec a5 be
       -0.24033499 -0.018285748 -0.08312983 -0.3240689
000040 ae 47 61 be 56 74 8d 3e 24 c9 7c be 8d 0b 0e bf
       -0.22 0.2762782 -0.24686104 -0.55486375
000050 6e 3a a8 be ee 0c 14 be 1a ab 16 be d7 2e 4a be
       -0.32857078 -0.14458057 -0.14713708 -0.1974443
000060 d5 3c 4b be c1 08 a5 be 5d 14 cf be ca bc 73 3c
       -0.19847424 -0.3223324 -0.40445223 0.014876554
000070 9a c5 4d bd 07 22 d0 3d 1d 33 ac 3d ff 2e 11 bc
       -0.050237276 0.1016274 0.084081866 -0.008861302
000080 ef 4b 46 bd ea 6c 7a 3d 12 67 8c bd 4d 20 6b be
       -0.04841226 0.061139025 -0.068555966 -0.2296154
000090 c7 b3 06 be fa 3c 49 be 82 04 01 be df bc d2 bd
       -0.13154517 -0.19652167 -0.12599376 -0.102899306
0000a0 f6 24 31 3e 09 b9 56 be ec 0e 05 3f 3a b1 fe 3d
       0.17299256 -0.20969023 0.51975894 0.12436147
0000b0 1c 52 e0 bd ec a3 c8 bd f7 52 a1 be 66 0b 42 3e
       -0.10953161 -0.097968906 -0.3150861 0.1894966

gnn_base.gnn.gnn1.lin_value.weight f4 [48, 16]
000000 bd b2 10 3d f8 46 1b 3d 81 80 ee bd 31 bb e7 bd
       0.035326708 0.037909478 -0.11645604 -0.11315001
000010 12 99 52 bb 9c 7b 72 3e f0 7a 03 be 1d 2c f0 be
       -0.0032134694 0.23679966 -0.12839866 -0.46908656
000020 09 e3 58 3d 59 a0 7d be 12 86 9c 3e cd c9 26 be
       0.052950893 -0.24768199 0.30571038 -0.16287918
000030 a3 38 cc 3e 89 55 2c 3e 62 3a ae 3e f9 49 94 3e
       0.3988696 0.16829504 0.34028918 0.28962687
000040 ee 80 01 bf 8c ef 94 be fb 02 05 3d 6a 9b 5b 3c
       -0.50587356 -0.2908901 0.032473546 0.013403753
000050 5b 9f 59 3e 90 87 b4 3e 20 ac 0b be d6 0c 9f 3e
       0.21252196 0.35259676 -0.13639879 0.3106448
000060 ca 06 08 bd ef f5 c8 bc 0a a8 93 be 54 f1 b4 bd
       -0.0332096 -0.024531333 -0.2883914 -0.08835092
000070 07 28 2d be ba b7 c6 3d 69 2d 6f 3e a6 0c 74 3d
       -0.169098 0.09703012 0.23357166 0.059582375
000080 8b 63 1f bd 4e 55 49 3e 75 ca c1 be c3 51 03 bf
       -0.03891329 0.19661447 -0.37849775 -0.51296633
000090 d5 86 4d 3e 37 7d 7c be 31 f3 2a bd fa dd cf bc
       0.20070966 -0.2465714 -0.04173583 -0.025374401
0000a0 07 31 8e be 30 ac b6 be f8 a0 32 3e 19 e8 44 bd
       -0.2777178 -0.35678244 0.17444217 -0.048072908
0000b0 8d 72 b8 3e c4 10 3b 3e db c4 24 be 7b 79 9c 3e
       0.36024895 0.18268114 -0.1609072 0.30561432
0000c0 87 65 f1 3d b4 30 4b bd f7 7a 9d 3d f3 75 24 be
       0.11786943 -0.049606994 0.07689469 -0.16060619
0000d0 37 de 68 be 5e 64 2f be ca 7d 7f bd fb ce d3 be
       -0.22741018 -0.17128131 -0.06237582 -0.4136885
0000e0 b8 bb 0b bf d6 65 88 be 91 b0 bc 3d d3 ee d2 be
       -0.5458331 -0.26640195 0.09213365 -0.41197833
0000f0 9f 92 3f 3e bb 02 c8 3d 12 2a e6 3e 89 d7 03 3f
       0.18708275 0.09766146 0.44953972 0.51500756
000100 81 1c 2e be e8 d8 19 3d f5 f9 3f 3e 90 27 bd bc
       -0.17003061 0.037560374 0.18747695 -0.023090154
000110 df 62 5a be 3a a6 39 3e 8a a8 56 be 00 1e a1 bc
       -0.21326779 0.18129817 -0.2096273 -0.019667625
000120 8a 4c 3f bd 04 28 36 3e 95 74 02 bd 49 98 73 3e
       -0.046703853 0.17788702 -0.031849463 0.23788561
000130 29 ba 68 be e3 7c d6 3c e5 ac 94 be 49 6e a5 3e
       -0.22727264 0.026182598 -0.29038158 0.32310703
000140 f6 aa 3c 3d e6 71 9b 3c d6 0b eb 3e 77 32 1f be
       0.04606148 0.01897521 0.45907468 -0.15546595
000150 97 69 fa bd 0f 3f a2 be 00 a6 1b be 98 95 3c be
       -0.12227171 -0.31688735 -0.15200043 -0.1841644
000160 a7 95 f7 bd 5d 7d 41 bd c7 6d 38 3e f7 2c 43 bd
       -0.12089091 -0.047238696 0.18010627 -0.047650304
000170 b3 36 db be 63 9b e4 3e 56 26 6c 3e 95 7c 0a be
       -0.4281517 0.446498 0.23061499 -0.13524087
000180 75 fb ee 3d fb f2 01 bd 48 cb aa 3c fd b0 19 be
       0.11669055 -0.031725865 0.020848885 -0.15008922
000190 e9 fc 28 bc 04 dd 89 be 1d eb 79 bd e6 4c 11 3e
       -0.010314205 -0.26926434 -0.061015237 0.1418949
0001a0 a1 0e 01 3f 23 31 a2 bd 1d 48 26 3e 1b 73 d3 3e
       0.50412947 -0.07919528 0.16238447 0.41298756
0001b0 d2 72 bc bc df e2 d3 3d 9a d5 91 3e fb a4 bb be
       -0.02300397 0.103460066 0.28483278 -0.36649308
0001c0 da ee 00 be 49 6b f2 3d 3d 85 11 3e 33 eb 85 3d
       -0.12591115 0.11836869 0.14210983 0.06539001
0001d0 1d 91 a8 be b2 87 e7 3c 14 70 b9 bd e8 a7 45 3d
       -0.32923213 0.028262947 -0.0905458 0.04825583
0001e0 1d 75 a9 3d cb 27 6b be 70 94 a7 3e 2a 90 66 3e
       0.08274291 -0.22964399 0.32730436 0.22515932
0001f0 2c 20 93 3d fd 47 44 bd c7 4a d8 3d 6d d3 2f 3e
       0.07183871 -0.047920216 0.10561138 0.17170496
000200 d8 c6 0d be 9e a8 d2 bd 53 e5 5f 3d 33 81 5c bc
       -0.13845384 -0.102860674 0.05466206 -0.013458538
000210 42 f5 1c 3e 4d 69 b7 3e 96 4b 85 be 46 c9 88 bd
       0.15327933 0.35822526 -0.2603423 -0.06679015
000220 b5 51 2b 3d 96 60 06 3f 9a ed 25 be 04 2d 01 be
       0.04182597 0.5249113 -0.16203919 -0.12614828
000230 4c c0 46 3d 1a 02 bd 3e ee 82 b5 be cc 3a 9c bd
       0.048523232 0.36915666 -0.35451454 -0.07628402
000240 cd 2b 2a be 76 37 2b bd 91 f9 fa 3e 3f 26 5c 3d
       -0.16618271 -0.04180094 0.4901853 0.05374741
000250 aa 93 9f be ad db 01 3d 52 53 8a 3e 9b ef 42 3e
       -0.31167346 0.03170364 0.27016693 0.19036715
000260 26 10 85 bb 95 fc 31 3d c2 a4 82 bb a2 ad 60 3e
       -0.004060763 0.04345377 -0.003986926 0.21941236
000270 28 7b 05 be 15 fd b6 be 86 9c 7d 3d 28 2c 1b 3c
       -0.13035262 -0.3573996 0.06191685 0.009470977
000280 f4 a7 07 3c bf 50 80 be fe 39 8b 3e 51 fd 67 be
       0.008279789 -0.25061604 0.27192682 -0.22655226
000290 f5 da 5e 3e f6 83 fa 3d 0d 75 95 3e eb c9 24 bd
       0.21763213 0.12232201 0.29190865 -0.040231626
0002a0 ad ea b1 be b9 72 2f be 73 77 2f 3d de 71 1d be
       -0.34749356 -0.17133607 0.042838525 -0.15375468
0002b0 df f3 a9 3c b0 b2 01 be 71 9e b0 3d 96 32 1a 3e
       0.02074617 -0.1266582 0.0862397 0.1505836
0002c0 47 5f 09 be d0 49 ab 3b e7 c3 0f bd 48 92 83 be
       -0.13415252 0.005227305 -0.035098936 -0.2569754
0002d0 7d 4e a1 3d c5 56 98 3d c9 c0 74 3e 7c 26 d7 be
       0.078762986 0.07438425 0.23901667 -0.4202155
0002e0 8e 32 2d be 62 c5 a1 be bf 51 10 be a2 3e ac 3d
       -0.16913816 -0.31595904 -0.14093684 0.08410384
0002f0 50 18 5a 3e 3e 68 a4 3d 0a 73 17 be 06 82 99 be
       0.21298337 0.08027695 -0.14789978 -0.29982013
000300 d3 99 8b bd cf 1b 17 bd f6 57 1e bc 83 a4 c9 be
       -0.06816449 -0.036891755 -0.009664526 -0.39383325
000310 83 e2 a5 3d 7d a0 45 3e 2e dc 0b bd f1 c7 84 be
       0.08099844 0.19299503 -0.034145527 -0.25933793
000320 22 e3 d4 3d a2 37 af be 5e 4d e2 3c c7 90 c3 3d
       0.10394885 -0.34222132 0.027624782 0.095490985
000330 fb ea df 3e 18 90 a9 bd e5 63 ec 3e 44 9c d0 3e
       0.43733963 -0.08279437 0.46169963 0.4074422
000340 fc 7f 71 3e 3f b9 87 3a f2 69 d9 3d 96 9b 59 3f
       0.23583978 0.001035489 0.106159106 0.8500303
000350 7a 05 49 3e 92 88 e9 be 26 c6 d2 3e 4f 19 33 3e
       0.19630995 -0.45612007 0.411668 0.17490123
000360 22 d5 1f 3e f9 97 dd bd 63 ba a5 be 1e 46 43 3e
       0.15608647 -0.10820002 -0.32368764 0.19069716
000370 5e 4b ae be 1f f8 62 3e 2d b1 94 be b1 e4 51 be
       -0.34041876 0.22164963 -0.29041424 -0.20497395
000380 be 1e 8e 3d e3 cb 44 3e 43 63 85 3e 9d 3a d0 3c
       0.06939457 0.19218402 0.26052293 0.025418574
000390 92 55 bc be e8 94 03 3e 3e 6a ed 3d ee ba 8e 3b
       -0.36784035 0.12849772 0.1159253 0.00435578
0003a0 ef 7c 9d 3e 8d 2a 69 3e 23 80 8f 3c 16 94 90 3e
       0.3075938 0.22770138 0.017517155 0.2823798
0003b0 58 22 9f bd 33 34 dd be ab b5 ad bd d9 b9 cc 3e
       -0.077702224 -0.43203887 -0.08481916 0.3998554
0003c0 e6 82 54 be d7 2f f7 3d 27 9a 46 bc f8 e6 8a 3c
       -0.20753059 0.120696716 -0.012121714 0.016955838
0003d0 fd 13 26 be 7b ed 74 bd 41 cc f7 3d ad 55 97 3e
       -0.16218562 -0.05979679 0.12099505 0.29557553
0003e0 b2 2a ac bd 24 46 cd 3c 06 b9 8b 3e a7 45 74 bd
       -0.08406581 0.02505786 0.272896 -0.05963674
0003f0 a6 8e 1a 3e 6f 48 75 bd 10 bb c8 3a e2 04 2a 3e
       0.15093479 -0.05988353 0.0015314538 0.16603425

gnn_base.gnn.gnn1.lin_value.bias f4 [48]
000000 6f 05 99 3e 6e 76 0c 3e a6 5a dc bd 51 4e 34 3e
       0.29886958 0.13717052 -0.10759477 0.17608
000010 ad 88 38 3e 28 a1 ea 3d 58 64 54 bd 80 e3 1f 3d
       0.18020888 0.11456519 -0.051853508 0.03903532
000020 50 94 a5 3e 60 e6 6b be d2 8c 34 bc 19 c9 f7 bc
       0.32339716 -0.230371 -0.011019902 -0.030247258
000030 1d ac 48 be a9 dc 86 bc 33 98 43 bd 29 d8 9d 3e
       -0.19596906 -0.01646264 -0.04775257 0.3082898
000040 77 d3 ae 3e 77 c2 5c bd 3b bc 27 3e c6 94 25 3e
       0.3414571 -0.053896394 0.16380398 0.16170034
000050 55 7d 76 3e 6e 60 a4 be 50 4b ac be 50 80 cf 3d
       0.24071248 -0.3210482 -0.3365121 0.101318955
000060 86 0d 20 3e b7 e0 95 be 76 78 ae 3e 23 61 79 bd
       0.15630159 -0.29273006 0.3407628 -0.060883652
000070 5d e1 8c be ec 54 83 bd d4 4c a2 3d 99 ea a8 bc
       -0.2751569 -0.06412682 0.0792481 -0.020619677
000080 cb e0 94 3e e8 53 f5 bd 94 c8 80 3e d9 05 86 3d
       0.29077753 -0.119788945 0.2515303 0.06544084
000090 cb d6 07 3e ab b2 81 be 99 ba f0 be bd 17 54 3e
       0.13265531 -0.25331625 -0.47017363 0.2071218
0000a0 68 16 a1 3e e6 01 c1 be 46 f5 7f bd 79 88 aa 3d
       0.31462407 -0.3769676 -0.06248977 0.08326811
0000b0 72 74 5b 3d 2e 89 b7 3d c5 2b 23 bd c3 9f 33 3e
       0.053577848 0.08961712 -0.039836664 0.17541413

gnn_base.gnn.gnn1.lin_edge.weight f4 [48, 1]
000000 0a 1c 18 bf 63 a0 4e 3f 4f eb 8a be df 9d 20 bf
       -0.59417784 0.8071348 -0.2713265 -0.6274089
000010 09 50 2d bf d0 8a 83 3d 02 21 6a bf b6 14 d8 be
       -0.6770025 0.06422961 -0.91456616 -0.422033
000020 91 05 72 3f e8 07 ce 3d 98 27 35 bf 89 58 5f 3f
       0.94539744 0.10060102 -0.7076354 0.8724447
000030 d3 bb 9e 3f dc d3 e3 3c f5 94 07 bd 5f 17 5e 3e
       1.2401069 0.027810983 -0.03310104 0.21688603
000040 19 e3 b0 bd df 73 86 3e 58 22 f9 3e 6b 7e 4d 3f
       -0.086370654 0.26260278 0.48659015 0.80271024
000050 c8 87 9a 3e 78 fa 91 3e 96 48 9a be 8c e6 3e 3f
       0.30181718 0.28511405 -0.30133504 0.74570537
000060 52 34 2b 3f 8c 42 f8 3e 6d ec 3a 3f e0 29 86 3e
       0.6687671 0.4848827 0.7301701 0.26203823
000070 ca 17 c8 be 2a 35 69 3e 88 5e 46 bf 2a 7a df 3e
       -0.3908065 0.22774187 -0.77487993 0.4364789
000080 4f 3f b7 be 3d 40 1b 3f 09 96 bb 3e 3a fe 2e bf
       -0.35790488 0.60644895 0.36637905 -0.6835667
000090 d4 e6 3b bf 7c f7 9b 3e aa 96 8c bf cc 10 ad be
       -0.7339909 0.30462253 -1.0983479 -0.33801877
0000a0 26 4c 41 3f b3 63 ab 3e 07 09 5e 3f fe 12 73 bf
       0.7550682 0.33474502 0.86732525 -0.94950855
0000b0 07 c2 e6 3e 07 d8 db be 0e b8 8e 3e b1 95 13 3f
       0.45069906 -0.42938253 0.27874798 0.57650286

gnn_base.gnn.gnn1.lin_skip.weight f4 [16, 16]
000000 47 c4 86 be 97 3b 14 3e 2b 3a 6d bd de 79 b1 3e
       -0.26321623 0.14475857 -0.0579168 0.3466329
000010 66 40 b5 3e 2e 5c f8 be c0 8c a9 be 82 af 9e 3e
       0.35400695 -0.48507828 -0.33115196 0.30993277
000020 a6 4e 1f be 88 59 42 bd ee b7 98 be cf 82 8d be
       -0.15557346 -0.047448665 -0.29827827 -0.27638862
000030 97 4f 43 3e 9c 0c 34 be 8a d5 56 be 60 15 5f 3d
       0.1907333 -0.17582935 -0.20979896 0.054463744
000040 75 a8 d4 3d d8 23 0b be f4 fb 29 3e 99 94 f6 3d
       0.10383693 -0.13587892 0.16600019 0.120400615
000050 3c 63 b3 bd 3a 8d 45 3e 2b 2c 4b 3e 5b d2 6c be
       -0.08759162 0.19292155 0.19841067 -0.23127119
000060 a2 53 fe bd 81 8a 9d bd 91 c7 36 bd 3d 05 e4 3d
       -0.124182954 -0.07692433 -0.044623915 0.111338116
000070 96 e2 dd bd b5 fd 1c 3e be e2 20 3d 63 9c 0a 3e
       -0.108342335 0.15331157 0.03927874 0.1353622
000080 b3 76 23 bc 85 ad a4 3e 29 f6 0d bc bd 50 82 be
       -0.009977031 0.32163635 -0.008664646 -0.25452223
000090 8c 5e ab 3e 73 d8 a1 bc b9 71 da 3e 41 5e 8a bd
       0.3347057 -0.019756531 0.42664889 -0.06756259
0000a0 34 0d 24 3e 92 3e 15 3c 3e 45 cb bd 40 11 b8 3d
       0.16020662 0.009109156 -0.09925316 0.08987665
0000b0 d1 73 fa 3d 50 9d 25 3e 09 76 cc 3d 34 c5 84 be
       0.122291215 0.16173291 0.09983451 -0.25931704
0000c0 06 65 b8 3d 1d 6c 99 bb 11 8a 59 be fd 3e de bd
       0.09003644 -0.0046820776 -0.21244074 -0.10851858
0000d0 17 d1 a5 3e 6b 4e a9 3d 9e 10 55 be d5 7c 97 3d
       0.32386085 0.0826691 -0.2080712 0.07396857
0000e0 a7 d2 f6 3b 49 af 57 be 11 db 84 bd a7 7f bb be
       0.007532436 -0.2106296 -0.06487096 -0.36620829
0000f0 29 2a 05 3f 8d 8f 68 3e 13 43 d7 3c 2d 01 51 be
       0.52017456 0.2271101 0.0262771 -0.20410605
000100 31 a2 97 be 44 57 22 be c7 4a c1 bc 55 f8 fe bd
       -0.2961593 -0.15853602 -0.023595227 -0.12449709
000110 0c bf 2f 3e 27 ca 0b 3d b1 e3 fc 3d fd f5 1c 3d
       0.17162722 0.034128334 0.12348116 0.03832053
000120 ee f8 ae be 19 03 aa 3e 78 29 45 3e 07 6e b1 be
       -0.34174293 0.33205488 0.192541 -0.34654257
000130 d9 f9 89 be 8e fd 8d bd f7 6a a6 bd fa e6 c4 3e
       -0.2694843 -0.06933127 -0.08125871 0.3845747
000140 12 94 41 be 4c 4a c1 be c6 26 02 3f 73 ce 5e be
       -0.1890414 -0.37751997 0.50840414 -0.21758442
000150 6e 51 54 3d df f1 35 be ef 5d 6a 3c 70 7f b0 3c
       0.05183547 -0.17768048 0.014304622 0.021545142
000160 21 73 ad 3e 5b 81 f9 3d eb 17 1c be 12 dd df ba
       0.338769 0.12182876 -0.15243499 -0.0017079434
000170 15 e0 86 3d b9 58 9f bd 34 cf 08 bc 9d 5e b9 be
       0.06585709 -0.077805944 -0.008350182 -0.36204997
000180 7f 79 34 3e a9 a9 2d be 5d 0d 20 3e 20 07 24 3e
       0.17624472 -0.16959251 0.15630098 0.16018343
000190 7a 21 41 3e ab 19 07 3d cb 59 d6 bd 02 e6 ae 3e
       0.18860427 0.032983463 -0.104663454 0.34159857
0001a0 52 21 8d 3d e5 b9 30 3e 9c d0 5e 3e 8c 1d e6 3e
       0.06891121 0.17258413 0.21759266 0.44944417
0001b0 d1 6f 9e 3d 39 33 b9 3d de 8c 90 3e 8c 8b ff be
       0.07736171 0.09042973 0.28232473 -0.49911153
0001c0 3f 23 0a be 4c 6e a9 be 5a d6 a4 3d 3b 82 0e be
       -0.13490008 -0.33091962 0.08048697 -0.13916866
0001d0 3e b5 f6 bd b9 cd 35 be 2d 04 a8 be e8 dc 1c be
       -0.12046288 -0.17754258 -0.32815686 -0.15318644
0001e0 b3 58 72 be a9 a7 e6 3e bf f3 c8 3e af 16 2e 3e
       -0.23666649 0.4504979 0.39248464 0.1700084
0001f0 6c 67 a6 bd 26 11 b2 3e 69 b6 93 bd 9e 5b 48 3e
       -0.08125195 0.34778708 -0.07212526 0.19566199
000200 7f 36 9c 3e e8 9f b7 be c3 7f be be d9 9a 0f be
       0.30510327 -0.35864186 -0.3720685 -0.14023913
000210 3b 15 bc be 1a 7d 9d 3e b0 74 6d 3e b2 2c 57 be
       -0.36734948 0.30759507 0.23189044 -0.21013144
000220 52 5b c8 be 96 ac c3 bd 8d 03 be 3d b3 0a fc be
       -0.39132172 -0.095544025 0.09278021 -0.49226913
000230 29 8d 99 be bf 6a 5b 3e 58 e9 83 3e 25 74 35 3e
       -0.2999051 0.21427439 0.25763965 0.17720087
000240 1a 74 2a be 34 45 33 be 80 60 f2 3e 68 fa 20 be
       -0.16645852 -0.17506868 0.4733925 -0.15720522
000250 bd 7d 85 bd da 42 52 3e 3c a7 b2 3c f4 97 93 be
       -0.06518123 0.20533314 0.02180826 -0.2882687
000260 02 cc 27 3e 7f 2b 1c 3c db b8 e5 bd fd 77 27 3e
       0.16386417 0.009531855 -0.11216899 0.16354366
000270 70 77 0e be 9e 74 d8 bd 2c 1b e0 3e 6d 5a 0d be
       -0.1391275 -0.10569118 0.4377073 -0.13804026
000280 ce 5b 23 3e ff f0 0a 3e 4d 48 04 be 78 27 2d bd
       0.1595299 0.13568495 -0.12918206 -0.04227397
000290 e4 88 94 3d 96 24 5b be fd 82 e3 bd 95 0c 45 3e
       0.07252672 -0.21400675 -0.111089684 0.19243081
0002a0 b0 8f c9 be 6b 17 4c 3e d0 12 be bd 6e d3 61 be
       -0.39367437 0.19930808 -0.09280932 -0.2205331
0002b0 4b 8f fc 3d c0 5b eb 3d d0 25 bd 3c ca d4 a6 bc
       0.123320185 0.11492109 0.02308932 -0.020365138
0002c0 0d 66 78 bd 35 eb 61 ba 41 04 31 3e 29 6b df bd
       -0.0606442 -0.00086181174 0.17286779 -0.10909111
0002d0 60 46 98 3d 1e 57 35 be 6e 68 ea bb 97 70 2c be
       0.07435298 -0.17709014 -0.0071535623 -0.16839825
0002e0 d8 3c f1 bc 2a e2 d1 be 23 52 6b 3e a1 1e 9d be
       -0.029447958 -0.40992862 0.22980551 -0.3068743
0002f0 c8 4c 4b 3c ff a0 5a 3e b2 71 46 3c e5 c4 be bd
       0.012408443 0.21350478 0.012112068 -0.093148984
000300 6b ea 9d 3d 12 75 8a 3e cd 47 74 be 15 4f 9c 3e
       0.07710727 0.27042443 -0.23855515 0.30529085
000310 80 01 dc 3e a4 44 15 3d bd 01 43 3e 6b fc cf bc
       0.42969894 0.036442414 0.19043632 -0.025388917
000320 db a4 18 3e 9c 62 89 bc 14 8e 1e bf ef 15 7f 3e
       0.14906637 -0.016770653 -0.61935544 0.24910711
000330 01 6b 94 3c 1c d7 ff bd 9a 4f aa 3d 20 d6 b1 be
       0.01811743 -0.12492201 0.08315964 -0.34733677
000340 53 b2 41 3e 3e a2 f6 bd 05 cd 19 ba 95 0c 05 be
       0.18915682 -0.12042664 -0.0005867037 -0.12993081
000350 76 39 a5 be ea b5 8a bd 0c f5 a1 3e 4c 52 5d be
       -0.32270402 -0.067729786 0.31632268 -0.21613425
000360 db 18 fd bd 05 30 d0 bd a7 28 69 3e 0f a0 78 3e
       -0.123582564 -0.10165409 0.22769414 0.24279808
000370 d7 7f 5c be 2f 22 04 3f 35 52 81 be 9e d6 41 3d
       -0.21533142 0.5161466 -0.2525803 0.047323816
000380 ec 26 95 be 9e b0 9e bd 3b ac ce 3e 09 96 61 be
       -0.29131258 -0.07748531 0.40365776 -0.2202989
000390 76 9f ed 3d 8d d7 06 bd f3 1c 84 3d b2 33 41 3e
       0.116026804 -0.03292041 0.06450834 0.18867376
0003a0 75 dc 2b 3e 6a bc 04 3e cf b0 5b be 20 d8 da 3e
       0.16783316 0.129625 -0.21454166 0.42743015
0003b0 c4 7a 3f bd 89 21 99 be 97 4f 6b 3e 59 a3 d5 3e
       -0.046747938 -0.29908398 0.2297958 0.41726187
0003c0 28 64 86 be e4 8c b8 3d a0 f0 7f bd 62 92 2d 3c
       -0.26248288 0.09011248 -0.062485337 0.010593982
0003d0 1b c8 48 3e c7 bc 20 3e 28 88 71 bd 56 bd 39 bd
       0.19607584 0.15697013 -0.05896774 -0.04534658
0003e0 f4 48 a5 be eb b1 44 3e 84 5a e0 3e 03 0f a1 be
       -0.3228222 0.19208495 0.43819058 -0.31456766
0003f0 45 b3 99 3e 5f d3 0a 3e ed 14 cc 3d 50 36 75 3e
       0.30019584 0.13557194 0.09964929 0.239465

gnn_base.gnn.gnn1.lin_skip.bias f4 [16]
000000 6e 3f 3a 3d 70 32 c8 3e 82 ff b0 3d ca e4 21 3e
       0.045470648 0.3910098 0.08642484 0.15809932
000010 93 44 4b 3e a7 a3 4b be 64 7f da be b0 1d ac 3d
       0.19850378 -0.19886647 -0.42675316 0.084041
000020 db 80 a9 3e b9 8c 9b be 1e 84 09 3e 28 c0 45 3d
       0.3310612 -0.303808 0.13429305 0.048278958
000030 d8 b3 6f be 85 2f 45 be e9 81 34 3e 3f 13 a2 3e
       -0.23408449 -0.19256409 0.17627682 0.3165531
