onpolicy/trained_models/informal_sat_3_graph/files/critic.pt (torch, 196794 bytes, 57 tensors)

gnn_base.gnn.embed_layer.layer_norm.weight f4 [16]
0	0x3fa20f10	1.2660847
1	0x3f732883	0.9498369
2	0x3f0df144	0.5544627
3	0x3f391447	0.72296566
4	0x3eac8b07	0.3369982
5	0x3f45a71c	0.77208114
6	0x3f828389	1.0196391
7	0x3f43d260	0.7649288
8	0x3f0fdbd6	0.5619482
9	0x3f7d4791	0.98937327
10	0x3faa8fc5	1.3325125
11	0x3f9684c8	1.1759272
12	0x3f03edaf	0.5153455
13	0x3f31bdd5	0.69430286
14	0x3f370da9	0.7150522
15	0x3f3cdf8c	0.73778605

gnn_base.gnn.embed_layer.layer_norm.bias f4 [16]
0	0xbcc7b0af	-0.024376241
1	0x3a342db7	0.0006873267
2	0x3e828d4b	0.25498423
3	0xbd34b1d5	-0.044114906
4	0xbe9b6294	-0.30348647
5	0x3e676c93	0.22600012
6	0x3e1063d5	0.14100583
7	0x3e0cde73	0.13756733
8	0xbe89c95f	-0.26911446
9	0x3ddc4577	0.10755437
10	0x3dec904b	0.11550959
11	0x3e1d2349	0.15345491
12	0x3e53a776	0.2066935
13	0x3e6db0d0	0.2321198
14	0xbdd11baa	-0.102103546
15	0x3e96a9a5	0.29426304

gnn_base.gnn.embed_layer.entity_embed.weight f4 [3, 2]
0	0xbdc3b1af	-0.09555375
1	0xbdd8ee55	-0.10592333
2	0xbf3c1333	-0.73466796
3	0xbf244919	-0.6417404
4	0x3f181d9d	0.59420186
5	0x3ed3468b	0.41264758

gnn_base.gnn.embed_layer.lin1.weight f4 [16, 7]
0	0xbe52a05b	-0.20568983
1	0xbc982611	-0.018572839
2	0x3cc68e42	0.024237756
3	0x3bde2f19	0.006780517
4	0x3d5bc412	0.053653784
5	0xbd431dce	-0.047635846
6	0x3fc4711c	1.5347018
7	0xbecf4530	-0.40482473
8	0xbd033d56	-0.032040916
9	0x3c3bf842	0.0114727635
10	0x3d09b640	0.033621073
11	0x3f0244bb	0.50886124
12	0xbdb99278	-0.0906114
13	0xbd616549	-0.055028234
14	0x3e8e0123	0.27735242
15	0xbf565f10	-0.83738804
16	0x3deb249b	0.11481591
17	0x3cc28564	0.023745246
18	0xbe28ce22	-0.16484883
19	0xbe40231f	-0.18763398
20	0xbe711eec	-0.23546952
21	0x3f03aff9	0.5144039
22	0x3ee3ccd3	0.44492206
23	0xbe95853f	-0.2920322
24	0x3c85e81a	0.016346026
25	0x3ed72ea8	0.42027783
26	0x3f1559df	0.5834026
27	0x3eab194c	0.33417737
28	0xbc803b12	-0.015653167
29	0xbf6ccd93	-0.9250118
30	0x3cf96cac	0.030447327
31	0xbccc5341	-0.024942042
32	0x3f2c3603	0.67269915
33	0x3f1f9be0	0.6234722
34	0xbe81b862	-0.25335985
35	0xbd061bc7	-0.032741334
36	0x3dcc52e0	0.09976745
37	0xbe2b2452	-0.16713074
38	0x3d839304	0.064245254
39	0xbd64ed2f	-0.05589026
40	0xbf0379cc	-0.5135772
41	0x3d81931e	0.063268885
42	0xbea07d6e	-0.31345695
43	0x3f21b8a8	0.6317239
44	0xbd8fb0de	-0.070161566
45	0xbedaf3af	-0.4276404
46	0xbe058ec7	-0.13042746
47	0x3ec3048f	0.38089415
48	0xbd4fd79b	-0.050742727
49	0xbf8239f9	-1.0173942
50	0xbc983b0b	-0.018582841
51	0xbbd61a69	-0.00653391
52	0x3bc43a10	0.005988367
53	0x3e741885	0.23837478
54	0x3f05ecca	0.52314436
55	0xbee104cf	-0.4394898
56	0xbfd54602	-1.666199
57	0x3d6eb040	0.058273554
58	0x3dbf9f0c	0.09356508
59	0x3d643b2a	0.055720486
60	0xbf1661a2	-0.58742726
61	0x3ea98b0c	0.33113897
62	0x3e81ff82	0.2539025
63	0x3d8a5ceb	0.06756004
64	0x3f89ecf3	1.0775436
65	0x3c2c3aae	0.010512037
66	0x3d25afcb	0.040450852
67	0x3f2fa6f2	0.68614113
68	0xbe183ddc	-0.14867347
69	0xbf9fdc11	-1.2489034
70	0xbe47ff22	-0.19530919
71	0x3d02faf4	0.03197761
72	0xbd03430a	-0.032046355
73	0x3caaa546	0.020830762
74	0x3f093ec6	0.5361141
75	0xbe1c321f	-0.15253495
76	0x3eca0ec5	0.39464393
77	0xbeabad36	-0.33530587
78	0x3b325db2	0.0027216491
79	0x3cf2893e	0.029606458
80	0x3c82816f	0.01593086
81	0xbf136948	-0.5758252
82	0xbee2be30	-0.44285727
83	0xbf807691	-1.0036184
84	0x3d7e2672	0.062048383
85	0x3f0004ae	0.5000714
86	0xbcee7ef9	-0.02911328
87	0x3c64d33e	0.01396638
88	0xbe3ac64a	-0.18239704
89	0xbe6f997c	-0.23398393
90	0x3f710a14	0.94156003
91	0xbe1cc83f	-0.15310763
92	0x3da4809b	0.08032342
93	0xbe371f41	-0.17883016
94	0xbcb6026a	-0.022217948
95	0xbe002e71	-0.12517716
96	0xbf08f581	-0.5349961
97	0x3f39e239	0.72610813
98	0xbcf84093	-0.030304229
99	0xbcab9780	-0.020946264
100	0xbd62aa49	-0.055338178
101	0xbcdb5268	-0.026772693
102	0x3f19b2c2	0.6003839
103	0xbe818f37	-0.25304577
104	0xbeccf161	-0.40027907
105	0x3e9dcf00	0.3082199
106	0xbf10801e	-0.5644549
107	0xbe1b673f	-0.15176104
108	0x3d770c99	0.06031475
109	0x3e687b1b	0.22703211
110	0x3f074e15	0.5285352
111	0x3e26ee76	0.16301903

gnn_base.gnn.embed_layer.lin1.bias f4 [16]
0	0x3dcb5c35	0.099296965
1	0x3e89e862	0.26935107
2	0x3dbd04e5	0.09229449
3	0xbca88d90	-0.020575315
4	0x3ddce886	0.10786538
5	0x3da117fc	0.07865903
6	0xbed9a2a7	-0.42506906
7	0x3d82748f	0.06369888
8	0x3d879f92	0.066222325
9	0xbc6d2566	-0.0144742485
10	0xbda15039	-0.078766294
11	0x3c466b83	0.012110594
12	0xbeab3e4a	-0.3344596
13	0x3de8e7c3	0.1137233
14	0xbdb2d1ea	-0.08731444
15	0xbe88a69f	-0.26689622

gnn_base.gnn.embed_layer.layers.0.weight f4 [16, 16]
0	0x3e870cbe	0.2637691
1	0x3f1744cb	0.59089345
2	0x3f179dbb	0.5922505
3	0x3ea85838	0.32879806
4	0xbf5c8c4c	-0.86151576
5	0x3e11657f	0.14198874
6	0x3ebad0a6	0.3648731
7	0xba4647f7	-0.0007563824
8	0x3d611741	0.054953817
9	0x3e58b035	0.21160968
10	0xbda26a7d	-0.07930467
11	0x3f11f6a2	0.57016957
12	0xbe3da5ea	-0.18520322
13	0x3e9bb506	0.30411547
14	0x3e824e95	0.25450578
15	0xbd0eb50d	-0.034840632
16	0xbf3d4853	-0.73938483
17	0xbde40b0b	-0.11134919
18	0xbe8945a6	-0.2681095
19	0xbecaccff	-0.39609525
20	0xbee39c6f	-0.44455287
21	0xbdc4a849	-0.0960241
22	0x3c5018dc	0.012701239
23	0xbde3aaa7	-0.11116534
24	0xbd8f0ac8	-0.06984478
25	0xbe8d4794	-0.27593672
26	0xbeb3585b	-0.35028347
27	0x3eda8151	0.42676786
28	0xbe61265b	-0.21987288
29	0xbe831114	-0.25598967
30	0x3f535355	0.8254903
31	0x3e7c03ba	0.24610797
32	0xbedf7ebf	-0.43651387
33	0x3c61aa82	0.013773562
34	0xbd5cf114	-0.053940848
35	0x3cc09370	0.023507804
36	0xbecc792f	-0.39936206
37	0x3e82cf9c	0.25549018
38	0x3f3082ba	0.6894947
39	0xbc44286a	-0.011972526
40	0xbead03a1	-0.3379183
41	0x3f01bebb	0.50681657
42	0xbd49cfe6	-0.049270533
43	0xbeffaeaa	-0.49937946
44	0xbf036185	-0.5132068
45	0x3f3dc08a	0.74121916
46	0xbc5cca3d	-0.013475952
47	0x3ec9e529	0.39432648
48	0x3ec7e349	0.39040592
49	0xbd761c21	-0.06008542
50	0x3edf881f	0.4365854
51	0x3f1f6e61	0.622778
52	0x3f3548bf	0.70814127
53	0xbf19c218	-0.6006179
54	0x3eaa90fd	0.33313742
55	0x3efa4c7f	0.48886487
56	0xbe079865	-0.13241728
57	0x3e34c458	0.17653024
58	0x3e627a91	0.22117068
59	0x3db2d5fd	0.08732221
60	0xbec1da3b	-0.3786181
61	0xbf06f25a	-0.5271355
62	0x3f10b1c1	0.5652123
63	0x3e3e6a09	0.18595137
64	0x3f92a3a8	1.1456194
65	0xbf5db75f	-0.8660793
66	0x3e48e758	0.196195
67	0xbed1915f	-0.40931222
68	0xbf479dbd	-0.77975065
69	0x3e6181db	0.22022192
70	0x3ebddd6c	0.37082994
71	0xbf5abac4	-0.8544123
72	0x3f6e12b1	0.9299727
73	0xbdf735c8	-0.12070805
74	0x3e8ede39	0.27903917
75	0xbf50938e	-0.8147515
76	0x3f33f73b	0.7029912
77	0x3f3f9e60	0.74851036
78	0xbe254cbc	-0.16142553
79	0xbdfc5e8d	-0.12322722
80	0xbea3e1f8	-0.32008338
81	0xbd9f57f6	-0.07780449
82	0x3e59cccb	0.21269529
83	0xbe81eba4	-0.25375092
84	0x3eb6b994	0.3568846
85	0xbf0cdab3	-0.5502121
86	0xbc05b2f1	-0.008160339
87	0xbf058ca2	-0.52167714
88	0xbe2eb3df	-0.17060803
89	0xbbb57632	-0.0055377716
90	0x3ea91fa1	0.33031943
91	0xbcc26dd0	-0.023734003
92	0xbdf59f83	-0.11993315
93	0x3ee63155	0.44959512
94	0x3f0db1f7	0.5534968
95	0xbf1e476d	-0.6182774
96	0xbfcbc707	-1.5920113
97	0xbc6d9460	-0.014500707
98	0x3d664d07	0.056225803
99	0xbd8581e5	-0.06518916
100	0x3ef8af61	0.48571303
101	0x3d2873c3	0.041126024
102	0xbdc89eeb	-0.09795936
103	0x3eb0f56f	0.3456225
104	0xbd4afeb2	-0.049559303
105	0x3ec8b154	0.3919779
106	0x3ddd43b9	0.10803933
107	0x3f8acb4e	1.0843294
108	0xbf022bf4	-0.5084832
109	0xbe811cec	-0.25217378
110	0x3c42da5f	0.011892884
111	0xbde5cf5e	-0.11221193
112	0x3e71cfd8	0.23614442
113	0x3edc779c	0.43060005
114	0x3f2f9be7	0.68597263
115	0xbee65b54	-0.44991553
116	0xbdc26a43	-0.09492924
117	0x3f042a05	0.51626617
118	0xbe908f62	-0.28234392
119	0xbf164c2b	-0.58709973
120	0x3e971481	0.2950783
121	0x3f34988e	0.7054528
122	0xbe2ff810	-0.17184472
123	0xbe65510a	-0.22394195
124	0xbe887ef6	-0.26659364
125	0xbe815a6a	-0.25264293
126	0x3f33c98a	0.702294
127	0x3e2970a7	0.1654688
128	0x3f1c52ed	0.61064035
129	0x3dbf2b66	0.093344495
130	0xbee546ac	-0.4478048
131	0xbc5faf1f	-0.013652592
132	0x3ea5af8a	0.32360488
133	0xbf0ca276	-0.54935396
134	0xbf2615ef	-0.6487722
135	0x3d8b727d	0.06808946
136	0xbf3f380d	-0.746949
137	0xbec942a9	-0.3930867
138	0x3eacfcda	0.3378666
139	0x3eeb3a3d	0.4594287
140	0xbf7f5554	-0.99739575
141	0xbed6dcf3	-0.41965446
142	0xbe85154e	-0.25992817
143	0xbda535a6	-0.08066873
144	0x3da9c0ec	0.0828875
145	0xbec3d2d3	-0.38246784
146	0xbe8c92c8	-0.27455735
147	0xbeb548c1	-0.3540707
148	0xbea00001	-0.31250003
149	0xbe5b9252	-0.21442536
150	0xbf34f660	-0.7068844
151	0x3ec6072e	0.38677353
152	0xbe8e9e2b	-0.27855048
153	0x3e49d105	0.19708641
154	0xbe0b1c8b	-0.13585107
155	0x3db1ab14	0.08675209
156	0x3ee750c6	0.45178813
157	0x3d9e8ad8	0.07741326
158	0x3e49e227	0.19715177
159	0xbeae6655	-0.34062448
160	0xbfd43e95	-1.6581599
161	0x3b339800	0.0027403831
162	0x3f0547b8	0.5206256
163	0xbdd81c4a	-0.10552271
164	0x3ee4b272	0.44667393
165	0xbd33e22e	-0.043916874
166	0x3d7ea159	0.062165592
167	0x3f78b0d7	0.97144836
168	0x3e4b2243	0.19837289
169	0x3f2b1d3d	0.6684149
170	0xbc12839a	-0.008942509
171	0xbddb76bf	-0.107160084
172	0xbeafbed0	-0.34325266
173	0xbe9001a4	-0.28126252
174	0x3cdb29ef	0.026753394
175	0xbd322d13	-0.043500017
176	0x3d0513d7	0.032489624
177	0xbeeeb02b	-0.4661878
178	0x3ed80d67	0.42197725
179	0xbe15cc43	-0.14628701
180	0x3d1b60c0	0.037934065
181	0x3ebe69cd	0.37190095
182	0x3ea713a9	0.32632187
183	0xbc2655bb	-0.010152276
184	0x3dce7564	0.10080984
185	0xbe806a3b	-0.25081047
186	0x3e772179	0.24133863
187	0x3f33cfc8	0.70238924
188	0x3eb45805	0.35223404
189	0xbd615b40	-0.055018663
190	0xbe0e8934	-0.13919526
191	0x3d387e69	0.04504243
192	0xbcfe2f7a	-0.031028498
193	0x3f19934b	0.59990376
194	0x3f05f7ab	0.52331036
195	0xbf44ae2c	-0.76828265
196	0x3e03e6e9	0.12881054
197	0xbf1c117a	-0.6096417
198	0x3e262c3f	0.16227816
199	0xbb96fe9c	-0.0046079885
200	0x3f3e4c15	0.7433484
201	0x3e9878f5	0.29779783
202	0xbd9dc2b4	-0.07703152
203	0x3d6a880d	0.057258654
204	0x3e30cf18	0.172665
205	0x3df9a368	0.121893704
206	0xbceb864e	-0.028750565
207	0x3fab8980	1.3401337
208	0xbf54c312	-0.83110154
209	0xbf2c1b8d	-0.6722954
210	0x3f553cc0	0.8329582
211	0x3f08122a	0.53152716
212	0xbf8b0534	-1.0860963
213	0xbe9b2598	-0.3030212
214	0x3ebef515	0.37296358
215	0x3d9ebbc6	0.07750659
216	0x3f56b6b3	0.83872527
217	0x3ed82187	0.4221308
218	0xbeb6254b	-0.35575327
219	0xbee534f5	-0.44766966
220	0x3efaeb69	0.4900773
221	0xbf0e7747	-0.5565075
222	0xbf1f059f	-0.6211795
223	0x3d1e2d59	0.038617466
224	0x3ec19757	0.37810776
225	0x3e9f0034	0.31054842
226	0xbee6a796	-0.45049733
227	0x3e00511c	0.12530941
228	0x3e424d19	0.18974723
229	0xbd6866f7	-0.05673882
230	0x3e2d83dd	0.16944833
231	0xbe390f61	-0.18072273
232	0xbcae3bc8	-0.02126874
233	0xbf614636	-0.8799776
234	0x3f868c7f	1.0511626
235	0x3df62339	0.12018437
236	0xbe22a2f1	-0.1588247
237	0xbeea739d	-0.4579133
238	0x3e7b888e	0.2456381
239	0x3e96442b	0.29348883
240	0x3d53a273	0.051668596
241	0xbf041b85	-0.5160449
242	0x3dcd285d	0.10017464
243	0xbeed44db	-0.46341595
244	0xbe5d1507	-0.21590053
245	0x3f0ceac9	0.55045754
246	0x3ef2d082	0.47424704
247	0x3d101adc	0.035181865
248	0x3c0f25d5	0.008737047
249	0x3f0224a3	0.50837153
250	0x3eabe5f9	0.33573893
251	0x3ebd1a14	0.3693396
252	0xbe7dc429	-0.2478186
253	0xbebc62d8	-0.36794162
254	0xbcda736e	-0.02666637
255	0xbecf7196	-0.40516347

gnn_base.gnn.embed_layer.layers.0.bias f4 [16]
0	0xbe1fe037	-0.15612875
1	0xbe028641	-0.12746526
2	0xbdb14a2c	-0.08656725
3	0xbd778faf	-0.06043976
4	0x3db5ef06	0.08883481
5	0xbd6daab8	-0.05802414
6	0x3c6fc641	0.01463467
7	0xbd5ca6de	-0.053870074
8	0x3da15ca5	0.07878999
9	0xbe44de2a	-0.19225374
10	0xbcdc1ee3	-0.026870197
11	0xbd0aeade	-0.033915393
12	0xbd176e79	-0.03697059
13	0x3ef4a739	0.4778383
14	0xbe769c53	-0.2408307
15	0xbde849c2	-0.11342193

gnn_base.gnn.embed_layer.layers.2.weight f4 [16]
0	0x3fa20f10	1.2660847
1	0x3f732883	0.9498369
2	0x3f0df144	0.5544627
3	0x3f391447	0.72296566
4	0x3eac8b07	0.3369982
5	0x3f45a71c	0.77208114
6	0x3f828389	1.0196391
7	0x3f43d260	0.7649288
8	0x3f0fdbd6	0.5619482
9	0x3f7d4791	0.98937327
10	0x3faa8fc5	1.3325125
11	0x3f9684c8	1.1759272
12	0x3f03edaf	0.5153455
13	0x3f31bdd5	0.69430286
14	0x3f370da9	0.7150522
15	0x3f3cdf8c	0.73778605

gnn_base.gnn.embed_layer.layers.2.bias f4 [16]
0	0xbcc7b0af	-0.024376241
1	0x3a342db7	0.0006873267
2	0x3e828d4b	0.25498423
3	0xbd34b1d5	-0.044114906
4	0xbe9b6294	-0.30348647
5	0x3e676c93	0.22600012
6	0x3e1063d5	0.14100583
7	0x3e0cde73	0.13756733
8	0xbe89c95f	-0.26911446
9	0x3ddc4577	0.10755437
10	0x3dec904b	0.11550959
11	0x3e1d2349	0.15345491
12	0x3e53a776	0.2066935
13	0x3e6db0d0	0.2321198
14	0xbdd11baa	-0.102103546
15	0x3e96a9a5	0.29426304

gnn_base.gnn.gnn1.lin_key.weight f4 [48, 16]
0	0x3cb5cfcf	0.022193817
1	0xbe0c7bd1	-0.13719107
2	0x3c30e93b	0.010797794
3	0x3ea32003	0.3186036
4	0x3c6af1dc	0.01433989
5	0x3d13daef	0.036097463
6	0xbdf47ccf	-0.11937868
7	0xbeaa2d42	-0.33237654
8	0x3e6dc211	0.23218562
9	0x3e7a930b	0.24470155
10	0x3d772cfa	0.060345627
11	0x3dea7b8b	0.11449345
12	0x3ed2a8e8	0.4114449
13	0xbc8623d3	-0.016374504
14	0xbe144d0b	-0.14482515
15	0x3e6087aa	0.21926752
16	0x3ea8b9c4	0.32954228
17	0xbe8ff525	-0.28116718
18	0x3e46097b	0.19339554
19	0xbc003fc8	-0.007827707
20	0x3e742ea7	0.23845921
21	0xbe299aed	-0.16563006
22	0xbdc2f9d4	-0.09520307
23	0xbd00a4da	-0.031407215
24	0xbdc44ff3	-0.095855616
25	0xbb573c4e	-0.003284234
26	0x3f0b08d3	0.5431034
27	0xbd575fef	-0.052581724
28	0xbec38133	-0.3818451
29	0xbe975789	-0.29558972
30	0x3e3261d7	0.17420135
31	0x3dc9ca05	0.09852985
32	0x3d35515e	0.04426705
33	0x3e600b72	0.21879366
34	0x3cc78061	0.024353208
35	0xbe7a6045	-0.24450786
36	0xbe0be472	-0.13661364
37	0xbde13bfc	-0.10997769
38	0x3e4f5ab5	0.20249446
39	0x3d36fcec	0.0446748
40	0x3e82e7a0	0.2556734
41	0x3dd7f6c3	0.10545113
42	0xbebd5bea	-0.36984187
43	0x3da4dab7	0.08049529
44	0xbeaa484f	-0.33258292
45	0x3eae8cf6	0.3409192
46	0xbe117c87	-0.1420766
47	0x3e28d456	0.1648725
48	0xbdb9c034	-0.09069863
49	0xbef2a7d8	-0.4739368
50	0xbce395e7	-0.02778144
51	0xbe2e89e3	-0.17044787
52	0xbdbbf4a6	-0.09177522
53	0xbdc07114	-0.09396568
54	0xbeb740a7	-0.35791513
55	0xbe307e36	-0.17235646
56	0xbd36e7b7	-0.044654574
57	0xbe348cbe	-0.17631814
58	0x3ed945ec	0.4243616
59	0xbd382d5d	-0.044965137
60	0x3dc3f6b8	0.09568542
61	0xbd9ee338	-0.07758182
62	0x3d631434	0.05543919
63	0xbda5364f	-0.08066999
64	0x3e731b62	0.23740914
65	0x3db30291	0.08740724
66	0xbea82816	-0.32843083
67	0xbd0f789e	-0.03502714
68	0xbe1501ce	-0.1455147
69	0xbec7a10a	-0.3899005
70	0xbb3f65b9	-0.0029204919
71	0xbc14a655	-0.00907286
72	0xbe04a8ab	-0.12954967
73	0x3ec6b0a1	0.38806632
74	0x3d1616c3	0.0366428
75	0x3db01aca	0.085988596
76	0xbec5d22e	-0.38636917
77	0x3dfa508e	0.12222396
78	0xbe4b7c70	-0.19871688
79	0xbcfc4199	-0.030792998
80	0x3e493557	0.19649254
81	0x3e2e8148	0.17041504
82	0xbddc1970	-0.10747039
83	0x3d86ed1b	0.06588193
84	0xbcfa888c	-0.030582689
85	0x3c958183	0.018250233
86	0x3ce1027b	0.027467003
87	0x3e2067aa	0.15664545
88	0x3e5d302e	0.2160041
89	0x3d9d0711	0.076673634
90	0xbdc98978	-0.09840673
91	0xbe0a9417	-0.13533054
92	0x3bfec5ba	0.0077750357
93	0xbd601ec5	-0.054716844
94	0xbecb0766	-0.39654082
95	0x3e2262ce	0.15858003
96	0x3e387560	0.18013525
97	0xbe045d14	-0.12926131
98	0xbdb498b1	-0.08818186
99	0xbe3d8184	-0.18506438
100	0xbdadc66c	-0.084851116
101	0x3da51bd9	0.08061952
102	0x3aec250a	0.001801641
103	0xbeeb0210	-0.4590001
104	0xbeb9d43e	-0.3629474
105	0xbd935030	-0.07193029
106	0x3e0e5d1a	0.13902703
107	0xbea6bbc5	-0.32565132
108	0x3e0a05ce	0.13478777
109	0x3cc46f53	0.023978865
110	0x3d9191f0	0.071079135
111	0xbd4b6331	-0.049655143
112	0xbeda4b82	-0.42635733
113	0x3d31257d	0.043248642
114	0xbe6aa70f	-0.2291529
115	0xbe0107be	-0.1260061
116	0xbe94313f	-0.28943822
117	0x3e8cbe3b	0.27488884
118	0x3ecbf912	0.39838463
119	0xbe6703f5	-0.22560103
120	0x3dcf2731	0.10114897
121	0x3dfb026b	0.122563206
122	0xbe0615a1	-0.13094188
123	0x3c98f3fd	0.01867103
124	0xbdcdcccc	-0.100488275
125	0xbdf812e5	-0.12112979
126	0x3db68ef5	0.08913986
127	0xbd51da3d	-0.05123352
128	0xbe2dd813	-0.16976957
129	0xbd7a7f26	-0.061156414
130	0x3e32f325	0.17475565
131	0x3dddb5c0	0.10825682
132	0xbe0d8790	-0.13821244
133	0xbd8ebc82	-0.06969549
134	0x3e6145eb	0.21999328
135	0x3db15856	0.08659427
136	0x3e591d17	0.21202503
137	0x3e6bbb57	0.23020683
138	0xbef24b1c	-0.4732293
139	0x3c9d1983	0.019177204
140	0x3ddc0d30	0.10744703
141	0x3df046f1	0.11732281
142	0x3db9b338	0.090673864
143	0x3ec62c7a	0.38705808
144	0x3e0d3fef	0.1379392
145	0xbe1ed52f	-0.1551101
146	0x3db474bc	0.08811328
147	0x3d6912ac	0.056902573
148	0xbd14287b	-0.036171418
149	0xbd6cb6be	-0.057791464
150	0xbda21b59	-0.079153724
151	0xbcb541ae	-0.022126045
152	0x3ded0229	0.11572678
153	0xb9e41195	-0.00043500648
154	0xbc1aa518	-0.0094387755
155	0x3e12eb11	0.14347483
156	0x3ec40dd8	0.38291812
157	0x3e348772	0.17629793
158	0xbd9d1983	-0.076708816
159	0x3e0d1620	0.13777971
160	0x3d4ef204	0.050523773
161	0x3e2ef54e	0.17085764
162	0xbc603cdb	-0.013686384
163	0xbd708092	-0.058716364
164	0xbe893b1a	-0.26802903
165	0x3e53ec89	0.206957
166	0x3df13f1b	0.117796145
167	0xbdbff434	-0.0937275
168	0x3cbbbb3b	0.022916427
169	0x3d125b93	0.035731863
170	0xbec7eeb3	-0.390493
171	0xbe168004	-0.14697272
172	0x3ecf22a0	0.40456104
173	0x3e4c62cf	0.19959567
174	0xbe58cec7	-0.2117263
175	0xbe00e9d7	-0.12589203
176	0xbe8952b9	-0.26820925
177	0x3e510d5c	0.20415252
178	0x3c9f9e90	0.019484788
179	0xbe434748	-0.1907016
180	0xbe3eed3f	-0.1864519
181	0xbeaf8b30	-0.3428588
182	0x3e887007	0.2664797
183	0xbe9645ad	-0.29350033
184	0x3db52441	0.088448055
185	0x3dde25bd	0.10847042
186	0xbe6d7be9	-0.23191799
187	0x3e1063d4	0.14100581
188	0x3e042fc7	0.1290885
189	0xbe5f2c4b	-0.2179424
190	0x3d0a1c4f	0.033718403
191	0xbe1f00a8	-0.15527594
192	0xbe08692d	-0.13321371
193	0x3ecb8dd8	0.39756656
194	0xbd5b979e	-0.05361139
195	0xbe255e3c	-0.16149229
196	0xbe396e94	-0.18108588
197	0x3c350750	0.011049107
198	0x3e2fd96c	0.17172784
199	0x3e076183	0.13220792
200	0x3e5b60f8	0.2142371
201	0x3e1f74b1	0.15571858
202	0xbf047e71	-0.51755434
203	0xbc43499e	-0.011919407
204	0x3b2fcb54	0.0026824074
205	0x3e4c0686	0.19924363
206	0xbe03b1cf	-0.12860797
207	0x3e1e01c0	0.15430355
208	0x3e67cba1	0.22636272
209	0xbea43908	-0.3207476
210	0x3e0178b7	0.12643705
211	0xbe4e29d4	-0.20133144
212	0x3dac5550	0.084147096
213	0xbdd94494	-0.10608783
214	0xbeed63f9	-0.46365336
215	0x3e223e17	0.15843998
216	0xbebd8139	-0.37012652
217	0xbc95e6c6	-0.018298518
218	0x3ec345de	0.38139242
219	0xbea12c73	-0.31479225
220	0x3eab9859	0.3351467
221	0x3e7fbe3b	0.24974911
222	0x3de2413e	0.110476
223	0xbdaefd6e	-0.085444316
224	0x3e6ad60c	0.22933215
225	0x3ef8950e	0.4855122
226	0xbe00f3da	-0.12593022
227	0x3e6c6f44	0.2308932
228	0xbe107b16	-0.14109454
229	0x3c8ed5e1	0.01743597
230	0xbbe3970c	-0.0069454964
231	0x3d18da77	0.03731772
232	0x3e033589	0.12813391
233	0xbd75ffc4	-0.06005837
234	0xbed2fd59	-0.41208914
235	0xbbb0724f	-0.0053847204
236	0x3ebbde33	0.36692962
237	0x3e8652d9	0.26235083
238	0x3d0d711a	0.03453169
239	0x3ea4dfb4	0.32201922
240	0xbd410aaa	-0.04712931
241	0x3ea6dd4c	0.3259071
242	0xbcd1d86d	-0.025615895
243	0x3d7693ad	0.06019943
244	0xbe299f4c	-0.16564673
245	0x3e69c1e9	0.22827877
246	0x3d339958	0.043847412
247	0x3da9af96	0.082854435
248	0xbce94f11	-0.028480085
249	0x3e1334a4	0.1437555
250	0xbee867f2	-0.45391804
251	0x3c8a8445	0.016908774
252	0x3c1be7b0	0.009515688
253	0x3e37805f	0.17920063
254	0x3e54f603	0.20796971
255	0x3e31ffca	0.17382732

gnn_base.gnn.gnn1.lin_key.bias f4 [48]
0	0x3d69c030	0.05706805
1	0x3df9e443	0.122017406
2	0x3e79a937	0.24380957
3	0x3d8d9f4c	0.06915149
4	0xbd88fe66	-0.06689148
5	0x3d7af5fe	0.061269753
6	0xbe67cfdf	-0.2263789
7	0xbe117342	-0.14204124
8	0xbd883906	-0.06651501
9	0xbda16ef7	-0.07882493
10	0x3c267530	0.010159776
11	0x3e5d1c84	0.21592909
12	0xbe54fbe1	-0.20799209
13	0xbdc73c68	-0.097283185
14	0x3e08adaa	0.13347498
15	0x3e1f5dbf	0.15563105
16	0xbdcaa5a8	-0.09894878
17	0xbc2fad99	-0.010722541
18	0xbda313cb	-0.079627596
19	0xbe387a24	-0.18015343
20	0xbdc228ba	-0.09480424
21	0x3e63516c	0.22199029
22	0x3dc49b86	0.09599976
23	0xbdb8052f	-0.08985364
24	0x3e129698	0.1431526
25	0xbe299d4f	-0.16563915
26	0xbe7d7edb	-0.24755423
27	0xbe6d267a	-0.23159209
28	0x3e3791ee	0.17926762
29	0xbdc3c7ed	-0.09559617
30	0x3e11ef56	0.14251456
31	0xbd9df121	-0.07712007
32	0x3e3ead72	0.18620852
33	0xbd897155	-0.067110695
34	0xbdcd32c4	-0.100194484
35	0xbddaa008	-0.10675055
36	0x3d194b82	0.037425525
37	0x3df4372e	0.11924587
38	0xbd67c74c	-0.05658655
39	0xbe385a6e	-0.18003246
40	0x3d535173	0.051591348
41	0x3ae3402a	0.0017337848
42	0x3e7dcab5	0.24784358
43	0xbd0aa014	-0.03384407
44	0xbe1986a0	-0.14992762
45	0xbe793752	-0.2433751
46	0xbe1cd53b	-0.15315716
47	0xbe7a1c18	-0.2442478

gnn_base.gnn.gnn1.lin_query.weight f4 [48, 16]
0	0x3d9b354b	0.07578524
1	0xbe5d2997	-0.21597897
2	0xbe0dfab2	-0.13865164
3	0x3ed0627d	0.4070014
4	0xbe50b022	-0.2037969
5	0x3e656ec5	0.22405536
6	0x3e982ca7	0.29721567
7	0xbe74d4a6	-0.23909244
8	0x3e25b4a4	0.1618219
9	0xbd3bb65f	-0.04582822
10	0x3b8214e8	0.0039697774
11	0xbd8f82ef	-0.070073955
12	0xbe3e454f	-0.18581127
13	0x3c980eb1	0.018561693
14	0x3de5fb0b	0.11229523
15	0xbd943214	-0.07236114
16	0xbd8b85db	-0.0681264
17	0x3d182bc0	0.0371511
18	0x3e91ebd9	0.2850025
19	0x3d6618d0	0.056176007
20	0x3eab5e2c	0.33470285
21	0xbe1d0ca1	-0.15336849
22	0xbebe5b7b	-0.3717917
23	0xbea4ec20	-0.322114
24	0xbe395242	-0.18097785
25	0x3dd0fdf6	0.10204689
26	0x3ec23b75	0.37935987
27	0xbe1d7224	-0.15375572
28	0xbd5332c8	-0.0515621
29	0x3d750608	0.059820205
30	0x3e41ea9d	0.18937154
31	0xbd4b98f1	-0.049706403
32	0x3e43fca6	0.19139346
33	0x3d833c47	0.06407981
34	0x3c03091f	0.00799778
35	0xbe52b94c	-0.20578498
36	0x3e8a63e8	0.27029347
37	0x3d9a3a3c	0.075306386
38	0x3ea06e5b	0.31334195
39	0x3d589fa6	0.052886628
40	0x3e527c76	0.2055529
41	0xbd73a184	-0.059480205
42	0x3ca1f048	0.019767895
43	0x3e73d014	0.23809844
44	0xbea69766	-0.32537383
45	0xbded1410	-0.11576092
46	0xbe046640	-0.1292963
47	0x3cac5fb8	0.021041736
48	0x3e7fcbb1	0.24980046
49	0xbef286ae	-0.47368377
50	0xbd35b23b	-0.044359427
51	0x3e94139c	0.2892121
52	0x3e456d96	0.19280085
53	0xbdeb6be6	-0.11495189
54	0xbecb893c	-0.3975314
55	0xbc79a7cd	-0.015237761
56	0x3e80a775	0.2512776
57	0x3e026f6d	0.12737818
58	0xbecc06ae	-0.39848846
59	0x3f321e51	0.6957751
60	0xbcaa17e4	-0.020763345
61	0x3e9e5211	0.30921987
62	0xbb3d658c	-0.0028899638
63	0xbda018e2	-0.07817246
64	0xbd98a842	-0.07453968
65	0xbe2c3a0e	-0.16819021
66	0x3d65e8e5	0.05613031
67	0x3d6daf36	0.058028422
68	0x3dd0ccda	0.10195322
69	0x3d57f0dc	0.052719936
70	0x3e58f52f	0.2118728
71	0xbe19b65a	-0.15010968
72	0x3db81634	0.0898861
73	0xbe1bced1	-0.15215613
74	0x3e9dc3f1	0.30813554
75	0x3eb9ee8c	0.3631481
76	0x3d302d4c	0.04301195
77	0x3edb909d	0.4288377
78	0xbec81998	-0.39082026
79	0xbe115a79	-0.14194669
80	0xbe71964f	-0.23592494
81	0x3e582be4	0.21110493
82	0xbd655014	-0.05598457
83	0x3e168b10	0.14701486
84	0xbe735c12	-0.23765591
85	0x3da0519f	0.07828068
86	0x3d99119a	0.0747406
87	0x3e4220ed	0.18957873
88	0xbe2f6649	-0.17128862
89	0xbdcba804	-0.09944156
90	0x3ee180bb	0.44043526
91	0xbe92c3dd	-0.28665057
92	0xbe8a8563	-0.2705489
93	0xbd48ada7	-0.048993733
94	0xbdd02ce7	-0.101648144
95	0xbe8e18c2	-0.27753264
96	0x3e4d9d58	0.20079553
97	0xbd16a799	-0.036780927
98	0xbcec94fd	-0.028879637
99	0xbd58d400	-0.052936554
100	0x3d87c717	0.0662977
101	0xbd9516ab	-0.07279714
102	0xbe61fa10	-0.22068048
103	0xbd3ac338	-0.04559633
104	0xbea0f059	-0.3143337
105	0x3d1a1852	0.03762085
106	0xbe6f6f13	-0.23382215
107	0x3e8ad821	0.27118018
108	0x3d95aeb8	0.073087156
109	0x3f18efc4	0.59740853
110	0xbd770fc1	-0.06031776
111	0xbdb250a1	-0.08706785
112	0x3e2b3b84	0.16721922
113	0xbeb8d95b	-0.3610333
114	0xbe8f2759	-0.27959707
115	0xbc47955c	-0.012181606
116	0x3e1acba9	0.15116753
117	0xbda1295e	-0.07869218
118	0x3e8b2f84	0.2718469
119	0xbe3f617a	-0.18689528
120	0x3e4498bd	0.1919889
121	0xbdd7c757	-0.10536068
122	0xbea5a17e	-0.3234977
123	0x3f9dd786	1.2331398
124	0x3eaa7836	0.3329484
125	0xbd83650d	-0.06415758
126	0x3d254eed	0.040358473
127	0x3f0846af	0.53232855
128	0x3e01243f	0.12611483
129	0x3dc64b58	0.096823394
130	0xbbfd987c	-0.007739125
131	0x3c0bb0ac	0.008526009
132	0xbd072266	-0.03299179
133	0xbd13c568	-0.036076933
134	0x3e907255	0.28212228
135	0xbdb02476	-0.08600704
136	0x3e96dcee	0.2946543
137	0xbd51de52	-0.05123741
138	0xbe48229f	-0.19544457
139	0x3e26b2df	0.16279171
140	0xbca1dfd2	-0.019760046
141	0xbe93a828	-0.2883923
142	0x3e11e0d4	0.14245921
143	0xbd4e2439	-0.050327513
144	0x3e0d6cc4	0.13811022
145	0x3e81c21a	0.253434
146	0xbcebb859	-0.028774427
147	0x3e46c5ee	0.19411442
148	0x3dc5ace6	0.096521184
149	0x3db65177	0.08902257
150	0x3caecd54	0.021338142
151	0xbd236c01	-0.039897922
152	0xbcfe0c0b	-0.031011602
153	0xbd82bfd6	-0.06384246
154	0x3e1af7da	0.1513361
155	0xbebb2566	-0.3655197
156	0xbea6b749	-0.3256171
157	0x3db85600	0.09000778
158	0x3ea90d86	0.3301813
159	0xbe9736f2	-0.29534107
160	0x3e6fd876	0.23422417
161	0x3e8cfe51	0.27537778
162	0xbbc76787	-0.0060853395
163	0xbe455227	-0.1926962
164	0xbd999ef3	-0.0750102
165	0xbdef7179	-0.11691565
166	0xbddc794b	-0.10765322
167	0xbd3ff842	-0.046867616
168	0x3da3aa76	0.07991497
169	0xbe00516c	-0.1253106
170	0xbe8bd1c3	-0.27308473
171	0x3f0879d6	0.53310907
172	0x3ed9d760	0.4254713
173	0x3eb15615	0.34635988
174	0x3c19c8d1	0.009386257
175	0x3e890bd4	0.26766837
176	0x3e160b84	0.1465283
177	0xbe448a53	-0.19193392
178	0xbe52a824	-0.20571953
179	0xbddfc438	-0.10926098
180	0xbd855f39	-0.06512303
181	0x3d46f8fe	0.0485773
182	0x3e875f38	0.26439834
183	0xbea24ac6	-0.31697673
184	0x3deca362	0.115546
185	0x3d6e1448	0.05812481
186	0xbec79344	-0.38979542
187	0x3e9d89c4	0.3076917
188	0xbe82eeec	-0.25572908
189	0xbde5349d	-0.11191676
190	0xbd5239cb	-0.051324647
191	0x3e9b6d9b	0.3035706
192	0x3dc5288e	0.09626876
193	0x3da5a66a	0.080883816
194	0xbe8febd2	-0.28109604
195	0xbe695e00	-0.22789764
196	0x3cc2ea30	0.02379331
197	0x3e831c23	0.25607404
198	0x3e51ff41	0.20507528
199	0xbb6d4cdb	-0.003620914
200	0x3a26854e	0.00063522614
201	0xbe0227a9	-0.12710442
202	0xbe37048f	-0.17872833
203	0x3da6dc9a	0.08147545
204	0xbe107a6c	-0.141092
205	0xbeb8f686	-0.36125582
206	0xbe8e9e00	-0.2785492
207	0x3e90896d	0.28229848
208	0x3b9a29ac	0.0047046747
209	0xbcf6a084	-0.030105837
210	0xbd1879b0	-0.037225425
211	0x3c540170	0.012939796
212	0x3dd5cc2d	0.10439334
213	0xbe1cf384	-0.15327269
214	0xbee99a0b	-0.45625338
215	0x3eae0e9f	0.3399553
216	0xbe7bff9d	-0.24609227
217	0x3e9ea6ba	0.30986577
218	0x3e8001df	0.25001428
219	0xbebd2158	-0.36939502
220	0x3df14aba	0.11781831
221	0x3ecff650	0.4061761
222	0xbd1dd51e	-0.038533323
223	0xbeeec704	-0.46636212
224	0x3d8a24e1	0.06745315
225	0x3d67863d	0.056524504
226	0xbebf5711	-0.37371114
227	0x3e5e4e6a	0.217096
228	0xbe50c7ed	-0.20388766
229	0x3e222235	0.15833361
230	0xbd1321e4	-0.035920992
231	0xbe83c0f3	-0.25733146
232	0xbd8b5ffa	-0.068054155
233	0x3e55eaa3	0.20890288
234	0xbdade33a	-0.08490606
235	0x3b33e29d	0.0027448304
236	0xbdb09e68	-0.086239636
237	0x3ce02db1	0.027365537
238	0xbd14a638	-0.03629133
239	0x3e39e1ca	0.18152538
240	0x3e504272	0.20337847
241	0x3e33948b	0.17537133
242	0xbdc122c4	-0.09430459
243	0xbd8dec05	-0.06929783
244	0x3dcde44a	0.10053308
245	0x3e380b17	0.1797298
246	0x3d8301e9	0.06396849
247	0xbe8dc878	-0.27692008
248	0xbdc4b13b	-0.096041165
249	0xbe8a9d64	-0.27073205
250	0xbed45469	-0.4147065
251	0x3f0bd57d	0.5462263
252	0x3ceed47c	0.029154055
253	0x3e02ae98	0.12761915
254	0x3e1db177	0.15399729
255	0x3eb804b4	0.35941088

gnn_base.gnn.gnn1.lin_query.bias f4 [48]
0	0x3e4e1279	0.20124234
1	0x3e151a34	0.14560777
2	0xbe55325a	-0.20819989
3	0x3ecbe571	0.39823487
4	0x3c3310a8	0.010929264
5	0x3e435771	0.19076325
6	0xbe412393	-0.18861227
7	0xbe66bf18	-0.22533834
8	0x3e342703	0.17593007
9	0xbcaef587	-0.021357311
10	0xbe6b5ff8	-0.22985828
11	0xbea2e079	-0.31811884
12	0xbe887154	-0.26648962
13	0x3e1fe6e2	0.15615419
14	0xbea62423	-0.32449445
15	0xbdaa81aa	-0.08325513
16	0xbc0eecf8	-0.00872349
17	0xbe32948c	-0.17439479
18	0xbe680482	-0.2265797
19	0x3cf8b14b	0.030357977
20	0xbe81985c	-0.25311553
21	0xbe054688	-0.13015187
22	0x3dcac08c	0.09900007
23	0xbe8362e4	-0.25661385
24	0x3df0e8b4	0.117631346
25	0x3e9c5571	0.30533937
26	0x3d1aa2b3	0.03775282
27	0xbe27d337	-0.16389166
28	0xbd613443	-0.05498148
29	0x3e350ea6	0.17681369
30	0x3e2c7939	0.16843118
31	0x3d51c14b	0.05120973
32	0xbd2391c4	-0.039933935
33	0x3c63229e	0.013863234
34	0x3e1a3f6b	0.15063255
35	0xbcf7599f	-0.030194102
36	0xbe43214f	-0.19055675
37	0x3bbb4909	0.0057154936
38	0xbde9c3f8	-0.11414331
39	0x3ebf7442	0.37393385
40	0x3de091af	0.10965287
41	0xbe824f3a	-0.2545107
42	0x3e5f04ec	0.21779221
43	0x3ecd8cdf	0.4014654
44	0xbe276005	-0.16345222
45	0xbeb284cb	-0.34866938
46	0xbd94e06b	-0.07269367
47	0x3d7572f8	0.059924096

gnn_base.gnn.gnn1.lin_value.weight f4 [48, 16]
0	0x3e16ac5f	0.14714192
1	0x3db2f038	0.08737224
2	0xbdb8b856	-0.09019534
3	0x3e6eb73c	0.23312086
4	0x3d1d5b0f	0.03841692
5	0x3d00521e	0.031328313
6	0x3e0590e4	0.13043553
7	0xbcda9240	-0.026681066
8	0xbdbf4e2b	-0.09341081
9	0x3e92c883	0.28668603
10	0xbea4a83c	-0.32159603
11	0xbcde6fd0	-0.027152926
12	0xbe694c89	-0.22783102
13	0x3d076bb4	0.033061698
14	0xbebf9f5c	-0.3742627
15	0x3e23846b	0.15968482
16	0xbe1ce196	-0.15320429
17	0xbe2a91fb	-0.1665725
18	0xbd36b528	-0.044606358
19	0x3dab1f8a	0.08355625
20	0x3e80ea60	0.25178814
21	0x3eb537d5	0.3539416
22	0xbe3d49df	-0.18485211
23	0x3e81a9d2	0.25324875
24	0xbc378f23	-0.01120356
25	0x3da4fe29	0.0805629
26	0xbe1bbf96	-0.15209803
27	0xbe2345b5	-0.1594456
28	0xbcce95c1	-0.025217893
29	0xbdb58fe3	-0.08865335
30	0x3d7f9c5e	0.062404983
31	0xbdc70428	-0.097175896
32	0xbda8e2cb	-0.08246382
33	0x3dac61e0	0.08417106
34	0x3dcfb78d	0.101424314
35	0xbeea64ff	-0.4578018
36	0x3ddbf3fe	0.10739897
37	0xbd3c6a0f	-0.045999583
38	0xbc0fd42e	-0.008778615
39	0xbdfe86bc	-0.12428042
40	0xbe4cbded	-0.19994326
41	0x3e38ac9e	0.18034598
42	0x3e949ef3	0.2902752
43	0x3d492897	0.049110975
44	0x3a095e7a	0.00052402134
45	0xbc993a12	-0.018704448
46	0xbd8f0fe2	-0.06985451
47	0x3ec3e390	0.38259554
48	0xbea214eb	-0.31656584
49	0xbe06d70e	-0.13167974
50	0xbe28c7b8	-0.16482437
51	0xbd89ec13	-0.06734481
52	0xbd0a9c53	-0.03384049
53	0xbd9adb02	-0.07561304
54	0x3ec41848	0.38299775
55	0xbe9a3aa8	-0.30122876
56	0x3d27151b	0.040791612
57	0x3d3f9d90	0.046781123
58	0x3d754490	0.05987984
59	0x3e02e6e3	0.12783389
60	0xbeb92a6b	-0.36165175
61	0xbea5026f	-0.3222842
62	0xbe0eb5c4	-0.13936526
63	0x3e0efa62	0.13962701
64	0x3e46b760	0.1940589
65	0x3eb4e7e8	0.3533318
66	0x3e42f7a0	0.19039774
67	0xbd7241e0	-0.059144855
68	0x3e0b849d	0.13624807
69	0x3e997fce	0.2998032
70	0xbe407c9f	-0.18797539
71	0xbe2e0c92	-0.16996983
72	0xbdb3fbe5	-0.087882794
73	0x3e22316e	0.15839168
74	0x3cc7ab39	0.024373638
75	0x3c9619ba	0.018322814
76	0xbda47090	-0.08029282
77	0x3d92e065	0.07171706
78	0xbdf091ac	-0.11746535
79	0x3cffb51e	0.031214293
80	0x3e724239	0.23658074
81	0x3e162bef	0.14665197
82	0x3dcc65fc	0.099803895
83	0xbe30161d	-0.17195936
84	0x3de18e49	0.11013467
85	0x3c22d301	0.009938003
86	0xbdf7a78e	-0.120925054
87	0xbe4aa839	-0.19790734
88	0xbe2d87ba	-0.16946307
89	0xbe80e88b	-0.25177416
90	0xbeb6f938	-0.35737014
91	0xbe776845	-0.2416087
92	0x3e32c3fe	0.17457578
93	0x3b608e19	0.0034264384
94	0xbe92f15c	-0.28699768
95	0xbcd8d2ed	-0.026467765
96	0xbe42883f	-0.18997286
97	0xbdb9997f	-0.0906248
98	0xbddc7319	-0.10764141
99	0xbe2adff0	-0.16686988
100	0x3e7675fb	0.24068443
101	0x3e00f20d	0.12592335
102	0x3e21a374	0.15785009
103	0xbcc3745d	-0.023859197
104	0xbe27f9aa	-0.16403833
105	0x3e8f12c9	0.2794402
106	0xbebad414	-0.36489928
107	0xbeaa908a	-0.333134
108	0x3df22d45	0.11825041
109	0xbd994584	-0.07483962
110	0xbebec030	-0.37256002
111	0xbe335a56	-0.17514929
112	0x3ee5af4a	0.44860297
113	0xbeae865d	-0.34086886
114	0xbd9d8aab	-0.076924644
115	0xbd5c0457	-0.053715076
116	0xbdefbb42	-0.117056385
117	0xbe4be890	-0.19912934
118	0xbde6b19d	-0.11264346
119	0xbe19665c	-0.14980453
120	0xbd4e0f8b	-0.05030779
121	0xbee6480e	-0.44976848
122	0x3ea1ec4e	0.316256
123	0xbe0ab9bf	-0.13547419
124	0xbde21e4f	-0.11040937
125	0xbda87345	-0.08225111
126	0x3e8e8596	0.27836293
127	0x3c20f549	0.009824106
128	0x3d397714	0.045279577
129	0x3ba97ce4	0.005172359
130	0xbdb649f1	-0.08900822
131	0x3e7c75a4	0.24654251
132	0xbd588ee0	-0.05287063
133	0xbdcd4f6b	-0.100249134
134	0x3d9e4086	0.077271506
135	0x3d09d788	0.033652812
136	0x3e1c1e8b	0.15246026
137	0xbeb61d5f	-0.35569283
138	0x3e11d2cf	0.14240573
139	0xbe9136fd	-0.28362265
140	0xbe5abb6d	-0.2136056
141	0x3e597385	0.21235473
142	0x3df73cf5	0.120721735
143	0x3dba0174	0.090823084
144	0xbe58ecff	-0.21184157
145	0xbe18aa39	-0.14908685
146	0xbdfaa695	-0.12238804
147	0x3d72e353	0.059298825
148	0x3db07037	0.08615153
149	0xbe94a21f	-0.2902994
150	0xbe384b86	-0.1799756
151	0xbe832d18	-0.2562034
152	0xbe4cec98	-0.20012128
153	0x3e06d430	0.1316688
154	0x3ed10982	0.40827566
155	0x3d5bbd1d	0.05364715
156	0xbcb3fd54	-0.021971382
157	0xbdfe7541	-0.12424708
158	0x3c081d91	0.00830783
159	0xbc9e84de	-0.019350465
160	0x3e9c5c63	0.30539235
161	0xbe6e4fe8	-0.2327267
162	0x3dd99236	0.10623591
163	0xbec562d3	-0.3855196
164	0xbe0c7c7e	-0.13719365
165	0xbe9d1a88	-0.30684304
166	0x3cd9d0e3	0.026588863
167	0xbe605a34	-0.2190941
168	0x3d0e28a1	0.034706715
169	0xbe4ddb5d	-0.20103212
170	0x3ee5149a	0.4474228
171	0x3de790da	0.11306925
172	0xbdb7bc7c	-0.089714974
173	0x3eabfe46	0.33592433
174	0xbdb5d678	-0.08878797
175	0xbe101fc9	-0.14074625
176	0xbeb465ea	-0.35234004
177	0xbcaf336f	-0.02138683
178	0x3e01425b	0.12622969
179	0x3ef87b94	0.48531783
180	0xbcf388c0	-0.029728293
181	0xbe8a0bdd	-0.26962176
182	0x3e10adc1	0.14128782
183	0xbe7c8e64	-0.24663693
184	0x3cfa5bdd	0.030561382
185	0xbe0c8627	-0.1372305
186	0x3ed50142	0.41602522
187	0xbe0a3892	-0.13498142
188	0xbe982a39	-0.29719713
189	0xbe2c539d	-0.16828771
190	0x3e0a77c2	0.13522246
191	0xbe2e284d	-0.17007561
192	0x3d1f6d7f	0.038922783
193	0x3e9e6af8	0.30940986
194	0x3e890e23	0.26768598
195	0x3e0edf4f	0.13952373
196	0xbe0ae807	-0.13565074
197	0x3e370aab	0.17875163
198	0x3dfee129	0.1244529
199	0x3ec43372	0.383205
200	0xbe81b3f4	-0.25332606
201	0xbd4b7f09	-0.049681697
202	0x3da30754	0.07960382
203	0xbe61427c	-0.21998018
204	0x3f243858	0.64148474
205	0x3e8e4fc5	0.27795234
206	0x3df4982b	0.11943086
207	0xbc7ab6d0	-0.015302375
208	0x3df64762	0.12025334
209	0x3d2566f9	0.040381406
210	0x3da3ef41	0.080046184
211	0x3dfc6437	0.12323802
212	0x3d908da8	0.07058269
213	0x3e6668a8	0.2250086
214	0x3d1c7f8a	0.03820757
215	0x3e45f15f	0.19330357
216	0x3e09e955	0.13467915
217	0x3e9da7cf	0.3079209
218	0xbe4bea1b	-0.19913523
219	0xbdf767fb	-0.120803796
220	0x3d6079d7	0.054803696
221	0xbe3c4c6b	-0.18388526
222	0x3c411828	0.011785544
223	0xbdecde5e	-0.11565851
224	0x3e95a21c	0.29225242
225	0xbe14b151	-0.14520766
226	0x3e67b772	0.22628573
227	0xbdeb6a5b	-0.11494895
228	0xbcf90448	-0.03039755
229	0xbc0e6752	-0.008691626
230	0xbd560db5	-0.052259166
231	0xbda8f507	-0.0824986
232	0x3dd52c0e	0.104087934
233	0xbecce0b8	-0.40015197
234	0xbdb730cc	-0.08944854
235	0xbe211347	-0.1573001
236	0xbe1e7a15	-0.15476258
237	0xbddaf19a	-0.10690613
238	0xbc967f62	-0.018371288
239	0xbd1e855a	-0.038701393
240	0xbd43ac31	-0.047771636
241	0x3e71bd3e	0.23607346
242	0xbe89e604	-0.269333
243	0xbeefbc7c	-0.4682349
244	0x3e493322	0.19648412
245	0x3d8920f8	0.066957414
246	0xbd5e2557	-0.05423483
247	0x3eab3d3f	0.33445165
248	0xbda2b952	-0.07945503
249	0xbdaa3995	-0.08311764
250	0xbdeab841	-0.11460925
251	0x3dea42eb	0.11438545
252	0xbec18f04	-0.37804425
253	0xbde71d87	-0.11284929
254	0xbe27ff1b	-0.16405909
255	0x3e259f83	0.1617413

gnn_base.gnn.gnn1.lin_value.bias f4 [48]
0	0x3e5fb471	0.21846177
1	0x3e8392ae	0.25697845
2	0x3d69e6d5	0.057104904
3	0x3b5414b7	0.003236098
4	0x3e0b4891	0.136019
5	0x3edb138b	0.42788348
6	0x3ead5f7e	0.33861917
7	0xbd415d6a	-0.047208227
8	0xbd66cb26	-0.05634608
9	0x3db90f4a	0.09036119
10	0x3abdfaf1	0.0014494342
11	0xbe33b5d3	-0.17549829
12	0xbe48578f	-0.19564651
13	0xbd5d9daa	-0.05410544
14	0x3e419378	0.18903911
15	0xbc1be599	-0.00951519
16	0x3e893b87	0.26803228
17	0x3ddb773a	0.107161
18	0xbe3941a6	-0.18091449
19	0x3e502cf8	0.20329654
20	0x3dfd5a7f	0.123707764
21	0x3de074b8	0.10959762
22	0x3e76185c	0.2403273
23	0xbe1674c6	-0.14692983
24	0x3e3ebfe0	0.18627882
25	0xbe8a147d	-0.26968756
26	0x3e07ab0d	0.13248844
27	0xbe0a811b	-0.13525812
28	0x3db31284	0.08743766
29	0x3e48d79d	0.196135
30	0x3d952bfa	0.072837785
31	0x3e726ac9	0.23673548
32	0x3e185cd4	0.14879161
33	0x3e8064ee	0.25077003
34	0x3e311f8a	0.17297187
35	0x3e8ce25a	0.27516443
36	0x3e4ed531	0.20198514
37	0x3d6d1d46	0.057889245
38	0x3e25d298	0.16193616
39	0xbe94436d	-0.28957692
40	0x3dd929f3	0.10603704
41	0x3d929469	0.07157213
42	0x3e3317a5	0.17489488
43	0x3db48f80	0.08816433
44	0x3ddd084f	0.107926
45	0xbd81df6e	-0.06341444
46	0x3c914a72	0.017735694
47	0xbdb5082c	-0.08839449

gnn_base.gnn.gnn1.lin_edge.weight f4 [48, 1]
0	0xbd905f6e	-0.07049452
1	0xbf21c102	-0.6318513
2	0x3eab9740	0.33513832
3	0xc01d37a5	-2.4565213
4	0xbe5f37a3	-0.21798567
5	0x3fdf33aa	1.7437642
6	0xbf5f7905	-0.87294036
7	0xc009a07a	-2.1504197
8	0x3ef832b2	0.48476177
9	0x3fa58c8d	1.2933518
10	0xbf016d52	-0.50557435
11	0xbf7281dc	-0.947294
12	0x3f5c69e5	0.8609908
13	0x3d645d19	0.055752847
14	0x3f3a7a05	0.7284244
15	0xbf1c68cb	-0.610974
16	0x3f76cd13	0.9640667
17	0xbf0cb1c4	-0.5495875
18	0x3fd38489	1.6524822
19	0xbfdcf5c7	-1.7262505
20	0x3ea20307	0.31642935
21	0xbe44f822	-0.1923528
22	0xbef4a30c	-0.47780645
23	0x3e73b87b	0.23800842
24	0x3f24f382	0.64434063
25	0xbf3cc7e9	-0.7374254
26	0x3ee581e6	0.44825667
27	0x3ca22eff	0.0197978
28	0x4006ce71	2.1063502
29	0x3f8ede2f	1.1161555
30	0x3f8b085a	1.0861924
31	0x3e91060d	0.2832493
32	0xbf8eeb49	-1.1165553
33	0x3f4ea8ea	0.8072649
34	0xbe7d4fae	-0.24737427
35	0xbe10d3f2	-0.1414335
36	0x3f264c05	0.64959747
37	0x400aab68	2.1667118
38	0x3f4a82de	0.7910594
39	0xbf986611	-1.1906148
40	0x3fa4d28c	1.2876754
41	0x3f83db18	1.0301237
42	0xbf277676	-0.6541513
43	0xbfe01a75	-1.7508074
44	0x3fe167dc	1.760982
45	0x3f8d0511	1.1017171
46	0xbfb8989f	-1.4421576
47	0xc007b687	-2.1205156

gnn_base.gnn.gnn1.lin_skip.weight f4 [16, 16]
0	0x3e218dbd	0.15776725
1	0x3e2818be	0.16415688
2	0x3e1ef323	0.15522437
3	0xbe239644	-0.1597529
4	0xbda0627c	-0.078312844
5	0xbe233062	-0.15936425
6	0x3f1b8882	0.6075517
7	0xbc70f952	-0.01470788
8	0xbb93ff1d	-0.004516496
9	0xbea4e231	-0.3220382
10	0xbf043174	-0.5163796
11	0x3db4eef4	0.08834639
12	0x3e41f5db	0.18941443
13	0x3d56b387	0.052417304
14	0x3e5b9773	0.21444492
15	0xbcdd8b76	-0.02704404
16	0x3e18387f	0.14865302
17	0x3eafa702	0.34307104
18	0xbdd7939d	-0.10526202
19	0xbe8e8e67	-0.2784302
20	0xbda013c3	-0.07816269
21	0x3d9b809d	0.075928904
22	0x3ee4a5f8	0.44657874
23	0x3cadf72e	0.021236029
24	0x3e2ac8a6	0.16678104
25	0xbebbe174	-0.36695445
26	0xbe9d1ad4	-0.3068453
27	0x3e208bad	0.15678282
28	0x3d49d64f	0.049276646
29	0x3e304695	0.17214425
30	0x3eae986b	0.3410066
31	0x3e8d90c2	0.27649504
32	0xbdd57f10	-0.10424626
33	0x3df05418	0.117347896
34	0x3e70121a	0.23444405
35	0xbe151b69	-0.14561237
36	0xbe82b234	-0.25526583
37	0xbe1316f6	-0.14364228
38	0x3ea2c614	0.31791747
39	0x3dfa0edb	0.12209865
40	0xbc24de3e	-0.010062752
41	0xbd2767d4	-0.040870503
42	0x3d1c63bc	0.03818105
43	0xbd6e8503	-0.05823232
44	0xbdf39d7a	-0.11895271
45	0x3c37a44c	0.011208605
46	0x3d1c647f	0.038181778
47	0xbddc2879	-0.10749907
48	0x3e5960b6	0.21228299
49	0xbeb4c01b	-0.35302815
50	0x3e8f6f76	0.28014725
51	0xbe241e61	-0.16027214
52	0x3de2afa1	0.11068655
53	0x3e6fb72f	0.23409723
54	0x3e7803c2	0.24220183
55	0x3e3abe7c	0.18236727
56	0xbd856614	-0.065136105
57	0xbdc9946b	-0.098427616
58	0xbef5d0ca	-0.48010856
59	0x3cd19e76	0.025588255
60	0x3eae0198	0.3398559
61	0x3e91b91d	0.28461543
62	0xbe5cd06e	-0.21563885
63	0x3e743da8	0.23851645
64	0xbe1b77bb	-0.15182392
65	0x3bbc8cee	0.005754105
66	0x3d743935	0.05962487
67	0xbd823e17	-0.06359499
68	0x3d14ca5f	0.03632581
69	0xbdaa9263	-0.08328702
70	0xbe6227dc	-0.22085518
71	0x3d5ecabd	0.054392565
72	0x3dca0056	0.09863345
73	0x3dc2aa42	0.0950513
74	0x3d9d2984	0.07673934
75	0xbd4a6aa8	-0.04941812
76	0xbd5a430b	-0.053286593
77	0x3d098d7c	0.033582196
78	0xbe6636c9	-0.22481836
79	0xbcc079be	-0.023495551
80	0xbe14be04	-0.1452561
81	0x3e1582b4	0.1460064
82	0x3dd4b069	0.1038521
83	0x3cab2c72	0.020895217
84	0xbdfed237	-0.12442439
85	0x3dc549b6	0.096332
86	0xbeb74892	-0.35797554
87	0xbe3ec819	-0.18631019
88	0x3e9b15d8	0.30290103
89	0xbe346388	-0.17616093
90	0xbda5f42e	-0.08103214
91	0xbd5c3edc	-0.053770885
92	0xbccfcbcc	-0.025365733
93	0x3db52466	0.08844833
94	0x3de513c1	0.111854084
95	0xbe0277fa	-0.1274108
96	0xbd4779e1	-0.048700217
97	0x3e3f5bcc	0.18687361
98	0xbd980eca	-0.07424696
99	0x3c7c0179	0.0153812105
100	0x3df236f2	0.11826886
101	0xba04aa02	-0.00050607335
102	0x3e9590cf	0.29212043
103	0x3e54f3bd	0.20796104
104	0xbc766b7c	-0.015040275
105	0x3e7bae39	0.2457818
106	0xbea6c54f	-0.3257241
107	0x3eba1c24	0.36349595
108	0xbe24779d	-0.16061254
109	0xbd4b95d9	-0.049703453
110	0x3d5549ce	0.05207234
111	0x3e7cf159	0.24701442
112	0xbe413fec	-0.1887204
113	0xbe007936	-0.12546238
114	0x3d9081b6	0.070559904
115	0xbe3c7301	-0.18403246
116	0xbce06669	-0.027392583
117	0xbe6e2349	-0.23255648
118	0x3e635870	0.22201705
119	0xbe375cb4	-0.17906457
120	0x3e876bb9	0.26449373
121	0x3e60f19d	0.21967168
122	0x3ce123a4	0.027482815
123	0x3e8703b6	0.2637002
124	0x3dad4716	0.08460824
125	0x3e47d1ca	0.19513622
126	0x3e20cad9	0.1570238
127	0xbd12ce7f	-0.03584146
128	0xbdde4ecc	-0.10854873
129	0xbd9c4604	-0.07630542
130	0xbe0aba81	-0.13547708
131	0xbee22aa3	-0.44173154
132	0x3d75402f	0.059875663
133	0x3e45fa1c	0.1933369
134	0x3e47d9ab	0.19516627
135	0x3df98cfd	0.121850945
136	0xbea41a50	-0.32051325
137	0x3ea9f091	0.3319135
138	0x3e55b540	0.20869923
139	0xbd81b50e	-0.063333616
140	0x3c519ccb	0.01279373
141	0xbea89e88	-0.3293345
142	0xbeb71b84	-0.3576318
143	0xbe600673	-0.2187746
144	0x3e5b4a4b	0.2141506
145	0x3e388058	0.1801771
146	0xbe73a0eb	-0.23791854
147	0x3d6b69f7	0.057474103
148	0xbd91e7ee	-0.07124315
149	0x3d2e7b61	0.042598132
150	0x3ecb3f79	0.39696863
151	0xbde1ddfc	-0.11028668
152	0x3a0e1db4	0.0005421296
153	0x3e0622cd	0.13099213
154	0xbe434de8	-0.19072688
155	0x3e0c17b3	0.13680916
156	0xbe7beaa2	-0.24601224
157	0xbb637fd6	-0.0034713647
158	0x3dd48bb7	0.10378211
159	0xbe3101f7	-0.17285906
160	0x3e34a2f8	0.17640293
161	0xbe21079f	-0.15725563
162	0x3e86ba0f	0.26313826
163	0xbe151954	-0.14560443
164	0x3dca36fb	0.09873768
165	0xbd290b93	-0.041270804
166	0x3e5e260d	0.21694203
167	0x3e3f511e	0.18683288
168	0x3e8b44aa	0.27200824
169	0xbcc9116a	-0.024544436
170	0xbdaa8740	-0.08326578
171	0x3ec289e8	0.3799584
172	0x3efa973b	0.48943505
173	0x3e7d322c	0.2472617
174	0x3d9670e8	0.07345754
175	0x3e99d453	0.30044803
176	0x3c8d0392	0.017213617
177	0xbeaf5e74	-0.3425175
178	0xbdc4f1d3	-0.09616437
179	0x3e1e2f83	0.15447812
180	0x3d007ebf	0.031370874
181	0xbd2153b0	-0.03938645
182	0x3e310c59	0.17289867
183	0xbd790aff	-0.060801502
184	0x3d39fd39	0.045407508
185	0xbe2fa675	-0.17153342
186	0x3e6a5bb7	0.22886549
187	0x3dc4e06a	0.09613116
188	0xbd8ce5ba	-0.06879754
189	0xbe04c9db	-0.12967627
190	0x3e85f42a	0.26162845
191	0x3a1a28e2	0.0005880726
192	0x3ddd4dae	0.10805832
193	0xbdb6b5ee	-0.08921419
194	0xbe80cd55	-0.25156656
195	0x3d45e4cf	0.048313912
196	0x3e130350	0.14356732
197	0xbe0d3c1e	-0.13792464
198	0xbe3a49ef	-0.18192266
199	0xbe198406	-0.14991769
200	0x3e26556c	0.16243523
201	0x3e442b35	0.19157107
202	0xbe255069	-0.16143955
203	0x3e622a2e	0.22086403
204	0xbe81d987	-0.25361273
205	0xbeda16c4	-0.42595494
206	0x3deae2c6	0.11469035
207	0x3e9dc55c	0.30814636
208	0xbe29cf84	-0.16583067
209	0x3d9777ae	0.07395874
210	0xbe07ac42	-0.13249305
211	0x3e6265b8	0.22109115
212	0xbe9d77e5	-0.30755535
213	0x3eca27a8	0.3948338
214	0x3e8c484b	0.27398905
215	0xbd555c5e	-0.05209004
216	0x3de6269c	0.11237833
217	0xbec4f933	-0.38471374
218	0x3e333cf3	0.17503719
219	0xbd7475ef	-0.059682783
220	0xbe8cbea5	-0.274892
221	0x3dfce69d	0.123486735
222	0xbe5cd543	-0.21565728
223	0x3ea050c5	0.31311622
224	0x3d63c2f2	0.055605836
225	0x3e6d1c97	0.23155437
226	0xbe90ff7d	-0.28319922
227	0xbf00539a	-0.50127566
228	0x3be6bdb6	0.0070416583
229	0x3e9c8658	0.30571246
230	0x3e79c6bd	0.24392219
231	0xbd9d9df8	-0.07696146
232	0xbec0f959	-0.37690237
233	0x3ea5a98c	0.32355917
234	0xbd0cb49a	-0.034351923
235	0x3ec819e2	0.39082247
236	0xbeea4f89	-0.45763806
237	0xbee61cbd	-0.449438
238	0xbd815f23	-0.06316974
239	0x3b702dc3	0.003664837
240	0x3e0b6e55	0.13616307
241	0x3e2054e6	0.15657386
242	0xbc78c21f	-0.015183001
243	0xbe347a39	-0.17624749
244	0xbe837abb	-0.25679573
245	0x3e8abb52	0.2709604
246	0x3e7700b7	0.24121366
247	0x3e83cafc	0.25740802
248	0xbeb5b8de	-0.35492605
249	0xbe933ac4	-0.28755772
250	0x3bad54bc	0.005289642
251	0xbde7f5af	-0.11326157
252	0xbd6c94a8	-0.057758957
253	0x3e8b8c41	0.27255443
254	0xbec53712	-0.38518578
255	0x3d271176	0.040788136

gnn_base.gnn.gnn1.lin_skip.bias f4 [16]
0	0x3e0f87cc	0.14016646
1	0x3e199a34	0.1500023
2	0xbe81737e	-0.25283426
3	0x3dd9c414	0.10633102
4	0xbbb8c2e9	-0.0056384695
5	0x3ec7a4e5	0.38992992
6	0x3ea67288	0.32509255
7	0x3e28deb3	0.16491203
8	0x3d2aa940	0.041665316
9	0xbe808c96	-0.2510726
10	0xbda7cca6	-0.081933305
11	0xbe33f8ad	-0.17575331
12	0x3e6360ea	0.22204939
13	0xbdb36867	-0.087601475
14	0x3e6b2b5c	0.22965759
15	0x3fd30763	1.6486629
